Transformer/checkpoints/net.pth (torch, 271471 bytes, 64 tensors)

encoder.embedding.weight f4 [184, 32]
0	0x3e9ab88d	0.30218926
1	0xbf4e6d23	-0.8063528
2	0x3ed02ac2	0.40657622
3	0x3f756f17	0.95872635
4	0xbf8490ce	-1.0356691
5	0xbca8d62d	-0.02060994
6	0xbf1262f2	-0.5718223
7	0xbfe5d737	-1.7956303
8	0x3ebef8a4	0.37299073
9	0x3e56a3e2	0.20960954
10	0xbf00b512	-0.5027629
11	0xbf544edb	-0.82932824
12	0x3fba2969	1.4543887
13	0xbf80b15d	-1.0054127
14	0xbf8decf6	-1.108794
15	0xc00c8c8c	-2.1960783
16	0x3ee66ec2	0.45006377
17	0x3c06c3b0	0.0082253665
18	0x3fbae0c7	1.4599847
19	0xbf6746fd	-0.90342695
20	0xc02608a9	-2.5942786
21	0x3f1d25f6	0.6138605
22	0xbd062c34	-0.032757
23	0x3f482396	0.781793
24	0x3eda535d	0.42641726
25	0xbe3c99b4	-0.18418008
26	0x3ef448b1	0.4771171
27	0x3e426294	0.18982917
28	0x3fd7d8b7	1.6863011
29	0xbfa6922c	-1.3013358
30	0xbd70813d	-0.058717
31	0x3ebfd80a	0.37469512
32	0x3dba2d9e	0.09090732
33	0xbf905276	-1.1275165
34	0x3e826aad	0.25472012
35	0xbd286bca	-0.04111842
36	0xbde0f0ab	-0.10983404
37	0x3f1ba5a5	0.6079963
38	0x3ed9f4e9	0.42569664
39	0xbfd89a2d	-1.6922051
40	0xbec81df2	-0.39085346
41	0x3f74a3f0	0.9556265
42	0xbb0c478f	-0.0021404957
43	0xbf00cc66	-0.5031189
44	0xbe8f0577	-0.27933857
45	0x3f8979b6	1.0740268
46	0x3cac36f0	0.02102229
47	0xc011bc82	-2.2771306
48	0xbfad9145	-1.3559958
49	0x3f1c72f3	0.611129
50	0xbfc1db1a	-1.514499
51	0xbeaf198a	-0.34199172
52	0x3f1cf51a	0.61311495
53	0x3eab8613	0.33500728
54	0xbe69a5da	-0.22817174
55	0xbf4f27b7	-0.80919975
56	0xbeba3ae8	-0.36373067
57	0x3dba771f	0.09104752
58	0x3f98df27	1.1943101
59	0xbfa4f99b	-1.2888674
60	0xbfc51e9f	-1.539997
61	0xbfaa0325	-1.328221
62	0xbe7ddfdc	-0.24792427
63	0xc01e05c2	-2.4691014
64	0xbf5f8a5f	-0.8732051
65	0x3f04a765	0.51817924
66	0x3fa58af5	1.2933031
67	0xbf893106	-1.0718086
68	0xbed4984d	-0.41522446
69	0xbd7c4cf6	-0.061596833
70	0x3fcd7c05	1.6053473
71	0x3f6087b3	0.8770706
72	0xbf0ae4c5	-0.54255325
73	0xbee23bbb	-0.44186196
74	0x3eb626a1	0.35576347
75	0xbe6e7afb	-0.23289101
76	0x3ec2f00b	0.38073763
77	0x3eb0dc84	0.3454324
78	0xbe2b7a9e	-0.16745993
79	0xbf7be20a	-0.98391783
80	0x3e16a5dc	0.14711708
81	0x3fad8f5b	1.3559374
82	0xbe1db03f	-0.15399264
83	0xbfd8ae2b	-1.6928152
84	0x3d9c48d9	0.07631082
85	0x3f3994a8	0.72492456
86	0xbf6e755d	-0.9314783
87	0x3ff3d01a	1.9047883
88	0xbfe84bbb	-1.8148111
89	0xbf95d9a3	-1.1707042
90	0xbf029082	-0.5100175
91	0x3de0e6d6	0.109815285
92	0xbeaa215a	-0.3322857
93	0xbf7be294	-0.98392606
94	0xbfdbe3ac	-1.7178855
95	0x3f6dfa40	0.92959976
96	0xbd93f400	-0.07224274
97	0x3ef091bf	0.46986195
98	0x3deb8314	0.114996105
99	0x3d3bab19	0.04581747
100	0xbe7505cd	-0.23927994
101	0xbe7b1865	-0.24521025
102	0x3e94373a	0.28948385
103	0xbee2321c	-0.44178855
104	0x3f375181	0.7160874
105	0x3e672e0e	0.22576162
106	0x3e2bc951	0.16776015
107	0xbf8ed9cd	-1.1160218
108	0xbf7b88c0	-0.9825554
109	0xbf7da6cb	-0.9908263
110	0x3e66442d	0.22486944
111	0xbf11b396	-0.5691465
112	0xbf8e86d0	-1.1134892
113	0xbe878f77	-0.26476642
114	0xbfcc68ed	-1.5969521
115	0xbf244253	-0.641637
116	0x3f404ac4	0.75114083
117	0xbf0e9006	-0.5568851
118	0xbe92c0c6	-0.286627
119	0x3e97cfd0	0.29650736
120	0x3f609110	0.8772135
121	0xbdea669a	-0.11445351
122	0x3ecc2986	0.3987543
123	0x3ec230eb	0.37927946
124	0xbf11ff75	-0.5703042
125	0xbe49f6d9	-0.19723071
126	0xbd8c5962	-0.06852986
127	0x4002a7b0	2.0414848
128	0xbf4a6c10	-0.7907114
129	0x3f50d4bf	0.81574625
130	0x3e8322b3	0.2561241
131	0xbec3c637	-0.38237163
132	0x3f869d0f	1.051668
133	0xbf3d0900	-0.7384186
134	0xbe1208bb	-0.14261143
135	0xbecc3824	-0.39886582
136	0x3f448af2	0.76774514
137	0x3f92fbd9	1.1483108
138	0xbf4ada9c	-0.7923982
139	0x3f5b4698	0.8565459
140	0xbe656442	-0.22401527
141	0xbe7a1f7b	-0.24426071
142	0x3f4f02a1	0.80863386
143	0xbf1a0c72	-0.6017524
144	0xbc940c87	-0.01807238
145	0xbf48dd10	-0.78462315
146	0xbf1e2549	-0.6177564
147	0xbf0a4ec0	-0.5402641
148	0x3eb4b580	0.35294724
149	0xbfb8a169	-1.4424258
150	0xbe271213	-0.16315489
151	0x3fa88ee4	1.3168607
152	0xbe5a4fd2	-0.21319512
153	0x3d34a8ba	0.044106223
154	0x3ece406a	0.4028352
155	0x3f134dcb	0.5754058
156	0xbe9b6309	-0.30348995
157	0xbeaa8655	-0.33305612
158	0xc0373d6c	-2.863124
159	0x3e7f395f	0.24924229
160	0x3fa91467	1.3209351
161	0x3f38ba11	0.72158915
162	0x3e2e228c	0.17005366
163	0x3e433ce8	0.19066203
164	0x3f3d4c75	0.7394479
165	0x3c77e977	0.015131346
166	0xbefc934f	-0.49331138
167	0x3e0c205d	0.1368422
168	0xbf3252d9	-0.69657665
169	0xbf5d14dd	-0.8635996
170	0x3ddb92b4	0.10721341
171	0xbf5f317e	-0.87184894
172	0xbff3851e	-1.9024999
173	0x3f200555	0.62508136
174	0xbf826e83	-1.0189976
175	0xbf14c6b6	-0.5811571
176	0xbe01bb72	-0.12669161
177	0x3f33406d	0.7002018
178	0xbff67a1e	-1.9256017
179	0x3f99352a	1.1969349
180	0x3ec37511	0.38175252
181	0x3f838ec9	1.027795
182	0x3eb2a792	0.3489347
183	0x3ecdcc36	0.40194863
184	0x3daf018a	0.085452154
185	0x3fae3aa2	1.3611643
186	0x3ee291f5	0.4425198
187	0x3f42516b	0.75905484
188	0x3e916331	0.2839599
189	0xbf29e5ed	-0.66366464
190	0x400326c1	2.0492404
191	0xbf261772	-0.64879525
192	0x3e093584	0.13399321
193	0x3fa9e79c	1.3273807
194	0xbfa601eb	-1.2969335
195	0xbf93e680	-1.1554718
196	0x3ead0903	0.33795938
197	0x3f983768	1.1891909
198	0xbe92b13f	-0.28650853
199	0x3dfd9772	0.123824015
200	0x3eb593b9	0.35464266
201	0x3f615a3d	0.8802832
202	0xbfdfc973	-1.7483352
203	0x3fa08d93	1.2543205
204	0x3d1bf624	0.038076535
205	0x3f60de80	0.8783951
206	0xbdea8399	-0.114508815
207	0xbf461769	-0.7737947
208	0xbc5a7bcd	-0.0133351805
209	0xbf2657a4	-0.6497748
210	0xbdc5d23d	-0.096592404
211	0xbf4b8a61	-0.79508024
212	0xbe03e1db	-0.12879126
213	0x3ec3aa23	0.38215742
214	0xbece55f3	-0.4029995
215	0xbec2c42f	-0.380403
216	0x4020a1ed	2.5098832
217	0xbf4151bc	-0.7551534
218	0x3ee9de3d	0.45677367
219	0xbf20625e	-0.62650096
220	0xbedc6357	-0.4304454
221	0x3e8c970a	0.27458984
222	0x3fd8e6e7	1.6945466
223	0xbfa791c0	-1.3091354
224	0xbea05b32	-0.31319577
225	0x3f1f8029	0.6230493
226	0xbf6a302a	-0.9147974
227	0xbe4416c4	-0.1914931
228	0x3e938416	0.2881171
229	0x3fbf6cd5	1.4955088
230	0x3f5fdf3f	0.8745002
231	0xbf8541bc	-1.0410686
232	0x3fcc4695	1.595904
233	0x3f03448d	0.51276475
234	0x3f62f4e6	0.88654935
235	0x3fbaff84	1.4609227
236	0xc026845b	-2.6018283
237	0xbfbba307	-1.4659127
238	0x3eebd722	0.4606257
239	0xbfc74b60	-1.5569878
240	0xbfadda45	-1.3582236
241	0x3f42b950	0.76064014
242	0x3e307c7d	0.17234989
243	0xbfd19fbd	-1.6376873
244	0xbf89e5bc	-1.0773234
245	0xbfc66ea7	-1.5502518
246	0x3e577613	0.21041135
247	0xbf8d12eb	-1.1021398
248	0x3fb61eb4	1.422812
249	0xbded38a8	-0.11583072
250	0x3f92c2fb	1.1465753
251	0xbfff9b49	-1.9969264
252	0xbd2818fa	-0.041039445
253	0x3ef369ba	0.475416
254	0xbf20c473	-0.6279976
255	0xbe0ed40f	-0.13948081

encoder.blks.block0.attention.W_k.weight f4 [32, 32]
0	0x3ca4291f	0.02003914
1	0xbe391766	-0.18075332
2	0xbded6e81	-0.115933426
3	0x3e780103	0.24219136
4	0x3eaeb822	0.34124857
5	0xbea65751	-0.32488492
6	0xbe66f8e6	-0.22555885
7	0x3ea6fbb0	0.32613897
8	0xbe928299	-0.28615263
9	0x3e70a413	0.2350009
10	0x3e0d6377	0.13807474
11	0x3c356879	0.0110722715
12	0x3db6b60d	0.08921442
13	0xbe3bb8fb	-0.18332283
14	0x3f1568ab	0.58362836
15	0x37f328ab	2.8986795e-05
16	0xbd403fac	-0.046935722
17	0xbef90e08	-0.48643517
18	0x3d703836	0.058647357
19	0xbee51231	-0.4474044
20	0xbd585b33	-0.05282135
21	0xbf0ae7a5	-0.5425971
22	0xbd7fd1b4	-0.062455848
23	0xbd7af74a	-0.06127099
24	0xbebb55ea	-0.36588985
25	0xbeba17db	-0.36346325
26	0x3e94172f	0.28923938
27	0x3e8cbf8c	0.2748989
28	0xbdb43aee	-0.088003024
29	0xbe9af4c9	-0.3026488
30	0xbdf28825	-0.11842374
31	0xbe5f2347	-0.21790801
32	0x3ce804d9	0.028322624
33	0xbe4652c7	-0.19367515
34	0xbf17e7d6	-0.5933813
35	0x3df31561	0.11869312
36	0x3c650ecb	0.013980578
37	0x3e1addc4	0.1512366
38	0x3e049967	0.12949143
39	0x3efe4637	0.49662945
40	0xbe2e2142	-0.17004874
41	0xbc95bd97	-0.01827888
42	0xbd3b1f3e	-0.04568409
43	0xbe1f289c	-0.15542835
44	0x3d08d73e	0.033408396
45	0xbc98e123	-0.018662041
46	0x3e414103	0.18872456
47	0x3f1f4ec6	0.62229574
48	0x3d7d28f5	0.061806638
49	0x3da9e367	0.08295327
50	0x3eafd32c	0.343408
51	0xbd9e63b9	-0.07733864
52	0x3d22a8a2	0.039711602
53	0xbde2da53	-0.11076798
54	0xbef93fac	-0.4868139
55	0xbef14477	-0.47122547
56	0x3dca7794	0.09886089
57	0x3dad93b7	0.0847544
58	0xbe63ab35	-0.22233279
59	0x3e307c76	0.17234978
60	0xbf2d734c	-0.67754054
61	0x3d10fbd9	0.03539643
62	0x3e5befa2	0.21478131
63	0xbdcbe46a	-0.09955676
64	0x3e2f85de	0.1714091
65	0xbee6f96f	-0.45112178
66	0xbcaf4a13	-0.021397626
67	0xbcba8f1a	-0.022773314
68	0xbe207ffd	-0.15673824
69	0x3d77a424	0.06045927
70	0x3da6f659	0.08152456
71	0xbe9bc5bc	-0.30424297
72	0x3de17598	0.11008757
73	0xbe519eaf	-0.20470689
74	0x3efd5dd4	0.49485648
75	0xbef2c322	-0.474145
76	0x3d91550c	0.070962995
77	0xbdd7a2f5	-0.105291285
78	0xbe1e3d84	-0.15453154
79	0x3dbb4c28	0.09145385
80	0xbdf9886b	-0.12184223
81	0x3d25efb8	0.040511817
82	0xbe2a6de1	-0.16643478
83	0x3dbae358	0.09125394
84	0x3ed27cba	0.41110784
85	0xbe6e540f	-0.23274253
86	0x3eaeb0ec	0.34119356
87	0x3f01b54c	0.5066726
88	0x3ec2134a	0.3790534
89	0xbdedfa70	-0.11620033
90	0x3d045a50	0.03231269
91	0xbf01c871	-0.50696474
92	0x3de1e837	0.110306196
93	0x3eeb8978	0.46003318
94	0x3d90a176	0.07062046
95	0x3e949fd2	0.29028183
96	0x3d31dac0	0.043421507
97	0xbeb928ad	-0.36163846
98	0x3ea7de59	0.32786825
99	0xbe3ef535	-0.18648227
100	0xbea4e028	-0.32202268
101	0xbed6350d	-0.4183735
102	0xbe53ffef	-0.207031
103	0xbf260891	-0.6485682
104	0x3e9d174b	0.30681834
105	0xbeda8e0f	-0.42686507
106	0x3d3c1b77	0.04592463
107	0xbf082cd2	-0.5319339
108	0xbdb020ba	-0.08599992
109	0xbd9ac931	-0.075579055
110	0xbdc1d425	-0.094642915
111	0xbe2b2f58	-0.16717279
112	0xbee428ae	-0.44562286
113	0x3e15513d	0.14581771
114	0xbe978def	-0.29600474
115	0x3e331ac4	0.17490679
116	0xbe2fc8f9	-0.17166509
117	0xba286ad8	-0.00064246124
118	0xbda05082	-0.07827856
119	0xbc9e01d2	-0.019287977
120	0xbd886c45	-0.06661276
121	0xbe8c3f1e	-0.27391905
122	0xbd809d2d	-0.06279979
123	0xbe9662fb	-0.2937239
124	0xbe197562	-0.14986184
125	0x3e1ec641	0.15505315
126	0x3d2ad63c	0.041708216
127	0x3e969279	0.29408625
128	0xbd18fadc	-0.037348613
129	0xbd17b800	-0.03704071
130	0x3e2c5d75	0.16832526
131	0xbcf9dc60	-0.03050059
132	0xbea77bc3	-0.3271161
133	0xbd891ef1	-0.06695355
134	0x3d919ae9	0.07109625
135	0x3e33f89f	0.1757531
136	0xbdc15115	-0.09439293
137	0xbe2ec114	-0.17065841
138	0x3ea07ae8	0.3134377
139	0x3d684f18	0.056716055
140	0xbd5f3601	-0.05449486
141	0xbe823226	-0.25428885
142	0xbd9ec1ed	-0.07751832
143	0x3dbbb6e8	0.09165746
144	0x3e12e71f	0.14345978
145	0x3e915dc2	0.28391844
146	0xbe661437	-0.22468649
147	0x3ec4e04d	0.38452378
148	0xbb91fd5c	-0.0044552516
149	0x3cf66843	0.030079013
150	0x3dd5e6ca	0.1044441
151	0xbe58ce2f	-0.21172403
152	0x3dab4f4b	0.08364733
153	0xbe55120c	-0.20807666
154	0x3ea3bc57	0.3197963
155	0xbebecb57	-0.3726451
156	0x3e9080e5	0.2822334
157	0x3e7cda7b	0.24692719
158	0x3d1d4ee9	0.038405333
159	0x3e5ea18c	0.21741313
160	0x3e815cdc	0.2526616
161	0xbeed6d20	-0.46372318
162	0x3e0dc363	0.13844065
163	0x3dfda60b	0.12385186
164	0x3de43fca	0.11144979
165	0x3dfb5e9c	0.12273905
166	0xbebb99b5	-0.36640707
167	0x3e550f50	0.20806623
168	0x3e24fffc	0.16113275
169	0x3e17f1e7	0.14838372
170	0xbc7e3ee9	-0.015517929
171	0x3ebe0d4a	0.37119514
172	0xbe74b006	-0.23895273
173	0xbed235ad	-0.41056576
174	0x3eb6729d	0.35634318
175	0xbd82b809	-0.06382758
176	0xbf24fd1b	-0.6444871
177	0xbe0a9478	-0.13533199
178	0xbeb863a6	-0.36013526
179	0xbdebec35	-0.11519662
180	0x3edfde6e	0.43724388
181	0xbe928ebb	-0.2862452
182	0xbe6b8054	-0.22998172
183	0x3ea9530e	0.33071178
184	0xbe49f563	-0.19722514
185	0xbde20593	-0.110362194
186	0xbe8e0f8a	-0.2774623
187	0xbd9f7e9f	-0.07787823
188	0xbf59c1c1	-0.8506127
189	0x3d3f3d57	0.046689358
190	0xbe718411	-0.23585536
191	0x3e54e97b	0.2079219
192	0x3e06a58b	0.13149087
193	0x3e909be1	0.28243926
194	0x3e61ae93	0.22039251
195	0x3de3cb74	0.1112279
196	0xbc81a033	-0.01582346
197	0xbec51660	-0.38493633
198	0xbe75a0c1	-0.23987104
199	0x3ee72337	0.45144054
200	0x3e257f02	0.16161731
201	0x3e2aad79	0.16667737
202	0x3ea495da	0.32145578
203	0x3ebd4a81	0.36970904
204	0xbe5f151f	-0.21785401
205	0x3e3db2d6	0.18525252
206	0x3e27814f	0.16357921
207	0xbe2b068f	-0.1670172
208	0x3ee847a1	0.4536715
209	0xbd382755	-0.044959385
210	0x3ddbf6a5	0.10740403
211	0x3e72bd97	0.23705135
212	0x3dc2365d	0.09483025
213	0x3ecc26cb	0.39873347
214	0x3defa7db	0.11701938
215	0xbdcf883e	-0.10133408
216	0xbd058803	-0.032600414
217	0xbeba274a	-0.363581
218	0xbd3e4542	-0.04645277
219	0xbee8d05a	-0.4547146
220	0x3f1e6937	0.61879295
221	0x3e88592f	0.26630542
222	0xbe803b2b	-0.25045142
223	0xbe2faed7	-0.1715654
224	0x3e8a0710	0.26958513
225	0xbca3b072	-0.019981597
226	0x3cd770ff	0.026298998
227	0xbe383d5b	-0.17992155
228	0x3ed15649	0.40886143
229	0x3dae5c7d	0.085137345
230	0x3da406c5	0.08009104
231	0x3e80c95f	0.25153634
232	0xbc866e89	-0.01641013
233	0x3e42a143	0.19006829
234	0xbec1207e	-0.37720102
235	0xbc35e9d2	-0.01110311
236	0xbdd00a53	-0.10158219
237	0xbf40e89f	-0.7535495
238	0x3ecd265d	0.4006833
239	0xbec8560f	-0.39128157
240	0xbedcba32	-0.43110806
241	0xbefd40bb	-0.49463448
242	0x3f093171	0.53591067
243	0xbaf9f7c0	-0.0019071028
244	0x3e06927f	0.13141821
245	0xbedaf8d4	-0.42767966
246	0x3e86dc1d	0.26339808
247	0x3dd9106d	0.10598836
248	0xbf42f88a	-0.7616049
249	0x3dc05b30	0.09392393
250	0xbca47950	-0.020077378
251	0x3e8ecd2f	0.27890918
252	0xbebfe6b4	-0.374807
253	0xbec055c8	-0.37565446
254	0xbec7d205	-0.3902742
255	0x3eb44ad6	0.35213345

encoder.blks.block0.attention.W_q.weight f4 [32, 32]
0	0x3eeaf3af	0.4588904
1	0x3ed0d36a	0.40786296
2	0x3cb5bc57	0.022184534
3	0x3e1d4930	0.1535995
4	0x3e8631f0	0.26209974
5	0x3dfcfcd5	0.123529114
6	0x3ea5e7d1	0.32403424
7	0x3e105fce	0.14099047
8	0x3cddf17c	0.027092688
9	0xbda5f5a9	-0.081034966
10	0x3e8465cd	0.25858918
11	0xbdfeda4f	-0.12443983
12	0xbeb79881	-0.3585854
13	0xbd007724	-0.03136362
14	0x3e9d3409	0.30703762
15	0xbe69a02e	-0.2281501
16	0xbeea951d	-0.4581689
17	0x3dda0fec	0.10647568
18	0xbf1a1435	-0.60187083
19	0x3e52e42c	0.20594853
20	0x3e2b21d9	0.1671213
21	0xbe91a7f9	-0.28448465
22	0xbf4c6a51	-0.79849726
23	0x3ed8f19b	0.4237183
24	0xbca14195	-0.019684592
25	0x3d796e86	0.06089642
26	0x3ead2ef2	0.3382488
27	0x3d60be2a	0.054868855
28	0xbe355f8e	-0.17712232
29	0x3d68bf16	0.05682286
30	0x3eb65de8	0.3561852
31	0xbda61d3c	-0.08111045
32	0x3eb7b5c8	0.35880876
33	0x3eb92b2e	0.36165756
34	0x3e785d50	0.24254346
35	0xbeb9baa4	-0.36275208
36	0xbe29425c	-0.1652922
37	0xbe066886	-0.1312581
38	0x3e9613ae	0.2931189
39	0x3da49d09	0.080377646
40	0x3da943e5	0.08264903
41	0x3d588c8a	0.052868403
42	0x3d0aa58b	0.03384928
43	0x3d11613c	0.03549312
44	0x3c2fc951	0.01072915
45	0xbe970c5c	-0.29501617
46	0xbe76bc11	-0.24095179
47	0xbe79fe67	-0.24413453
48	0xbd0430e8	-0.032273203
49	0xbd6dcbc9	-0.058055673
50	0xbebec346	-0.37258357
51	0x3dfd85f7	0.123790674
52	0xbe5b9365	-0.21442945
53	0xbd7b28d3	-0.06131823
54	0x3e4e5adf	0.20151852
55	0xbe3dd124	-0.18536812
56	0xbef46d49	-0.47739628
57	0x3e5bfe26	0.21483669
58	0x3ec805ac	0.39066827
59	0x3eb6e3e1	0.35720733
60	0x3db37382	0.08762266
61	0x3ea4a0bf	0.3215389
62	0x3df4b3a2	0.11948325
63	0xbc5a2102	-0.013313534
64	0x3e068afd	0.13138957
65	0x3d0c131a	0.034197904
66	0x3e104b95	0.14091332
67	0x3e06d34b	0.1316654
68	0xbe59ab95	-0.2125686
69	0xbe293a34	-0.16526109
70	0xbe06b15c	-0.13153595
71	0xbe38fa8a	-0.18064323
72	0x3e222f06	0.1583825
73	0xbeaf2b91	-0.34212926
74	0xbe0e6448	-0.13905442
75	0x3eeb7a15	0.4599158
76	0xbe18f9a5	-0.14938982
77	0x3f270bdb	0.65252465
78	0xbd89e171	-0.06732453
79	0x3e5aca43	0.21366219
80	0x3eabb2e8	0.33534932
81	0xbed283b2	-0.411161
82	0x3e8831aa	0.2660039
83	0xbedadf0f	-0.42748305
84	0xbec1b40c	-0.37832677
85	0x3effb72d	0.4994444
86	0xbe2db755	-0.16964467
87	0x3d932a85	0.07185844
88	0xbd448538	-0.04797861
89	0xbf2962bd	-0.6616629
90	0xbec51b5e	-0.38497442
91	0x3da2331c	0.079199046
92	0xbc4f53cc	-0.012654256
93	0x3e083e1c	0.13304943
94	0xbcc1a28e	-0.023637082
95	0xbe181032	-0.14849928
96	0xbeca2d20	-0.39487553
97	0x3dd9ec23	0.10640743
98	0x3e71a76e	0.23599026
99	0x3da729dc	0.08162281
100	0x3f0e64b9	0.5562244
101	0xbd64c72d	-0.05585401
102	0x3e9e121f	0.308732
103	0x3eafea1b	0.34358296
104	0x3dd0384a	0.10166986
105	0xbda1d5ed	-0.07902131
106	0xbf1bd9ec	-0.608794
107	0x3cf34be2	0.02969927
108	0x3e943595	0.2894713
109	0x3f0378ea	0.51356375
110	0x3dba728d	0.0910388
111	0x3a6f10b9	0.00091196183
112	0x3f0b41a7	0.5439705
113	0xbe812968	-0.25226903
114	0x3e02d3f3	0.12776165
115	0xbd9db80d	-0.077011205
116	0xbe2adcc4	-0.16685778
117	0xbcd5fe81	-0.026122333
118	0xbe7fded1	-0.24987341
119	0x3e12807f	0.1430683
120	0x3d86e1e5	0.06586055
121	0xbeaf5115	-0.34241548
122	0xbf1de1e4	-0.61672807
123	0xbe576e04	-0.21038061
124	0x3b85ae53	0.004079619
125	0x3eac8fe2	0.33703524
126	0xbef7d265	-0.48402706
127	0xbe122593	-0.14272146
128	0x3ea8cb43	0.32967576
129	0xbd541597	-0.051778402
130	0xbe44293a	-0.19156352
131	0x3ca79be7	0.020460082
132	0xbe0353dc	-0.12824959
133	0x3d82942c	0.06375918
134	0xbb40741f	-0.0029366089
135	0xbd9541b6	-0.07287924
136	0xbdbb42e1	-0.091436155
137	0xbec3632a	-0.38161594
138	0xbdc99258	-0.09842366
139	0x3da43215	0.08017365
140	0xbd5c6abc	-0.053812727
141	0x3e0fb114	0.14032394
142	0xbe23a11e	-0.1597943
143	0x3e8043e4	0.25051796
144	0x3e396e4d	0.18108483
145	0xbe21aea5	-0.15789278
146	0x3ea7e14d	0.32789078
147	0xbd45cbeb	-0.048290174
148	0xbe030370	-0.1279428
149	0xbdc28eda	-0.09499903
150	0x3e2af654	0.16695529
151	0xbe132379	-0.14369
152	0xbee35069	-0.44397286
153	0xbe3b78e7	-0.1830784
154	0xbd8a1d74	-0.06743899
155	0xbdc80470	-0.097664714
156	0x3ce695cd	0.028147602
157	0x3e7ab79c	0.24484104
158	0xbe60423e	-0.2190027
159	0xbdb17b4b	-0.086660944
160	0xbe22b8c6	-0.15890798
161	0x3f01f130	0.5075865
162	0x3e590b15	0.21195634
163	0xbe19a375	-0.1500376
164	0x3f0d5d68	0.5522065
165	0xbda10f76	-0.07864277
166	0x3e25cbba	0.16190997
167	0xbd9fc081	-0.07800389
168	0xbe481fcf	-0.19543384
169	0x3e451d76	0.1924952
170	0x3d97ee7f	0.074185364
171	0x3e864fd8	0.2623279
172	0xbe78d2c5	-0.24299152
173	0x3f26c6d9	0.6514717
174	0xbe56febe	-0.20995614
175	0xbeda2668	-0.42607427
176	0xbdcf2146	-0.10113768
177	0x3e58cadb	0.21171133
178	0xbee02361	-0.43776992
179	0xbf142fe7	-0.57885593
180	0x3ec1fed3	0.37889728
181	0x3caa7ed7	0.020812435
182	0xbe0cd630	-0.13753581
183	0x3ed34f33	0.41271362
184	0x3e30239a	0.17201081
185	0xbe1e5c46	-0.15464887
186	0x3cea64e4	0.028612562
187	0x3d87f9a5	0.06639413
188	0x3e0aadcc	0.13542861
189	0x3dfbc802	0.12294008
190	0x3e070656	0.1318601
191	0xbe1db227	-0.15399991
192	0x3ef66bd6	0.48129147
193	0xbebc34c2	-0.36759
194	0xbe4260c8	-0.18982232
195	0x3e98c775	0.29839674
196	0xbeba9773	-0.36443672
197	0x3e0130b9	0.12616242
198	0xbefd9ede	-0.4953527
199	0xbe0e1a0d	-0.13877125
200	0x3daf3e4d	0.08556805
201	0x3d371fef	0.04470819
202	0x3e36c91e	0.17850158
203	0xbe166408	-0.14686596
204	0xbebc25de	-0.3674764
205	0xbe8313fc	-0.25601184
206	0x3dc9e090	0.09857285
207	0x3da10f57	0.07864254
208	0xbea52b69	-0.32259682
209	0x3e66bfec	0.2253415
210	0x3e8bfa62	0.27339464
211	0x3ebfe481	0.37479022
212	0x3eeb7c64	0.4599334
213	0xbed2c417	-0.4116523
214	0x3e3410b9	0.17584504
215	0xbdda8dcb	-0.10671576
216	0xbdb4745c	-0.08811256
217	0xbc9dab59	-0.019246744
218	0xbeb21cdc	-0.34787643
219	0xbe938ba5	-0.28817478
220	0x3e966216	0.2937171
221	0x3d7d978c	0.061912104
222	0xbd88c074	-0.066773325
223	0xbe9da753	-0.3079172
224	0xbe8baad6	-0.27278775
225	0x3f0d72e7	0.5525345
226	0x3e2c44f6	0.16823182
227	0xbe6780d6	-0.22607741
228	0x3ec8e9f7	0.39241
229	0x3e865288	0.2623484
230	0x3dc004ac	0.09375891
231	0x3e58b62b	0.21163242
232	0x3d355096	0.044266306
233	0xbe1605d5	-0.14650662
234	0xbd88d4d6	-0.0668122
235	0xba4b3b18	-0.0007752641
236	0xbedaf4b5	-0.42764822
237	0x3ed0d112	0.40784508
238	0x3cbb9a51	0.022900732
239	0xbcd5ccce	-0.026098635
240	0xbf16285d	-0.5865534
241	0x3e486883	0.19571118
242	0xbd08209e	-0.03323423
243	0x3d6c755b	0.057729106
244	0x3f09fcb7	0.5390124
245	0xbad21b74	-0.001602991
246	0xbe6f855b	-0.23390715
247	0x3dbdec5b	0.09273597
248	0x3ef948ea	0.48688442
249	0x3e1aeb2c	0.15128773
250	0x3f4be680	0.7964859
251	0xbe6e936f	-0.23298429
252	0xbe5ddb29	-0.21665634
253	0xbe6f443b	-0.23365872
254	0x3d9d4e1d	0.076809146
255	0xbe5c5874	-0.21518117

encoder.blks.block0.attention.W_v.weight f4 [32, 32]
0	0xbb5c9191	-0.00336561
1	0xbe125b26	-0.14292583
2	0xbd182ada	-0.03715024
3	0x3e620da2	0.22075513
4	0x3ceb19c9	0.028698819
5	0xbdaab0d6	-0.0833451
6	0x3e05d58b	0.13069741
7	0xbe0800e9	-0.13281597
8	0x3d7ccd7d	0.061719406
9	0xbe143ae9	-0.14475597
10	0xbe4ed473	-0.2019823
11	0x3a35db29	0.00069372595
12	0x3c13658f	0.008996381
13	0x3d46f40a	0.048572578
14	0x3bd59acd	0.006518698
15	0xbde6a7c8	-0.112624705
16	0xbdd96f07	-0.1061688
17	0xbe87d481	-0.26529315
18	0xbd12f36b	-0.035876673
19	0x3d08511e	0.033280484
20	0x3c1dd338	0.009632878
21	0xbda5b9c2	-0.08092071
22	0x3ed01ca0	0.4064684
23	0xbd67ce96	-0.0565935
24	0xbd4b6de8	-0.04966536
25	0x3e12b18a	0.14325538
26	0xbd9040f6	-0.0704364
27	0xbcdbd7b9	-0.026836263
28	0xbdd738d0	-0.10508883
29	0xbd04655a	-0.03232322
30	0x3d6d4bc3	0.05793358
31	0xbb1e33ab	-0.0024139683
32	0x3e27ec72	0.1639879
33	0x3d8dc2bb	0.069219075
34	0x3dc7a41c	0.09748098
35	0x3daf24bb	0.08551928
36	0xbcf4badd	-0.02987426
37	0xbe6b8843	-0.23001198
38	0x3d03c3ea	0.03216926
39	0x3d27abbb	0.04093526
40	0x3cd47c46	0.025938164
41	0x3cb81eea	0.022475678
42	0x3ce8a877	0.028400643
43	0x3db9f833	0.09080543
44	0xbe22ea67	-0.1590973
45	0xbe06625b	-0.13123457
46	0xbe06e878	-0.13174617
47	0xbe29e953	-0.16592912
48	0x3dc457c1	0.0958705
49	0xbe254b99	-0.1614212
50	0x3cae19e5	0.021252582
51	0xbe5aa460	-0.21351767
52	0x3e1e7add	0.15476556
53	0x3b766867	0.003759885
54	0x3e0b16bc	0.13582891
55	0x3c29e677	0.0103698885
56	0x3cb277bf	0.021785615
57	0xbc603773	-0.013685095
58	0xbd8ed48b	-0.06974133
59	0xbd5610b1	-0.052262012
60	0x3de259a6	0.11052255
61	0x3d8c50a6	0.0685132
62	0xbdbd65ea	-0.09247954
63	0xbd9dcb89	-0.07704837
64	0xbd135a00	-0.035974503
65	0x3c92b79c	0.017909817
66	0xbe43efa8	-0.1913439
67	0x3d4f43ea	0.050601877
68	0xbe72e0a6	-0.23718509
69	0x3da7eb89	0.08199222
70	0x3e23a7a5	0.1598192
71	0xbda6b417	-0.08139818
72	0x3dbcc819	0.09217853
73	0x3dcb71cb	0.09933814
74	0xbd443592	-0.04790265
75	0x3d88bf58	0.06677121
76	0x3cda5ecb	0.026656529
77	0x3b324e2d	0.002720724
78	0x3e00f8b4	0.12594873
79	0x3d9b62db	0.075872146
80	0xbdaf0789	-0.08546359
81	0xbc1d153f	-0.009587585
82	0xbd9ef62c	-0.07761797
83	0x3e82fd8a	0.2558406
84	0x3dcbc2e6	0.09949283
85	0x3b241188	0.0025034864
86	0xbe5401ec	-0.20703858
87	0x3d878963	0.06618001
88	0x3ca82770	0.020526618
89	0xbd9aee64	-0.07565001
90	0xbd11b518	-0.035573095
91	0xbd96efd9	-0.07369966
92	0x3c68fe48	0.014220782
93	0xbd34b5f3	-0.044118833
94	0xbaf5a630	-0.0018741544
95	0xbdb7f77d	-0.089827515
96	0xbd5933be	-0.05302786
97	0xbd3366cd	-0.04379921
98	0x3d9fd320	0.07803941
99	0xbced2e9f	-0.028952895
100	0xbdaa98f0	-0.08329952
101	0xbe239598	-0.15975034
102	0x3cdc3676	0.026881438
103	0x3c130d67	0.008975363
104	0x3984c1dd	0.0002532144
105	0xbd851a3d	-0.06499145
106	0xbd2f90ca	-0.04286269
107	0x3d1456b4	0.0362155
108	0xbc901806	-0.01758958
109	0x3d880929	0.06642372
110	0x3e2c4b7b	0.16825669
111	0xbdb94825	-0.090469636
112	0x3e582419	0.2110752
113	0xbdb25476	-0.08707516
114	0xbd32283a	-0.043495394
115	0xbd42d9f9	-0.047571156
116	0xbd7255d7	-0.059163895
117	0x3d87d3cb	0.06632193
118	0x3c435f18	0.011924528
119	0xbcaa9d6a	-0.020827014
120	0xbdc1badf	-0.09459471
121	0x3b170b01	0.002304733
122	0x3eab83b0	0.33498907
123	0x3d0a0ba4	0.033702508
124	0x3d506c3e	0.050884478
125	0x3cb5121a	0.022103358
126	0x3d844f86	0.064604804
127	0x3df86ccd	0.12130127
128	0x3c13afec	0.009014111
129	0x3d84b6b0	0.064801574
130	0xbe3a57d5	-0.18197568
131	0xbe2cde11	-0.16881587
132	0x3d3fc487	0.046818282
133	0xbdfd69f6	-0.12373726
134	0xbe383f26	-0.17992839
135	0x3d477b00	0.048701286
136	0xbe16e795	-0.14736779
137	0xbe0a0076	-0.13476738
138	0x3d03e661	0.03220213
139	0x3dabf3c7	0.08396106
140	0x3d3bff28	0.045897633
141	0x3cb0c284	0.021577127
142	0xbd0543bb	-0.032535296
143	0xbd8b4321	-0.06799913
144	0xbd9ff8e8	-0.07811147
145	0x3daa078b	0.0830222
146	0xbcc0a5d8	-0.02351658
147	0xbd9849bc	-0.07435939
148	0xbc815918	-0.015789554
149	0x3d15e1f1	0.036592428
150	0xbdaa76cd	-0.08323441
151	0xbcbb3f1a	-0.022857238
152	0xbbf9d239	-0.0076239374
153	0x3e9d5427	0.30728266
154	0xbcb37c0a	-0.021909732
155	0xbbe569e9	-0.007001151
156	0x3ded8f52	0.11599602
157	0xbde2de30	-0.11077535
158	0x3b51324c	0.0031920848
159	0xbbf89175	-0.007585699
160	0xbd7006ec	-0.05860035
161	0x3e24b7e5	0.16085775
162	0x3b9d506c	0.004800847
163	0xbdbb0a0e	-0.09132777
164	0x3e43b0a1	0.19110347
165	0x3cf8f086	0.030388128
166	0x3e66fdae	0.22557709
167	0xbe1c38d5	-0.15256055
168	0x3cc958f8	0.024578556
169	0xbdb03f96	-0.08605878
170	0xbd63d3d8	-0.05562195
171	0xbd6beb66	-0.05759754
172	0xbdc4a7bc	-0.09602305
173	0x3da894cf	0.08231508
174	0x3d62a9d8	0.055337757
175	0x3e20db4f	0.1570866
176	0xbe041490	-0.12898469
177	0xbda5f0fa	-0.08102603
178	0x3d6fcc28	0.058544308
179	0xbe48b648	-0.19600785
180	0xbd167b13	-0.036738466
181	0xbcd64a32	-0.026158426
182	0xbcc7ff3e	-0.024413701
183	0xbdade9fd	-0.08491895
184	0xbe155a0c	-0.14585131
185	0x3dde3c64	0.10851362
186	0x3e07aaf1	0.13248803
187	0xbe18733a	-0.14887705
188	0x3e3354b0	0.17512774
189	0x3e4b8f14	0.19878799
190	0x3cb6c915	0.02231268
191	0xbdcbf7c4	-0.09959367
192	0xbd87290e	-0.065996274
193	0x3d568569	0.052373324
194	0xbbff431a	-0.0077899816
195	0xbe3645a7	-0.17800008
196	0xbcda50bf	-0.02664983
197	0xbdabe063	-0.08392408
198	0x3e081bc6	0.13291845
199	0xbd7da931	-0.06192893
200	0x3d41cfff	0.0473175
201	0x3c6c81e9	0.01443527
202	0xbc29bf39	-0.010360532
203	0xbdc20617	-0.09473818
204	0x3dbb8e99	0.09158058
205	0x3e29c1a3	0.16577773
206	0xbd21e6d5	-0.03952678
207	0xbcf2f82e	-0.029659357
208	0xbd91711a	-0.071016505
209	0xbaa3ad65	-0.0012487589
210	0x3d13aa2a	0.036050953
211	0xbe1f81ae	-0.15576813
212	0x3d189a33	0.03725643
213	0x3c800d2f	0.015631286
214	0xbd5b508d	-0.053543616
215	0x3de9b46a	0.114113644
216	0x3d97bba0	0.074088335
217	0xbd95b8e7	-0.07310658
218	0x3d969e94	0.07354465
219	0xbb59ef3d	-0.003325417
220	0x3e03831b	0.12842982
221	0x3e88b1f5	0.2669827
222	0x3ccd4d1e	0.025061186
223	0xbd1d9ce6	-0.038479708
224	0xbdc9e48b	-0.09858044
225	0x3e10851f	0.14113282
226	0x3db14dfe	0.08657454
227	0x3dd8b3f7	0.105812006
228	0x3caa7c0e	0.020811107
229	0x3c6f7c09	0.014616975
230	0x3e4333e9	0.19062771
231	0xbdfd073e	-0.12354897
232	0xbd29c6be	-0.0414493
233	0x3d8d1188	0.068881094
234	0x3d3fd027	0.04682937
235	0xbe055d61	-0.13023902
236	0x3db3d933	0.08781662
237	0x3e0aac6f	0.1354234
238	0x3d6f762a	0.0584623
239	0xbd9d0736	-0.07667391
240	0xbde751b0	-0.112948775
241	0xbd0ecce0	-0.034863353
242	0x3e2fab57	0.17155205
243	0xbe3a7b99	-0.18211211
244	0xbd3ddf11	-0.04635531
245	0x3da9a35e	0.08283113
246	0x3d9c35f9	0.07627482
247	0x3d704410	0.05865866
248	0x3d65a5e5	0.056066412
249	0x3a08c67d	0.00052175653
250	0x3c790ef6	0.015201321
251	0x3dcc7159	0.09982557
252	0xbd9fad51	-0.07796729
253	0xbe7d2c18	-0.24723852
254	0x3bfc2c3f	0.0076957042
255	0xbbe3c8e4	-0.0069514383

encoder.blks.block0.attention.W_o.weight f4 [32, 32]
0	0xbe9694e1	-0.2941046
1	0x3d4367cc	0.04770641
2	0x3cb3b575	0.021937111
3	0xbd5f4e72	-0.05451817
4	0x3db287f9	0.08717341
5	0xbdc91fb8	-0.09820503
6	0x3cd8bc8f	0.0264571
7	0xbe682ad0	-0.22672582
8	0xbe3635ab	-0.1779391
9	0x3a858de5	0.0010189383
10	0xbe198f79	-0.14996137
11	0x3e01912d	0.12653036
12	0x3d8e115c	0.06936905
13	0x3dc923c4	0.09821275
14	0xbce5d4b3	-0.028055524
15	0xbe18396f	-0.14865659
16	0x3db6863c	0.08912322
17	0x3de28a3d	0.11061523
18	0x3e6c943e	0.23103425
19	0x3d80ad48	0.06283051
20	0xbcb674ae	-0.022272434
21	0xbe624465	-0.22096403
22	0x3c1b4103	0.009475949
23	0xbced80ab	-0.028992018
24	0xbe41f6db	-0.18941824
25	0x3dfc6b17	0.12325113
26	0xbe2e3931	-0.17014004
27	0xbe951eec	-0.29125154
28	0xbe36be40	-0.17846012
29	0xbe650340	-0.22364521
30	0x3dbbf751	0.09178031
31	0xbd05df19	-0.032683466
32	0x3e1001e0	0.14063215
33	0xbdacf294	-0.084447056
34	0x3cf4c172	0.029877398
35	0x3e1dabe9	0.1539761
36	0xbcb0861d	-0.021548325
37	0x3d1dcf71	0.03852791
38	0x3db632df	0.08896422
39	0xbd7a2b89	-0.061076675
40	0x3c9bac2a	0.019002993
41	0x3d7000aa	0.058594383
42	0xbe4c150c	-0.19929904
43	0xbd9b4175	-0.07580844
44	0xbe19d6fa	-0.15023413
45	0x3d945d6e	0.07244383
46	0xbdf71c02	-0.12065889
47	0xbd27839c	-0.040896997
48	0xbca91a27	-0.020642353
49	0xbccffdd7	-0.025389595
50	0xbd63f41f	-0.055652734
51	0x3d269302	0.04066754
52	0x3e6eecd8	0.23332536
53	0x3de3f3a5	0.11130456
54	0x3d6a2f38	0.057173938
55	0xbdc84cd3	-0.09780278
56	0xba0c8514	-0.00053604064
57	0xbd5194c6	-0.051167272
58	0xbde45247	-0.11148506
59	0x3dffeeb6	0.124967024
60	0x3ccf672e	0.025317755
61	0xbe22a4d5	-0.15883191
62	0xbc06c107	-0.008224732
63	0xbd9d316d	-0.07675443
64	0x3b25d8d5	0.0025306244
65	0x3d62d255	0.05537637
66	0x3d62e422	0.055393346
67	0xbc6a0ced	-0.014285308
68	0xbb8445b6	-0.0040366305
69	0xbda18347	-0.07886367
70	0xbdf8d2fd	-0.12149618
71	0xbe305f88	-0.17223942
72	0x3d29359e	0.0413109
73	0x3c84aa73	0.016194558
74	0x3d179a94	0.03701265
75	0xbb7657d4	-0.003758897
76	0xbda580c4	-0.08081201
77	0x3d04c399	0.0324131
78	0x3d416df9	0.04722402
79	0x3c6fd72d	0.014638704
80	0xbcc315f8	-0.023814186
81	0x3db76293	0.089543484
82	0xbc00cfd5	-0.007862051
83	0x3d3075ed	0.043081213
84	0xbcbc2568	-0.022967055
85	0xbd851e2f	-0.06499898
86	0x3d48e895	0.049049933
87	0x3e0939ea	0.13400999
88	0x3e5ffd80	0.21874046
89	0x3c4b0b60	0.012392849
90	0x3e1bfb79	0.15232648
91	0xbc9670ac	-0.018364273
92	0x3cdfb017	0.027305646
93	0xbb2f3d2a	-0.0026739337
94	0xbd80072b	-0.06251367
95	0x3c2247f5	0.009904851
96	0x3c74096a	0.014894823
97	0xbe0970e3	-0.13421969
98	0x3db964c3	0.09052422
99	0xbd51ecb7	-0.05125114
100	0x3db04a8d	0.086079694
101	0xbc921eb2	-0.017836902
102	0x3d8636cb	0.0655342
103	0xbde6c369	-0.1126774
104	0x3d22646a	0.039646544
105	0x3d852d13	0.06502738
106	0xbd93c70d	-0.072157
107	0xbdcb9e8e	-0.09942351
108	0x3c21fd73	0.009887087
109	0xbc4f3f48	-0.012649365
110	0x3e2c942e	0.16853401
111	0xbd9c0455	-0.07618014
112	0xbc974819	-0.018466996
113	0x3d857723	0.06516864
114	0xbd982f07	-0.07430845
115	0x3db91616	0.09037416
116	0xbcf72acc	-0.030171774
117	0xbd8bb74d	-0.06822071
118	0xbd5175ff	-0.05113792
119	0xbdd94cd3	-0.10610356
120	0x3c39c0a5	0.011337434
121	0xbd4f2cf2	-0.050579973
122	0xbdd0c9d8	-0.10194749
123	0x3d8a6873	0.06758203
124	0x3b1460b3	0.0022640645
125	0x3e59343b	0.2121133
126	0xbd284705	-0.041083355
127	0x3dbe3de0	0.092891455
128	0x3d5a3ae1	0.053278808
129	0xbca94988	-0.020664945
130	0xbaeb6f97	-0.0017962334
131	0x3e154477	0.14576899
132	0x3d39bc73	0.045345735
133	0xbc9071b0	-0.017632335
134	0x3d6cff2d	0.057860542
135	0xbd84bcd5	-0.06481329
136	0x3d04b7e0	0.03240192
137	0xbd4a5bc1	-0.04940391
138	0xbe069be6	-0.13145408
139	0xbcc47c3e	-0.023985025
140	0x3c95a5ff	0.01826763
141	0xbd09d7c3	-0.033653032
142	0xbd1610f1	-0.03663725
143	0x3c140053	0.00903328
144	0xbc2331df	-0.009960621
145	0x3cf5ee39	0.03002082
146	0x3e01e895	0.12686379
147	0xbde5d3a8	-0.11222011
148	0x3e07e5d2	0.13271263
149	0x3b4e1bc8	0.0031449664
150	0xbdb0ed50	-0.08639014
151	0x3ce73a52	0.028226051
152	0xbcf0de24	-0.0294028
153	0x3dc3389d	0.095322825
154	0x3c56bf9d	0.013107208
155	0xbdfcb4f0	-0.123391986
156	0xbd2e952c	-0.04262273
157	0xbcda1580	-0.02662158
158	0xbd3b693e	-0.045754664
159	0x3d965df0	0.07342136
160	0xbe3309f9	-0.17484273
161	0xbd7f6d63	-0.06236018
162	0x3de14442	0.10999347
163	0xbc301b59	-0.010748708
164	0x3de22487	0.11042123
165	0x3d891651	0.0669371
166	0x3dcb315f	0.09921526
167	0xbdc857ba	-0.097823575
168	0xbdf2d388	-0.11856753
169	0x3e204d73	0.15654545
170	0x3974d7c6	0.00023350035
171	0xbe09bc25	-0.13450678
172	0xbdb2684b	-0.087112986
173	0x3bc5f3e4	0.006041037
174	0xbba8e672	-0.0051544243
175	0xbe320d89	-0.17387976
176	0xbcbc2799	-0.0229681
177	0x3d48a57b	0.04898594
178	0xbbf48eb9	-0.007463303
179	0x3d54a20e	0.05191236
180	0xbc9eba81	-0.019376041
181	0xbd3e5f7e	-0.046477787
182	0xbdf1b1df	-0.11801504
183	0x3bb81b1b	0.0056184656
184	0x3c878ee5	0.01654763
185	0xbc85ae1d	-0.016318375
186	0xbe49d8b7	-0.19711576
187	0x3e18649f	0.14882134
188	0xbe631315	-0.22175248
189	0x3d7418df	0.05959403
190	0x3e255f2f	0.16149591
191	0x3d665e46	0.05624225
192	0xbd2e771b	-0.042594057
193	0xbdacb0d4	-0.08432165
194	0x3d9c8201	0.07641984
195	0xbde45868	-0.11149675
196	0x3d5a68e4	0.053322688
197	0x3e1b8193	0.15186147
198	0x3d477bb2	0.04870195
199	0xbd73a835	-0.059486587
200	0x3c9b5aac	0.018964134
201	0xbd499b6a	-0.04922048
202	0xbdf71e81	-0.12066365
203	0xbe11ce7e	-0.14238927
204	0x3c1c02ce	0.009522153
205	0x3d9a69fb	0.075397454
206	0x3ac5c821	0.001508955
207	0xbd377dec	-0.044797823
208	0x3deb58a5	0.11491517
209	0x3d08023f	0.033205267
210	0x3dac6106	0.08416943
211	0x3d1a8833	0.037727546
212	0x3d64018c	0.055665538
213	0x3d9ad2b9	0.075597234
214	0x3d639758	0.055564255
215	0x3dd473e8	0.1037367
216	0x3d087040	0.033310175
217	0x3b940ef6	0.004518385
218	0xbcc36034	-0.023849584
219	0xbb1ce34d	-0.0023939193
220	0xbe715aa0	-0.23569727
221	0xbc9dc08a	-0.019256849
222	0x3d80c909	0.062883444
223	0xbd9c6c4b	-0.07637843
224	0x3d981adc	0.07426998
225	0x3e27d7a1	0.1639085
226	0x3d8528e2	0.065019384
227	0xbd1fe31f	-0.03903496
228	0x3d83bca5	0.064324655
229	0x3dac6890	0.08418381
230	0xbca6ea08	-0.020375267
231	0x3d7a8367	0.06116047
232	0x3e2d17be	0.16903588
233	0x3d5e3686	0.054251216
234	0x3ca7554a	0.020426411
235	0x3ddaabd4	0.10677305
236	0x3d835916	0.06413476
237	0x3dde67b1	0.10859621
238	0xbd7e1307	-0.062029865
239	0x397ce1c1	0.00024116693
240	0xbd4e4c93	-0.050365996
241	0x3e5a0996	0.21292719
242	0xbcee6b45	-0.029103884
243	0xbc03a921	-0.008035929
244	0xbe504647	-0.20339309
245	0x3d02b927	0.031914856
246	0x3d94f8cc	0.07274017
247	0xbce3024e	-0.02771106
248	0xbd9105ed	-0.070812084
249	0xbd8111b7	-0.06302207
250	0x3d095c21	0.033535127
251	0xbb2d1ca5	-0.0026414779
252	0x3df7e0bc	0.121034116
253	0xbde00d50	-0.10940039
254	0x3d36d5bc	0.044637427
255	0x3dc789f7	0.097431116

encoder.blks.block0.addnorm1.ln.weight f4 [32]
0	0x3f73c09d	0.9521578
1	0x3f68602f	0.90771765
2	0x3f988258	1.1914778
3	0x3f751635	0.9573701
4	0x3f835cbd	1.0262676
5	0x3f658541	0.89656454
6	0x3f75470b	0.9581153
7	0x3f86416a	1.0488713
8	0x3f798fda	0.97485125
9	0x3f6e9fe5	0.9321273
10	0x3f6d36b5	0.926616
11	0x3f51837c	0.81841254
12	0x3f6d9de4	0.92819047
13	0x3f776c4e	0.96649635
14	0x3f899ef1	1.075163
15	0x3f8da845	1.1066977
16	0x3f57ff79	0.84374195
17	0x3f920ffb	1.1411127
18	0x3f921255	1.1411844
19	0x3f947643	1.1598591
20	0x3f79f5d3	0.97640723
21	0x3f5b1383	0.8557665
22	0x3f84c7da	1.037349
23	0x3f8a453d	1.080238
24	0x3f6b86c7	0.9200253
25	0x3f803a74	1.0017838
26	0x3f9bc4f3	1.2169479
27	0x3f915024	1.1352582
28	0x3f867d1e	1.0506933
29	0x3f8fe1af	1.1240748
30	0x3f2e7efb	0.68162507
31	0x3f522ac8	0.8209653

encoder.blks.block0.addnorm1.ln.bias f4 [32]
0	0x3df59f6a	0.119932964
1	0x3dd4989d	0.10380671
2	0xbd877f23	-0.06616046
3	0xbeb1a4a3	-0.3469592
4	0xbee0c522	-0.439004
5	0xbdfdd94c	-0.12394962
6	0xbe99dc45	-0.30050865
7	0xbd99472b	-0.07484277
8	0x3eaea7eb	0.34112486
9	0x3e857042	0.26062208
10	0xbd431c4a	-0.0476344
11	0x3eb29299	0.3487747
12	0x3dff8611	0.12476743
13	0xbe1a149c	-0.15046924
14	0xbe7433eb	-0.2384793
15	0xbdd4b36a	-0.10385783
16	0xbe98c54f	-0.29838035
17	0xbda82aff	-0.08211326
18	0xbea5c341	-0.3237553
19	0x3d21f9be	0.039544813
20	0x3ec00dba	0.37510473
21	0xbecf48f4	-0.40485346
22	0x3e2a7820	0.16647387
23	0xbadd0c14	-0.0016864561
24	0x3d68c4d7	0.056828346
25	0xbe01fc2b	-0.1269385
26	0xbbee1f5d	-0.0072669224
27	0xbde524f1	-0.11188687
28	0xbec84f18	-0.39122844
29	0x3e85e555	0.2615153
30	0xbdb21111	-0.086946614
31	0x3e12dd29	0.14342178

encoder.blks.block0.ffn.dense1.weight f4 [64, 32]
0	0xbd4c709e	-0.049912088
1	0x3e761950	0.24033093
2	0x3ec7cf39	0.39025286
3	0xbe0659d8	-0.1312021
4	0x3e09338b	0.13398568
5	0x3ec67392	0.38760048
6	0x3d52e934	0.05149193
7	0x3e07209d	0.13196035
8	0xbe126c62	-0.14299157
9	0xbf176a78	-0.59146833
10	0x3e0b1f93	0.13586263
11	0xbe4f3b49	-0.20237459
12	0xbe581e0a	-0.21105209
13	0x3effc8ad	0.4995779
14	0xbdda65e9	-0.10663969
15	0x3e77ae25	0.24187525
16	0x3f02bd72	0.5107032
17	0xbd2d5508	-0.04231742
18	0x3ed73fc1	0.42040828
19	0xbeadd4e5	-0.33951488
20	0xbe9bf53f	-0.30460545
21	0x3d5c8951	0.053841893
22	0xbcc76bbe	-0.024343368
23	0xbd97290c	-0.07380876
24	0x3d9449a6	0.0724061
25	0x3e5ee6cd	0.21767731
26	0xbe74c083	-0.23901562
27	0xbe94f73e	-0.2909488
28	0x3e94d6f6	0.29070252
29	0x3cf38d30	0.02973041
30	0xbeeaa608	-0.45829797
31	0xbdbc72ca	-0.09201582
32	0x3dea0552	0.11426796
33	0x3e959a35	0.29219213
34	0xbe92c72f	-0.2866759
35	0x3deaa1ea	0.11456664
36	0x3e8653dc	0.26235855
37	0x3ea5eadd	0.3240575
38	0x3cb43dd3	0.022002136
39	0x3e4ff648	0.20308793
40	0xbcfbe161	-0.030747117
41	0x3ca69f08	0.020339504
42	0x3e2d534a	0.16926304
43	0xbee5fa84	-0.4491769
44	0xbb9bce81	-0.004754842
45	0xbe2a38b7	-0.16623197
46	0x3e8d3e7c	0.27586734
47	0x3c7183c1	0.014740885
48	0x3b2462a2	0.0025083204
49	0x3e3cecde	0.18449733
50	0x3e08a991	0.13345934
51	0xbef528c7	-0.47882673
52	0x3d3c82ee	0.0460233
53	0x3bb92a2d	0.0056507797
54	0xbe4259d3	-0.18979578
55	0x3ec923a6	0.3928501
56	0xbe32ed6d	-0.17473383
57	0x3e1d38af	0.15353654
58	0x3c92fc1b	0.017942479
59	0x3ea1f8a9	0.31635025
60	0x3edc2673	0.42998084
61	0xbc1c2dc6	-0.009532398
62	0x3dd80fde	0.105499014
63	0xbd8ac568	-0.067759335
64	0xbd92b726	-0.07163839
65	0x3de7de42	0.11321689
66	0x3eae280a	0.34014922
67	0xbe11ccb9	-0.14238252
68	0x3e005c80	0.12535286
69	0x3d782ec6	0.06059148
70	0x3e74081c	0.23831218
71	0x3e2d6779	0.16934003
72	0x3e0a84cd	0.13527222
73	0xbe2d8695	-0.1694587
74	0x3d202b9d	0.039104093
75	0xbdb1559c	-0.08658907
76	0xbcd28a28	-0.025700644
77	0xbed47818	-0.41497874
78	0x3d3761e5	0.044771094
79	0x3e87f0df	0.26550958
80	0xbdde67c7	-0.10859638
81	0x3d11fdcb	0.035642426
82	0x3e8b0a31	0.27156213
83	0x3db2cece	0.08730851
84	0x3cf3aca5	0.02974541
85	0x3e669593	0.22517996
86	0xbef156cb	-0.4713653
87	0x3e62f725	0.2216459
88	0xbeda9009	-0.42688015
89	0xbe211581	-0.1573086
90	0x3e90d45e	0.28287023
91	0xbdeb2a55	-0.114826836
92	0x3d92e2c8	0.07172161
93	0xbe977ac9	-0.29585865
94	0x3d9894d3	0.07450261
95	0xbee7392c	-0.45160806
96	0x3ea6abed	0.32553044
97	0x3e09743d	0.13423248
98	0x3ed2fc00	0.41207886
99	0x3ecd56c0	0.40105247
100	0x3e4cf083	0.20013623
101	0xbea01f31	-0.31273797
102	0x3e969ac7	0.2941496
103	0x3d18e09a	0.03732357
104	0xbf095dd4	-0.53658795
105	0x3d897639	0.06712002
106	0x3ed4430b	0.414574
107	0xbcf5f1f8	-0.030022606
108	0xbe52269c	-0.20522541
109	0xbd09ed7f	-0.03367376
110	0xbe8453b2	-0.25845104
111	0x3e80a51e	0.25125974
112	0xbdf84206	-0.12121968
113	0x3eb8c618	0.36088634
114	0xbc9808d2	-0.018558893
115	0x3e6e03e3	0.2324367
116	0xbe526387	-0.20545779
117	0x3db8d894	0.09025684
118	0xbebefa63	-0.37300405
119	0xbd1b97e6	-0.03798666
120	0xbe55d720	-0.20882845
121	0xbcc73591	-0.024317535
122	0x3abef7cf	0.0014569702
123	0xbe08ce72	-0.13360003
124	0x3d93363f	0.07188081
125	0xbdcbf1bd	-0.09958217
126	0x3ea210c7	0.31653425
127	0xbcc6b2be	-0.024255153
128	0xbde0d7fe	-0.10978697
129	0x3dda8e0f	0.10671627
130	0x3ebe27e2	0.37139803
131	0x3e669d9e	0.22521064
132	0x3edef9be	0.43549913
133	0xbf22a815	-0.6353772
134	0x3e1efc0f	0.1552584
135	0xbe6269b1	-0.2211063
136	0xbd72a95c	-0.059243545
137	0xbdcb4ef9	-0.09927172
138	0x3d583930	0.052788913
139	0xbe08327c	-0.13300508
140	0x3eade5e0	0.33964443
141	0x3e854cfe	0.26035303
142	0x3c2c2e9d	0.01050916
143	0xbe430877	-0.19046198
144	0x3f59d1b8	0.8508563
145	0x3de687af	0.11256348
146	0xbcfbb482	-0.030725721
147	0xbded833b	-0.11597296
148	0x3d9ead91	0.07747949
149	0x3e1cfc28	0.15330565
150	0xbd4733ce	-0.04863339
151	0xbc482037	-0.012214712
152	0xbe6f469f	-0.23366784
153	0x3c3e955c	0.01163229
154	0xbe2fb734	-0.1715973
155	0xbec20307	-0.37892935
156	0xbd372bee	-0.04471963
157	0xbd60f6e7	-0.054922964
158	0x3e00a053	0.12561159
159	0xbde997d1	-0.1140591
160	0xbcd01f23	-0.025405472
161	0xbe8afb4d	-0.27144852
162	0xbde5e75e	-0.112257704
163	0x3f0efb66	0.55852354
164	0x3aa08cd9	0.0012249007
165	0x3e364c9f	0.17802666
166	0xbea65a00	-0.3249054
167	0x3e09fa49	0.13474382
168	0x3b29dc28	0.0025918577
169	0xbebcb595	-0.36857286
170	0x3e383a7c	0.1799106
171	0xbd835158	-0.064119995
172	0x3e974d53	0.2955118
173	0x3ca4e712	0.020129714
174	0xbe923e44	-0.2856313
175	0x3f01addb	0.5065591
176	0xbe91970f	-0.2843556
177	0xbea88ddc	-0.3292073
178	0xbd85535c	-0.0651004
179	0xbe33535f	-0.17512272
180	0xbe2e4ab5	-0.17020686
181	0x3dc03ec2	0.0938697
182	0x3c20742a	0.009793321
183	0x3dc9d496	0.09855001
184	0x3dc568c0	0.0963912
185	0x3cf4f025	0.029899666
186	0xbd943ce2	-0.07238175
187	0x3e895728	0.26824307
188	0xbddcaf3a	-0.10775609
189	0xbd000d5c	-0.03126274
190	0xbe231f18	-0.1592983
191	0xbe5880b8	-0.21142852
192	0xbdb053dc	-0.08609745
193	0xbd2b246a	-0.041782774
194	0xbe629983	-0.22128873
195	0x3e3f9b1e	0.18711516
196	0x3dd935db	0.10605975
197	0xbb23ccfa	-0.0024994002
198	0x3ed4ee39	0.41588
199	0xbe28fca7	-0.16502629
200	0x3e2fbad3	0.17161112
201	0xbd298975	-0.041390855
202	0x3edd6bf5	0.43246427
203	0x3e49d596	0.19710383
204	0xbded610e	-0.11590777
205	0xbe25523c	-0.16144651
206	0x3ea70502	0.32621008
207	0x3d205167	0.03914013
208	0xbe7e6ee6	-0.24846992
209	0x3eb59e2a	0.35472232
210	0x3e82ac5f	0.25522134
211	0xbe9d538d	-0.30727807
212	0xbea944a0	-0.3306017
213	0xbdcb317b	-0.09921547
214	0x3dafae12	0.08578123
215	0x3d8aebbc	0.06783244
216	0xbd6797e7	-0.05654135
217	0x3dae18be	0.08500813
218	0x3d3d309c	0.046188936
219	0xbe8b81e6	-0.27247542
220	0x3efba3c3	0.49148378
221	0x3e0930f9	0.13397588
222	0xbe2de095	-0.16980202
223	0xbe2853b0	-0.16438174
224	0xbd456c18	-0.04819879
225	0x3d9cc116	0.07654016
226	0x3e189134	0.1489914
227	0xbe8cae72	-0.2747684
228	0x3e3bd1f0	0.18341804
229	0x3da6fe69	0.08153994
230	0x3f04467b	0.51670045
231	0x3d535b52	0.05160076
232	0x3cb887d3	0.022525704
233	0xbe6af0ec	-0.22943467
234	0x3e9b3fb8	0.3032205
235	0xbeb9914c	-0.36243665
236	0xbea236cb	-0.3168243
237	0xbe554b9c	-0.20829624
238	0x3da4a370	0.08038986
239	0xbab99193	-0.0014157764
240	0x3e9ed1fd	0.31019583
241	0xbf0012b2	-0.50028527
242	0x3e23ea36	0.16007313
243	0x3e73faf3	0.23826198
244	0xbe1e0957	-0.1543325
245	0x3ea56ca1	0.3230944
246	0x3d455945	0.048180837
247	0xbe8a329e	-0.26991743
248	0xbe24510b	-0.1604654
249	0x3e4d97b0	0.20077395
250	0x3e523e67	0.20531617
251	0x3d4bf9b8	0.049798697
252	0xbd9b2403	-0.07575228
253	0xbdff7013	-0.12472548
254	0xbc0bbca2	-0.00852886
255	0xbe69423c	-0.22779173

encoder.blks.block0.ffn.dense1.bias f4 [64]
0	0xbda906b7	-0.08253234
1	0xbeaff03b	-0.3436297
2	0xbe89f82d	-0.26947156
3	0xbe8139bd	-0.25239363
4	0xbefe594a	-0.49677497
5	0xbe7c9889	-0.24667563
6	0xbf31b4d7	-0.69416565
7	0xbf06287b	-0.5240552
8	0xbe8d4b91	-0.27596715
9	0xbee3f87d	-0.4452552
10	0xbeb7bfb8	-0.35888457
11	0xbf2166b8	-0.6304736
12	0xbee3dfd3	-0.44506702
13	0xbea56fe6	-0.32311934
14	0xbee32ba4	-0.44369233
15	0xbe98c040	-0.29834175
16	0xbe98d830	-0.29852438
17	0xbecb256f	-0.39676997
18	0xbf1a78b9	-0.6034046
19	0xbf135239	-0.57547337
20	0xbf10cb9b	-0.5656068
21	0xbf2eb134	-0.6823914
22	0xbed9c2e6	-0.42531508
23	0xbec7e2ed	-0.39040318
24	0xbea6e22a	-0.32594424
25	0xbe84c74f	-0.2593331
26	0xbeaa73c8	-0.3329146
27	0xbf1301b8	-0.574245
28	0xbed34c52	-0.41269165
29	0xbe87d5c7	-0.26530287
30	0xbef792f1	-0.48354295
31	0xbe4f6be1	-0.20255996
32	0xbe4bc780	-0.19900322
33	0xbe2aa8be	-0.16665933
34	0xbe9356d2	-0.28777176
35	0xbef23dc3	-0.47312745
36	0xbec83533	-0.39103088
37	0xbe9b8a97	-0.30379173
38	0xbe92ff6a	-0.2871049
39	0xbe22d90b	-0.15903108
40	0xbe729f96	-0.2369369
41	0x3b4b64a1	0.0031035321
42	0xbed7be5a	-0.42137414
43	0xbecc0d1b	-0.3985375
44	0xbee1e541	-0.4412022
45	0xbe83346c	-0.25625932
46	0xbe8ba8a2	-0.27277094
47	0xbe9f58f3	-0.3112255
48	0xbeee2937	-0.4651582
49	0xbe730f35	-0.2373627
50	0xbe879de1	-0.2648764
51	0xbdddb645	-0.10825781
52	0xbf0f537d	-0.5598677
53	0xbea55d64	-0.32297814
54	0xbe233e2b	-0.15941684
55	0xbe6ae69e	-0.22939536
56	0xbf2f9eb3	-0.6860153
57	0xbebe4d0e	-0.37168163
58	0xbef56c9c	-0.47934425
59	0xbeb33f27	-0.3500912
60	0xbea3b78f	-0.31975982
61	0xbe5c7559	-0.2152914
62	0xbe800390	-0.25002718
63	0xbe3c83ae	-0.18409607

encoder.blks.block0.ffn.dense2.weight f4 [32, 64]
0	0x3e94d569	0.2906907
1	0x3e600177	0.21875559
2	0x3ea87e50	0.3290887
3	0x3d0a4a74	0.03376241
4	0xbdab48a5	-0.08363465
5	0xbe17f718	-0.14840353
6	0x3dd416f4	0.103559405
7	0xbead9baf	-0.3390784
8	0x3e71ca0d	0.23612233
9	0xbd432042	-0.047638185
10	0xbd625d69	-0.055264864
11	0xbf039df9	-0.5141292
12	0xbe58e483	-0.2118092
13	0x3e20eaec	0.15714616
14	0x3da84d9a	0.08217926
15	0xbe241f05	-0.16027458
16	0x3e515f27	0.20446454
17	0xbe90c2f5	-0.2827374
18	0xbe5608b3	-0.20901756
19	0x3c60fb43	0.01373178
20	0xbd2be400	-0.041965485
21	0xbe560ce4	-0.20903355
22	0x3dbeffce	0.093261346
23	0x3edcda67	0.43135378
24	0xbe986b95	-0.2976958
25	0xbe85b9a8	-0.26118207
26	0xbe511b4d	-0.2042057
27	0x3e19765c	0.14986557
28	0x3e22850a	0.15871063
29	0x3ebda5cc	0.37040555
30	0xbd818d7b	-0.063258134
31	0xbe244c24	-0.1604467
32	0xbead28e9	-0.33820274
33	0xbec8eeb3	-0.39244613
34	0x3e921f1c	0.2853936
35	0x3ec90970	0.39265013
36	0xbd4e7b6f	-0.050410684
37	0x3e5a20b7	0.21301542
38	0xbdd39e36	-0.10332911
39	0xbeb2e9e5	-0.34944072
40	0x3d1c4b5a	0.0381578
41	0xbce2d69b	-0.027690222
42	0x3ef82ef0	0.4847331
43	0xbeab6ebd	-0.33482924
44	0x3d0018a8	0.031273514
45	0x3d6e5928	0.058190495
46	0xbc5aface	-0.013365461
47	0xbeafa063	-0.34302053
48	0xbc7e4c64	-0.015521143
49	0xbdc0ab99	-0.0940773
50	0x3e2caca4	0.16862732
51	0xbea15dbd	-0.3151683
52	0x3cb3b389	0.021936195
53	0x3e3f35b5	0.18672831
54	0x3e2a7aa1	0.16648342
55	0xbebee35d	-0.3728284
56	0xbe8926ca	-0.26787406
57	0x3e5acc2b	0.21366946
58	0xbdda0136	-0.10644762
59	0xbca73678	-0.020411715
60	0x3e955bd3	0.2917162
61	0x3e8d118c	0.2755245
62	0xbce11668	-0.027476504
63	0x3d5ea754	0.054358795
64	0x3e79dac1	0.24399854
65	0xbd9de343	-0.07709362
66	0xbd242e1c	-0.040083036
67	0xbdd1da20	-0.10246682
68	0x3d515abf	0.051111933
69	0xbe8300e0	-0.25586605
70	0x3c376805	0.011194234
71	0xbd71d8e9	-0.059044752
72	0x3d6e4fdc	0.05818163
73	0x3de0d3dd	0.1097791
74	0xbe7732bf	-0.24140452
75	0x3e3c8323	0.184094
76	0x3dfc4552	0.12317909
77	0xbded9bfb	-0.116020165
78	0x3e06cd2b	0.13164203
79	0xbde8327f	-0.11337756
80	0xbbefaf23	-0.007314579
81	0x3dfd43b4	0.12366429
82	0x3e5d673f	0.21621417
83	0x3dc362fb	0.095403634
84	0xbd919459	-0.07108373
85	0xbea57787	-0.32317755
86	0x3f0c231a	0.5474106
87	0x3f2a6230	0.6655607
88	0x3ec619b1	0.38691476
89	0xbe866c3b	-0.26254448
90	0x3d7ef72d	0.062247444
91	0x3e1c1e99	0.15246047
92	0x3ead40be	0.33838457
93	0xbdf1005c	-0.11767647
94	0xbbf9ad76	-0.007619555
95	0x3e0e29c1	0.13883115
96	0xbd68166e	-0.056662016
97	0x3ea1856b	0.31547102
98	0xbe4ff2d0	-0.2030747
99	0x3ef60ed4	0.48058188
100	0xbd9d6bde	-0.0768659
101	0xbe10b454	-0.1413129
102	0x3d965983	0.07341292
103	0xbba5be71	-0.005058103
104	0x3e3bcdfa	0.18340293
105	0xbeaf8984	-0.34284604
106	0xbf18942a	-0.5960108
107	0xbe621360	-0.22077703
108	0x3d21b3a7	0.03947797
109	0x3d772e98	0.06034717
110	0xbd88fd9c	-0.06688997
111	0xbe841f3e	-0.25805086
112	0xbe69e678	-0.22841823
113	0xbc263d4a	-0.010146448
114	0xbe5bf656	-0.21480688
115	0x3cf02473	0.029314255
116	0xbd215188	-0.039384395
117	0x3ec4c1a8	0.38428998
118	0xbe448dcb	-0.19194715
119	0x3d95ea4d	0.0732008
120	0x3e58a7cc	0.2115776
121	0xbec685f6	-0.3877408
122	0x3e83253f	0.25614354
123	0xbda2470b	-0.079237066
124	0xbdd2b052	-0.10287537
125	0xbe20cebc	-0.15703863
126	0x3be709ee	0.0070507443
127	0xbe9d81b2	-0.30763012
128	0x3d07cbb0	0.033153236
129	0x3be5d237	0.007013585
130	0x3e232031	0.15930249
131	0x3dd7dc56	0.105400726
132	0x3da72b40	0.08162546
133	0x3e533f7d	0.20629688
134	0x3e5ea804	0.2174378
135	0x3e62219f	0.22083138
136	0x3e0d5b18	0.13804281
137	0xbecbc37f	-0.3979759
138	0xbe96c1a7	-0.2944462
139	0x3e1654a7	0.1468073
140	0x3d942fc6	0.072356746
141	0x3dc40742	0.09571697
142	0x3ec23c66	0.37936705
143	0xbe555bb9	-0.2083577
144	0xbeb9fbdf	-0.36324975
145	0x3cca2e8b	0.024680397
146	0x3b5b0c8a	0.0033424222
147	0x3e9d5fda	0.3073719
148	0x3df57c3b	0.11986586
149	0x3c628e17	0.013827822
150	0xbe4abb4c	-0.1979801
151	0xbe266fae	-0.1625354
152	0xbe274078	-0.16333187
153	0x3ef61466	0.48062438
154	0xbe4624eb	-0.1935002
155	0xbe0674ed	-0.13130541
156	0xbdd28a70	-0.10280311
157	0xbe583558	-0.21114099
158	0x3b53e4c8	0.003233241
159	0xbdef6961	-0.11690021
160	0x3e14f804	0.14547735
161	0x3e0d44e0	0.13795805
162	0xbe23998d	-0.15976544
163	0xbe6a4262	-0.22876886
164	0xbdd0885b	-0.10182258
165	0x3e63315f	0.22186802
166	0x3e213be5	0.15745504
167	0xbe078080	-0.13232613
168	0xbddd50e4	-0.10806444
169	0x3d92c8ae	0.07167183
170	0xbe142054	-0.14465457
171	0x3eb64842	0.35602003
172	0xbe57fa36	-0.21091542
173	0xbd792fd3	-0.060836624
174	0x3dcf95c7	0.1013599
175	0x3d9292dd	0.07156918
176	0xbe2bb757	-0.16769157
177	0x3df238d6	0.11827247
178	0x3d0e56cf	0.034750756
179	0xbe8b9d56	-0.27268475
180	0x3e22d8e2	0.15903047
181	0x3db73a57	0.08946674
182	0xbe988079	-0.29785517
183	0x3da4706e	0.08029257
184	0x3ea89f04	0.3293382
185	0x3cfaef3d	0.030631656
186	0xbc537f05	-0.012908702
187	0xbea93a13	-0.3305212
188	0xbaba9e76	-0.0014237899
189	0xbdd8abf6	-0.10579674
190	0xbe060c62	-0.13090661
191	0xbda38eea	-0.07986243
192	0x3df6ff77	0.12060445
193	0x3d6f3821	0.058403138
194	0x3b5cc667	0.0033687593
195	0x3ebac439	0.3647783
196	0xbe07b70c	-0.1325342
197	0x3e0b06e1	0.13576843
198	0xbdbd96a9	-0.09257252
199	0xbe42d534	-0.19026643
200	0xbde39f80	-0.111144066
201	0xb9ac4d7a	-0.0003286412
202	0xbe4592dd	-0.19294305
203	0xbe9e4151	-0.30909207
204	0x3cc01578	0.023447737
205	0xbe9b2008	-0.30297875
206	0x3e34e5c9	0.17665781
207	0xbeb2bf1d	-0.34911433
208	0x3eaefed2	0.34178787
209	0x3d8d323f	0.06894349
210	0x3eb6f8f5	0.35736814
211	0x3c1df13e	0.009640036
212	0x3d0c8f99	0.034316633
213	0x3ed0275f	0.40655038
214	0xbe2acd68	-0.16679919
215	0x3e13ab5c	0.14420837
216	0xbdf3d9f2	-0.11906804
217	0x3e18211a	0.14856377
218	0x3e33d99a	0.17563477
219	0xbea31ae0	-0.31856441
220	0x3d9fe297	0.078068905
221	0xbc2fd035	-0.010730793
222	0xbd1144c4	-0.03546597
223	0xbc9302e8	-0.017945722
224	0x3de8c327	0.11365347
225	0xbde4470e	-0.11146365
226	0x3ec19b9c	0.37814033
227	0x3d880d72	0.066431895
228	0xbee7581c	-0.4518441
229	0x3e8912b2	0.26772076
230	0xbeaccd76	-0.33750504
231	0xbdb70025	-0.089355744
232	0xbe1ece8a	-0.15508476
233	0x3ca67596	0.020319741
234	0x3eec99de	0.4621114
235	0xbe845aae	-0.25850433
236	0x3e2de67e	0.16982457
237	0x3edafdb3	0.42771682
238	0x3cf6aa5e	0.030110534
239	0xbe9808e5	-0.29694286
240	0x3df84311	0.12122167
241	0x3cf6a2b9	0.03010689
242	0xbebbd41e	-0.3668527
243	0x3ebf17d0	0.37322855
244	0x3d7744c1	0.060368303
245	0xbd892227	-0.06695967
246	0x3cb70ea6	0.022345852
247	0x3e3e4b7c	0.18583483
248	0x3e353915	0.17697556
249	0x3e812b7f	0.25228497
250	0xbe6b338d	-0.22968884
251	0xbeadadc9	-0.3392165
252	0xbda9ae39	-0.082851835
253	0x3d808569	0.06275446
254	0xbe8d6b4a	-0.27620918
255	0x3dce7c6d	0.10082326
