Transformer/checkpoints/net.pth (torch, 271471 bytes, 64 tensors)

encoder.embedding.weight f4 [184, 32]
0	0xbee2b5e1	-0.44279388
1	0x3fd689f0	1.6760845
2	0x3e2bb483	0.16768079
3	0x3ec9d004	0.39416516
4	0x3e2c7512	0.16841534
5	0x3ec4cc16	0.38436955
6	0x3edbc539	0.42923906
7	0x3f6dd1ba	0.9289814
8	0xbcfa313e	-0.030541059
9	0xbec5de1f	-0.38646027
10	0x3e0a776e	0.13522121
11	0x3fb9fb1b	1.4529756
12	0xbfd22e6c	-1.6420417
13	0x3fa67cff	1.3006896
14	0x3f82a85a	1.0207627
15	0xbf8205f3	-1.0158066
16	0xbf816b05	-1.0110785
17	0xc0078f89	-2.1181357
18	0xbf3448c0	-0.7042351
19	0xbef8acbe	-0.48569292
20	0x3e658d8d	0.22417279
21	0x401ef3ad	2.4836228
22	0x3c58b8bc	0.013227638
23	0x3ffb31a3	1.9624523
24	0xbf669ebd	-0.90085965
25	0xbf9ca7eb	-1.2238744
26	0x3ea7b984	0.32758725
27	0x3eebecea	0.4607919
28	0x3ea2a682	0.3176766
29	0x3f99cb62	1.2015193
30	0x3eb8d2d4	0.3609835
31	0x3e6fa28b	0.23401849
32	0xbeed420a	-0.46339446
33	0x3fab3e24	1.3378339
34	0xbf7dd102	-0.99147046
35	0x3f732413	0.9497692
36	0xbf724386	-0.9463428
37	0xbea0e432	-0.314241
38	0xbe6915fe	-0.22762296
39	0x3fceae23	1.6146892
40	0x3fd6ff7b	1.6796716
41	0x3f7711f5	0.96511775
42	0xbe9cb0cf	-0.30603644
43	0x3e8dda96	0.2770583
44	0xbf2f1090	-0.6838465
45	0x3f4ca9e0	0.7994671
46	0xbec2ee29	-0.38072327
47	0x3f80677c	1.0031581
48	0xbf66d8d7	-0.9017462
49	0x3f6f83cc	0.9356048
50	0x3ed1b65f	0.4095945
51	0xbf986853	-1.1906837
52	0x3ed81a3e	0.4220752
53	0xbf10c534	-0.5655091
54	0x3f96727b	1.1753687
55	0x3f6c6ee0	0.9235668
56	0xbf22b96e	-0.63564193
57	0x3e824d83	0.25449762
58	0x3f0be5ca	0.54647505
59	0x3fa1b725	1.2634016
60	0xbedb9bc3	-0.42892274
61	0x3e8dc6a0	0.276906
62	0x3ea985cf	0.331099
63	0x3e5e8ac9	0.2173263
64	0xbfb0d118	-1.381381
65	0x3effcffe	0.49963373
66	0xbe9e2d8b	-0.30894122
67	0xbcf99e32	-0.030470941
68	0x3eac3895	0.3363692
69	0x3f15f3b5	0.5857499
70	0xbe6349f5	-0.22196181
71	0x3eb2fe9a	0.3495987
72	0xbef309c6	-0.47468394
73	0x3f9df22b	1.2339529
74	0x3f22f04b	0.6364791
75	0x3ed83611	0.4222875
76	0x3ed79091	0.42102483
77	0xbf372322	-0.71537983
78	0x3f97c854	1.185801
79	0xbec296af	-0.38005587
80	0x3dcaf5b7	0.09910148
81	0x3eaef8b7	0.3417413
82	0x3f9caccc	1.2240233
83	0xbf7ed20d	-0.9953926
84	0x3fc46f54	1.5346475
85	0x3f4f3059	0.8093315
86	0x3f1c81bc	0.6113546
87	0x3fef95ea	1.8717625
88	0x3f55e593	0.8355343
89	0x3f8d3dc9	1.103448
90	0x3eaebcdf	0.34128472
91	0x3d66878e	0.05628162
92	0x3f082cd3	0.53193396
93	0xbf872a99	-1.0559875
94	0x3ffa40bc	1.9551005
95	0xbf23c79f	-0.6397647
96	0x3e5a70d7	0.21332107
97	0xbf2fadc0	-0.68624496
98	0xbdd09fa4	-0.10186699
99	0x3e3e6f15	0.18597062
100	0x3e34f689	0.1767217
101	0x3f218045	0.6308635
102	0xbe3e859f	-0.1860566
103	0x3f83b24a	1.0288785
104	0x3e841b10	0.25801897
105	0x3e9aeebf	0.30260274
106	0xbe242b52	-0.1603215
107	0xbe8ed3af	-0.27895877
108	0x3f8a0a26	1.0784347
109	0xbe6cae0b	-0.23113267
110	0x3cc950a0	0.024574578
111	0x3f558e72	0.8342048
112	0x3f0893f0	0.53350735
113	0xbf3b2a20	-0.7311115
114	0xbe5ee10b	-0.21765535
115	0xbef97189	-0.48719433
116	0x3e16f4db	0.14741842
117	0x3f542a9b	0.8287751
118	0xbf7ee086	-0.99561346
119	0xbf89e018	-1.0771513
120	0x3fa51e81	1.2899934
121	0xc0339582	-2.8060002
122	0x3f82c584	1.0216527
123	0xbee639e4	-0.44966042
124	0xbe3a43c5	-0.18189915
125	0x3ea4d210	0.32191515
126	0x3c9b0412	0.01892284
127	0x3e6b6555	0.22987874
128	0xbf23038e	-0.636773
129	0xbf4e98a3	-0.80701655
130	0xbf8e37eb	-1.1110815
131	0xbedac569	-0.42728737
132	0x3e58710d	0.21136875
133	0x3ff46de1	1.9096032
134	0xbe483392	-0.19550923
135	0x3e4e1fa9	0.20129265
136	0x3e25b290	0.16181397
137	0x3e0eec98	0.13957441
138	0x3f35bb8a	0.70989287
139	0x3f329e18	0.6977248
140	0xbf5cfe40	-0.86325455
141	0xbe7f43a3	-0.24928145
142	0x3effbf35	0.49950567
143	0x3fbb481b	1.463138
144	0xbfcd3b18	-1.6033659
145	0x3f019667	0.5062012
146	0xbe3a998b	-0.18222634
147	0x3f8569b6	1.0422885
148	0x3f8c04d0	1.0938969
149	0x3fb9ada6	1.4506118
150	0xbf104342	-0.5635263
151	0xbf5545ba	-0.8330952
152	0x3e6e7359	0.23286189
153	0x3f0fd1ca	0.5617949
154	0x3f295cf7	0.6615748
155	0x3eaa9d81	0.3332329
156	0x3f4e9c1b	0.8070695
157	0xbe9904e4	-0.29886544
158	0xbcd4e431	-0.025987716
159	0x3f271a81	0.65274817
160	0xbdae9285	-0.0852404
161	0x3fd6c10b	1.6777662
162	0x401ff874	2.4995394
163	0x3f6e06b8	0.92979
164	0x3ea95bbd	0.33077803
165	0x3fd710ce	1.6802003
166	0xbdc609cb	-0.096698366
167	0x3f5dd1d4	0.866483
168	0xbebbe595	-0.36698595
169	0x3ef8ad5c	0.48569763
170	0x3f82e104	1.0224919
171	0xbfb7501f	-1.4321326
172	0x3f5ceb20	0.8629627
173	0xbedcfc9b	-0.43161473
174	0x3f650694	0.8946316
175	0x3ec3a665	0.38212886
176	0x3faf2512	1.3683188
177	0xc00a9532	-2.1653562
178	0x3cf73ce5	0.030180404
179	0x3f8a7a45	1.0818564
180	0x3f7ea0a0	0.99463844
181	0xbf987497	-1.191058
182	0xbfb0e129	-1.3818713
183	0xbf33975d	-0.7015284
184	0xbfd6a2de	-1.6768453
185	0xbeabc458	-0.33548236
186	0x3f2ffaeb	0.68742245
187	0xbe94ecf3	-0.29087028
188	0x3f32c316	0.6982893
189	0xbe7fdabd	-0.24985786
190	0x3ee4430f	0.44582412
191	0xbda3c0ef	-0.079957835
192	0x3eb74702	0.35796362
193	0xbd7749db	-0.06037317
194	0x3c20b045	0.009807651
195	0xbf204aa7	-0.6261391
196	0x3f94c64f	1.1623019
197	0xbeee049d	-0.46487895
198	0xbf5bde86	-0.8588642
199	0xbe4bbf22	-0.1989713
200	0xbe5a89ce	-0.21341631
201	0x3ed0f02a	0.4080823
202	0xbefeae6b	-0.49742445
203	0xbf5b7be3	-0.8573591
204	0x3f3bf3fa	0.73419154
205	0xbfde5e37	-1.7372502
206	0x3ea324a6	0.31863898
207	0xbe9b588f	-0.30341002
208	0x3eed95a4	0.4640323
209	0xbf863ee4	-1.0487943
210	0x3e04f6a7	0.12984715
211	0x3ed8f04f	0.4237084
212	0xbf608c41	-0.8771401
213	0xbfce15e0	-1.6100426
214	0x3f59f6a6	0.8514198
215	0x3f487db7	0.78316826
216	0x3fb9b983	1.4509739
217	0xbfada4e3	-1.3565944
218	0x3eb16e1b	0.34654316
219	0x3f8ab7f5	1.0837389
220	0x3ff12daf	1.8842067
221	0x3f9d0e43	1.2269977
222	0xbf1e506e	-0.61841476
223	0xbbeabde7	-0.0071637514
224	0xbf59fe51	-0.8515368
225	0xbe97c349	-0.29641178
226	0xbd735dee	-0.05941575
227	0xbf133908	-0.575089
228	0x3f85d16e	1.0454538
229	0x3b29e080	0.0025921166
230	0xc0227b20	-2.538765
231	0x3fef6456	1.8702495
232	0xbf092670	-0.53574276
233	0xbfd2a4d8	-1.6456556
234	0xbe5ff084	-0.21869093
235	0x3fa51fc3	1.2900318
236	0x3e626bb4	0.22111398
237	0x402c3428	2.6906834
238	0x3e4e6b2f	0.20158075
239	0xbdf1c694	-0.11805454
240	0xbf501d86	-0.8129505
241	0xbd2d278c	-0.042274043
242	0x3ffeeb63	1.9915584
243	0xbece4b3c	-0.40291774
244	0xbebd7578	-0.37003684
245	0xbf925418	-1.1431913
246	0x3ec7f3c1	0.39053157
247	0xbf7f28cf	-0.99671644
248	0xbef71e75	-0.48265424
249	0x3f0d2e37	0.55148643
250	0xbe9ad6e7	-0.30242082
251	0x3ef6f15c	0.48231018
252	0x3f8f8d56	1.1215007
253	0x3eb1eb0a	0.34749633
254	0x3e9d840a	0.307648
255	0x3f02725d	0.50955755

encoder.blks.block0.attention.W_k.weight f4 [32, 32]
0	0x3e21894e	0.15775034
1	0xbdd5622e	-0.10419117
2	0xbdaa4af9	-0.08315081
3	0xbe8813e8	-0.26577687
4	0xbedcd804	-0.43133557
5	0xbe9853ee	-0.29751533
6	0xbeb155e1	-0.34635833
7	0xbefed417	-0.49771187
8	0x3dba7f8b	0.09106358
9	0xbe35bf11	-0.17748667
10	0xbe1db4a8	-0.15400946
11	0xbe898180	-0.26856613
12	0x3ef51221	0.47865394
13	0x3e7b610e	0.24548742
14	0xbe3980ac	-0.1811549
15	0xbdf29932	-0.11845626
16	0xbeba73b2	-0.36416394
17	0x3e42fb83	0.19041257
18	0x3e0b83f5	0.13624556
19	0xbec1e35b	-0.3786877
20	0x3e49429c	0.19654316
21	0xbe072cb9	-0.13200654
22	0xbe83b973	-0.25727424
23	0x3d8b4f8b	0.06802281
24	0x3f04c2eb	0.5185992
25	0x3d9badbf	0.07601499
26	0x3db4aebb	0.0882239
27	0x3e40c378	0.18824565
28	0x3d1fa9a0	0.038980126
29	0x3e43fba5	0.19138964
30	0xbe42a6c3	-0.19008927
31	0xbf03af5a	-0.5143944
32	0x3e18f159	0.14935817
33	0x3eaf1dac	0.34202325
34	0x3e903bcf	0.2817063
35	0x3e222992	0.1583617
36	0x3ecd4f66	0.4009964
37	0xbe0e0a11	-0.13871028
38	0x3ef8f581	0.48624805
39	0x3db32516	0.08747308
40	0x3e5a8e15	0.21343262
41	0x3e1ace87	0.15117846
42	0x3dd70f66	0.10500984
43	0x3d20dbcc	0.039272115
44	0x3ee0c3bd	0.43899336
45	0x3e692b32	0.22770384
46	0xbe6b0b14	-0.22953445
47	0x3dd485fc	0.10377118
48	0x3f48a8d2	0.783826
49	0xbe1bc4a4	-0.15211731
50	0xbdeba622	-0.11506297
51	0x3e00172c	0.1250884
52	0xbd8c3753	-0.0684649
53	0x3e0324a6	0.12806949
54	0xbec1e065	-0.37866512
55	0x3eb4271b	0.35186085
56	0xbe8619a4	-0.26191437
57	0xbd6cafb9	-0.05778477
58	0xbe63fcef	-0.22264455
59	0xbe26f4c8	-0.16304314
60	0x3d70e8be	0.05881571
61	0x3f194293	0.5986721
62	0xbedf8a1d	-0.4366006
63	0xbb4e355a	-0.0031464905
64	0xbe2a8c24	-0.16655022
65	0xbdf3a3c0	-0.11896467
66	0x3e2b5574	0.16731817
67	0x3e2d5e8f	0.16930602
68	0xbda74655	-0.08167712
69	0x3e298466	0.16554412
70	0xbe3083a1	-0.17237712
71	0x3e70610e	0.23474523
72	0x3e2d751d	0.16939206
73	0xbe8ffd12	-0.28122765
74	0xbe5b54cd	-0.21419068
75	0x3c6765e9	0.014123418
76	0xbd7a6e65	-0.061140437
77	0xbeef572a	-0.46746188
78	0xbe4d1033	-0.20025711
79	0xbe4475a9	-0.19185509
80	0x3e85a91a	0.26105577
81	0xbee57b50	-0.44820642
82	0xbe6d1e71	-0.23156144
83	0x3f225dbe	0.6342429
84	0xbd8712e4	-0.065954
85	0xbdd192b9	-0.10233063
86	0xbe7a00e7	-0.24414407
87	0x3d565662	0.052328475
88	0x3c913ef8	0.017730221
89	0xbe8b8c1e	-0.27255338
90	0x3b1eeef7	0.002425132
91	0xbd0dd6a7	-0.034628537
92	0x3ea3d765	0.3200027
93	0xbe4a70a3	-0.1976953
94	0xbd854cab	-0.06508764
95	0x3c32cf42	0.010913672
96	0x3ee93670	0.45549345
97	0xbe3d7d72	-0.18504885
98	0xbd1101a7	-0.035401966
99	0xbe8f4c2d	-0.27987805
100	0xbe68ad3e	-0.22722337
101	0xbea8148a	-0.3282817
102	0xbd9cc02a	-0.0765384
103	0xbe53fcb8	-0.20701873
104	0x3e5d442c	0.21608037
105	0xbd605555	-0.05476888
106	0xbedf2ef1	-0.435905
107	0xbeb77a04	-0.35835278
108	0x3ebfbbdc	0.37448013
109	0x3e19e186	0.15027437
110	0xbee22483	-0.4416848
111	0xbe2263ea	-0.15858427
112	0xbebfaab7	-0.37434933
113	0xbedce2ec	-0.43141878
114	0xbeecf116	-0.46277684
115	0xbd4a473d	-0.049384344
116	0xbe86acd0	-0.2630372
117	0xbd6b3cc4	-0.057430997
118	0xbda11e86	-0.0786715
119	0xbe38a590	-0.18031907
120	0x3f2f311c	0.6843431
121	0xbe69e69d	-0.22841878
122	0x3e7d869b	0.24758379
123	0xbc460035	-0.01208501
124	0xbdd49049	-0.10379083
125	0xbe63c9f0	-0.22245002
126	0xbd871300	-0.06595421
127	0x3a00ee8d	0.00049183593
128	0x3d654784	0.055976406
129	0x3e56e464	0.20985562
130	0xbca2e05b	-0.019882372
131	0x3d8e514f	0.06949102
132	0x3eb01732	0.34392697
133	0xbebbe51b	-0.3669823
134	0x3ebecc0d	0.37265053
135	0x3d416cd7	0.04722294
136	0xbefe60e4	-0.49683297
137	0x3da3fb35	0.08006898
138	0x3e2fc5d4	0.17165309
139	0xbedd137b	-0.43178925
140	0x3e0ede6e	0.13952038
141	0xbe5830d4	-0.21112376
142	0xbe8f6d7d	-0.2801322
143	0xbe4b5910	-0.19858193
144	0x3f3027a2	0.68810475
145	0x3e767730	0.24068904
146	0xbe86020d	-0.2617344
147	0x3e352c09	0.1769258
148	0xbd67c545	-0.056584615
149	0xbe9a0ecd	-0.30089417
150	0x3e47aedb	0.19500296
151	0xbe12e929	-0.14346756
152	0xbe64a57c	-0.22328752
153	0x3e3babb2	0.18327215
154	0xbd94f6fd	-0.07273672
155	0xbe4fe8c9	-0.20303644
156	0x3e1662e8	0.14686167
157	0xbe9594e7	-0.29215166
158	0xbe666cd2	-0.22502449
159	0xbf2242d0	-0.633832
160	0x3f07384c	0.5282028
161	0x3e05ef3f	0.13079546
162	0x3de33764	0.11094549
163	0x3e4ea274	0.20179158
164	0xbdce30aa	-0.10067876
165	0xbe49b3d2	-0.19697502
166	0x3f2c1463	0.6721861
167	0x3d23b0f9	0.039963696
168	0xbe32a7c4	-0.1744681
169	0x3db8e1e8	0.09027463
170	0xbe0bd0a6	-0.13653812
171	0xbb5e801d	-0.0033950873
172	0xbe761c64	-0.24034268
173	0xbe14c222	-0.14527181
174	0x3cd1a42c	0.025590979
175	0x3e3527a1	0.17690898
176	0x3f08c5ec	0.53427005
177	0x3da29fda	0.079406455
178	0x3df56ed2	0.11984028
179	0x3ede8df9	0.43467692
180	0x3cecf120	0.028923571
181	0xbe798c37	-0.24369894
182	0xbe0d811a	-0.1381878
183	0x3f1314a0	0.57453346
184	0xbecffa00	-0.40620422
185	0x3e8e91d1	0.27845624
186	0xbedd2c70	-0.43197966
187	0x3d8f3b5b	0.06993743
188	0xbdaac0bd	-0.08337543
189	0xbedc1f95	-0.42992845
190	0xbe9c0e5d	-0.30479708
191	0xbe42587b	-0.18979065
192	0x3c68ee29	0.014216938
193	0x3e71fb69	0.23631062
194	0xbebff01b	-0.37487873
195	0x3dc03bee	0.09386431
196	0xbeb0cb5e	-0.34530157
197	0xbe595285	-0.21222885
198	0x3de1f893	0.1103374
199	0x3e550253	0.20801668
200	0x3ebdbcc2	0.37058073
201	0xbe283c75	-0.16429313
202	0x3da8a492	0.08234514
203	0xbe77b275	-0.2418917
204	0x3cb3b41a	0.021936465
205	0xbe8c4d4d	-0.27402726
206	0x3e1c7ddf	0.15282391
207	0xbeba92ad	-0.3644003
208	0x3e6c3f44	0.23071009
209	0x3edb945f	0.42886636
210	0xbe4911ed	-0.19635744
211	0x3e1437ac	0.14474362
212	0xbe9e6560	-0.30936718
213	0xbd3ae414	-0.04562767
214	0x3ea8c5f7	0.32963535
215	0xbe06c803	-0.13162236
216	0x3db36071	0.08758629
217	0xbe029bc7	-0.12754737
218	0xbe3f14c5	-0.18660267
219	0x3d7ef606	0.062246345
220	0xbe87cb53	-0.26522312
221	0xbe45ab32	-0.19303587
222	0x3e8c4b8d	0.2740139
223	0xbe8e7cbd	-0.27829543
224	0x3ccf45c7	0.025301827
225	0x3da1d49d	0.07901881
226	0x3ec5747a	0.38565427
227	0xbdc31e44	-0.09527257
228	0x3ef738f7	0.48285648
229	0x3d82dcc0	0.06389761
230	0x3e41a237	0.18909536
231	0x3e9c5565	0.305339
232	0x3cde7e20	0.02715975
233	0x3d4f81ab	0.05066077
234	0xbc56771d	-0.013089922
235	0x3f10985b	0.56482476
236	0xbdca1daa	-0.09868939
237	0x3e01f891	0.12692477
238	0xbcd70907	-0.026249422
239	0xbe359de6	-0.17736015
240	0x3e359dd8	0.17735994
241	0xbcd306a3	-0.02576
242	0xbccef7d0	-0.02526465
243	0x3d83fd20	0.06444764
244	0xbe5a26b8	-0.21303833
245	0x3d9ff7ae	0.07810913
246	0xbec35324	-0.3814937
247	0x3d01794c	0.03160982
248	0xbed3a0de	-0.4133367
249	0xbeb97edf	-0.36229607
250	0xbe769118	-0.24078786
251	0xbea7459d	-0.32670298
252	0x3e0e008e	0.13867399
253	0x3d9e8544	0.07740262
254	0x3e57c552	0.21071365
255	0xbb2fa746	-0.0026802584

encoder.blks.block0.attention.W_q.weight f4 [32, 32]
0	0x3ebcbf37	0.36864635
1	0x3e565343	0.209302
2	0xbe536d15	-0.2064708
3	0x3d97fe8e	0.07421599
4	0xbe0ce25e	-0.13758227
5	0xbe3ff620	-0.18746233
6	0xbd8b76c8	-0.06809765
7	0xbe07117e	-0.13190266
8	0x3e7a8b00	0.24467087
9	0x3d532a58	0.051554054
10	0xbefa5ec3	-0.48900422
11	0xbe3fc68c	-0.18728083
12	0xbe4eecc0	-0.202075
13	0xbc26a170	-0.010170326
14	0x3d903e3a	0.07043119
15	0xbef5a2d0	-0.4797578
16	0x3db532ab	0.08847555
17	0xbe3014f4	-0.17195493
18	0x3e8ec202	0.2788239
19	0x3e5a9067	0.21344148
20	0x3e8168ae	0.25275177
21	0xbeb62205	-0.3557283
22	0x3f4df054	0.80444837
23	0xbec9ba9c	-0.39400184
24	0xbd4b819f	-0.049684163
25	0x3d5d80e8	0.054078013
26	0xbec38240	-0.3818531
27	0xbd138091	-0.036011282
28	0xbe58280a	-0.21109024
29	0x3d48d34a	0.049029626
30	0x3ba52faf	0.0050410847
31	0xbf26cc8c	-0.65155864
32	0x3e3a2ce0	0.18181181
33	0xbe50eb4b	-0.20402257
34	0xbdffbeba	-0.1248755
35	0x3d1bb6ae	0.038016014
36	0x3b920c65	0.004457044
37	0x3db89874	0.09013453
38	0xbc549cac	-0.012976807
39	0x3f2acefb	0.6672208
40	0x3f1d591e	0.6146411
41	0x3eff4377	0.4985616
42	0x3e4076bb	0.18795292
43	0xbe93eb3e	-0.28890413
44	0x3d5adc9f	0.053433057
45	0x3f109504	0.5647738
46	0x3e6e277e	0.23257253
47	0x3dcd96eb	0.10038551
48	0xbe991c74	-0.2990452
49	0x3d1276ab	0.0357577
50	0xbcf69936	-0.030102354
51	0xbe0d118a	-0.13776222
52	0x3e4f9102	0.2027016
53	0x3e4ea584	0.20180327
54	0xbdeb0a5f	-0.114765875
55	0xbea13352	-0.31484467
56	0xbea92783	-0.33037958
57	0xbda60222	-0.081058756
58	0x3bbc00fd	0.0057374225
59	0xbda81591	-0.082072385
60	0xbe91084b	-0.2832664
61	0xbe9451c1	-0.28968623
62	0x3e1947d7	0.14968811
63	0x3e96726e	0.29384178
64	0xbed14652	-0.40873963
65	0xbd41592a	-0.047204174
66	0x3df04a91	0.117329724
67	0x3b57ee29	0.003294835
68	0x3e54df3f	0.20788287
69	0xbe5d060b	-0.21584336
70	0xbda126bf	-0.07868718
71	0x3e4cbf1b	0.19994776
72	0xbecfbb61	-0.40572646
73	0xbdb70e48	-0.08938271
74	0xbe48eb7a	-0.19621077
75	0x3c849283	0.016183143
76	0x3e9133f5	0.28359953
77	0x3eacbd04	0.33737957
78	0x3e77d7a9	0.24203362
79	0xbe902e59	-0.2816036
80	0x3d1128ff	0.035439488
81	0x3e77d28f	0.24201415
82	0xbd672349	-0.056430135
83	0xbeb7b85d	-0.35882846
84	0x3d8ac0f7	0.067750864
85	0x3dfa82ad	0.12231956
86	0xbdc979af	-0.098376624
87	0xbe8109a4	-0.25202668
88	0xbe2365cc	-0.15956801
89	0xbeaafc27	-0.33395502
90	0x3e690aeb	0.22758071
91	0x3e532935	0.20621188
92	0x3d838522	0.064218774
93	0xbd81752a	-0.063211754
94	0xbc605a34	-0.013693381
95	0x3dbb42a8	0.09143573
96	0xbdf43615	-0.11924378
97	0x3e50601b	0.20349161
98	0xbe5c9693	-0.21541815
99	0xbe441925	-0.19150217
100	0xbcfefd9d	-0.031126792
101	0xbd03df0e	-0.032195143
102	0x3edcae25	0.43101612
103	0x3d32ba90	0.04363495
104	0xbdbcf1e4	-0.092258245
105	0xbe9d1184	-0.30677426
106	0x3d0ae0a8	0.033905655
107	0xbef6a915	-0.48175874
108	0x3ce8761e	0.028376635
109	0x3e65cdf0	0.2244184
110	0xbdb9c8ae	-0.0907148
111	0xbf28f817	-0.66003555
112	0x3d9e2d8c	0.07723531
113	0x3d49830c	0.04919724
114	0x3e440ce6	0.19145545
115	0x3dc6470f	0.09681522
116	0x3eab7641	0.33488658
117	0x3dca7971	0.09886444
118	0x3ec993c0	0.39370537
119	0xbe0b1103	-0.13580708
120	0xbd8dc818	-0.069229305
121	0xbe1754e3	-0.14778475
122	0x3eb05dcb	0.34446558
123	0xbd66bfe6	-0.056335352
124	0xbea0f51b	-0.31437
125	0x3e497cfe	0.19676587
126	0x3e9ca172	0.30591923
127	0xbf2ffba8	-0.6874337
128	0x3e74970b	0.23885743
129	0xbd67bbee	-0.056575708
130	0x3e8b5390	0.2721219
131	0x3e36112c	0.17779988
132	0xbe5746dc	-0.21023124
133	0x3f01c9a6	0.50698316
134	0xbdae85ba	-0.085216
135	0x3e25d705	0.16195305
136	0x3d3ad146	0.045609735
137	0x3e3f810f	0.18701576
138	0xbee6cf56	-0.4508006
139	0xbe2e732a	-0.17036119
140	0x3cae5714	0.021281756
141	0x3f842261	1.0322992
142	0xbd18bf06	-0.03729155
143	0xbde35ff0	-0.11102283
144	0x3e7eb4f3	0.24873714
145	0xbdf98c23	-0.12184932
146	0xbdc8a495	-0.097970165
147	0xbc91cf4c	-0.017799042
148	0xbd30e68d	-0.04318862
149	0xbc8d85a3	-0.017275637
150	0xbe31f397	-0.17378078
151	0xbf31623c	-0.6929052
152	0x3e8481b4	0.25880206
153	0x3ec1840d	0.3779606
154	0x3e9cbe9e	0.3061418
155	0xbd165a86	-0.036707424
156	0x3ec4e1de	0.38453573
157	0x3e9d9177	0.30775043
158	0x3e22f4cd	0.15913697
159	0x3d929824	0.07157925
160	0x3ec0f8c9	0.37689808
161	0xbeab6577	-0.3347585
162	0xbe52901d	-0.20562787
163	0x3f100e4b	0.5627181
164	0xbe6ba233	-0.23011093
165	0x3e6623d5	0.22474606
166	0xbd02bf86	-0.031920932
167	0x3e412d8e	0.18865034
168	0x3ccd9709	0.025096433
169	0x3d756aed	0.059916425
170	0xbda403e1	-0.08008552
171	0x3da88f5b	0.08230468
172	0xbe92225e	-0.28541845
173	0x3f24918f	0.64284605
174	0x3ca0c21c	0.019623809
175	0x3f054a7a	0.5206677
176	0x3eaae545	0.33378044
177	0x3bb72e4f	0.005590237
178	0x3e09c049	0.13452257
179	0xbeac0600	-0.33598328
180	0x3e75ed8f	0.24016403
181	0xbbd59881	-0.006518424
182	0x3e29b4ce	0.16572878
183	0xbd0c221f	-0.034212228
184	0xbd541ce9	-0.051785383
185	0xbe21e2ff	-0.15809248
186	0x3ea6a6ce	0.32549137
187	0xbdd5f2e9	-0.10446722
188	0x3dda550d	0.106607534
189	0x3eae4379	0.34035853
190	0xbe4d0a84	-0.20023543
191	0x3f0be04c	0.54639125
192	0xbe44b262	-0.19208673
193	0x3da59101	0.08084298
194	0x3dd74974	0.10512057
195	0xbe0f89c3	-0.14017396
196	0x3e596557	0.21230064
197	0x3cbf9ff7	0.023391707
198	0xbe04925a	-0.12946454
199	0xbe8e3844	-0.27777302
200	0x3d9356a6	0.07194261
201	0x3e538cc1	0.20659162
202	0xbd9b9622	-0.07596995
203	0xbda1d2c6	-0.0790153
204	0x3dc1c4f5	0.09461395
205	0x3e32c5a2	0.17458203
206	0xbdfec41d	-0.124397494
207	0x3e47c400	0.19508362
208	0x3e11bce2	0.1423221
209	0xbeb01ce5	-0.34397045
210	0x3e828012	0.25488335
211	0xbd44ac98	-0.04801616
212	0x3ea3cf57	0.31994125
213	0x3dbfd595	0.093669094
214	0x3e02845c	0.12745804
215	0x3d940c84	0.0722895
216	0xbdd94e2a	-0.10610612
217	0x3dd34ace	0.10317002
218	0x3e55cd11	0.20879008
219	0xbdaf1301	-0.085485466
220	0x3e661083	0.22467236
221	0x3e5ac27a	0.2136325
222	0x3eb6394e	0.35590595
223	0xbdcfbffb	-0.10144039
224	0xbe2ea543	-0.1705523
225	0xbed1a883	-0.40948877
226	0x3e80d5a6	0.25163
227	0xbe95e42b	-0.2927564
228	0x3e25eea8	0.16204321
229	0x3eb30026	0.3496105
230	0xbe4da00a	-0.20080581
231	0x3ebebd09	0.37253597
232	0xbd55bcc4	-0.052181974
233	0x3e6180ec	0.22021836
234	0x3f035423	0.5130026
235	0x3e2705ea	0.1631085
236	0xbd8b5a30	-0.06804311
237	0x3e2f239f	0.17103432
238	0x3eb60dc1	0.35557368
239	0x3dc0bc32	0.094108954
240	0x3e0920db	0.1339144
241	0x3e906036	0.28198403
242	0xbe0a1621	-0.13485004
243	0x3e846693	0.25859508
244	0xbebad8ee	-0.3649363
245	0x3ed58e0f	0.41709945
246	0x3bdc6bc8	0.0067267157
247	0xbe51a3ab	-0.2047259
248	0xbe106b4e	-0.14103433
249	0xbe0a6c55	-0.13517888
250	0x3deb9a16	0.11503999
251	0xbe077a62	-0.13230279
252	0x3d9b2af6	0.075765535
253	0xbea84d16	-0.32871312
254	0x3dadb7c1	0.08482314
255	0x3e2d31e8	0.16913569

encoder.blks.block0.attention.W_v.weight f4 [32, 32]
0	0xbe0dcaf3	-0.1384695
1	0x3d50f4e3	0.051014792
2	0x3d3be3cc	0.04587154
3	0x3e924ce2	0.28574282
4	0xbc6ee563	-0.014581057
5	0x3da8077b	0.08204552
6	0xbe5858e0	-0.21127653
7	0xbe10ebbc	-0.14152426
8	0xbd78358b	-0.060597938
9	0xbe0af5de	-0.13570353
10	0xbe0dd3d5	-0.13850339
11	0x3d7e5836	0.062095843
12	0x3d241984	0.040063396
13	0xbb7cc687	-0.003857048
14	0x3ce1821b	0.02752786
15	0x3daf3e5c	0.08556816
16	0xbd8cbb8e	-0.06871711
17	0xbd42f7f6	-0.047599755
18	0xbeb482f9	-0.35256174
19	0xbdee107f	-0.1162424
20	0xbd1f1970	-0.03884262
21	0xbbb5870a	-0.0055397796
22	0x3ceb69cf	0.028736977
23	0xbc3ed4bf	-0.011647402
24	0xbb1ea452	-0.002420683
25	0xbd6b9d22	-0.0575229
26	0xbcc3c59f	-0.023897944
27	0x3dbf0ab4	0.09328213
28	0x3d5fe071	0.054657403
29	0xbd5da404	-0.054111496
30	0x3ea8fba4	0.33004487
31	0x3d2a3548	0.04155472
32	0xbcd724c2	-0.026262645
33	0xbe229fb0	-0.15881228
34	0x3dc65935	0.09684984
35	0x3e1ec707	0.1550561
36	0xbd572960	-0.052529693
37	0x3d955894	0.072922856
38	0xbd536df2	-0.051618524
39	0xbd8a76dd	-0.067609526
40	0x3da6a23a	0.08136411
41	0xbd9cf572	-0.076640025
42	0x3db00874	0.08595362
43	0x3de9e801	0.11421204
44	0xbde620fb	-0.11236759
45	0xbd8d29a6	-0.068927094
46	0x3be1074a	0.006867324
47	0xbd6c4f8b	-0.057693046
48	0x3dff0d46	0.124537036
49	0x3d5a052b	0.053227585
50	0xbe4c78b0	-0.19967914
51	0x3db58641	0.088634975
52	0xbe05a319	-0.13050498
53	0xbd952afd	-0.0728359
54	0x3e2a3d3e	0.16624925
55	0x3dbbafdc	0.09164402
56	0xbcedd75a	-0.029033352
57	0xbd8ef068	-0.069794476
58	0xbe5ea295	-0.21741708
59	0x3de95e89	0.11394984
60	0xbd6e7a83	-0.058222305
61	0xbda2b0c7	-0.07943874
62	0xbd8fecbf	-0.070275776
63	0xbdfd9940	-0.12382746
64	0xbe4112e4	-0.18854862
65	0xbcc9252b	-0.024553856
66	0xbe0c9b38	-0.13731086
67	0x3d6eb37a	0.05827663
68	0xbcd39661	-0.025828542
69	0x3d1b7386	0.03795197
70	0xbdd48e94	-0.10378757
71	0x3dfe0b13	0.12404456
72	0xbdc2a8c7	-0.09504848
73	0xbb52d6d2	-0.00321715
74	0x3d8445d3	0.064586304
75	0xbe1fd081	-0.15606882
76	0xbda336f6	-0.07969467
77	0x3de86097	0.11346548
78	0xbe429c9d	-0.19005056
79	0xbe2343c8	-0.15943825
80	0xbd3f21c4	-0.04666306
81	0xbdbaebbc	-0.09126994
82	0xbcc5ca43	-0.024144297
83	0xbd8f039c	-0.0698311
84	0xbc39e7d2	-0.011346774
85	0xbe0bcad7	-0.13651596
86	0xbe026942	-0.12735465
87	0x3e011d63	0.12608866
88	0x3d4fc1f5	0.05072208
89	0x3d7a0599	0.061040495
90	0x3e00e06a	0.12585607
91	0xbd066344	-0.03280951
92	0x3df03043	0.11727955
93	0xbe74f112	-0.23920086
94	0xbd394fa9	-0.045241985
95	0xbd3a7379	-0.04552028
96	0x3cc26878	0.023731455
97	0xbd6c5220	-0.057695508
98	0x3cd7908f	0.026314048
99	0xbe191c68	-0.14952242
100	0xbe18c950	-0.14920545
101	0x3d49b9c1	0.049249414
102	0xbe08972f	-0.13338922
103	0xbdcda4f2	-0.100412264
104	0x3d88f0fb	0.066865884
105	0x3e342acf	0.17594455
106	0x3d9cc9e4	0.07655695
107	0xbe9f35ab	-0.31095633
108	0xbe28c40e	-0.16481039
109	0x3dd2989d	0.10283015
110	0x3e309ea9	0.17248024
111	0x3ce29149	0.027657168
112	0x3e04bbb7	0.12962233
113	0x3d006fad	0.031356502
114	0x3cbc22ff	0.022965906
115	0xbd92cabc	-0.07167575
116	0xbe0c9e3f	-0.13732241
117	0x3d5f0d48	0.054456025
118	0xbe3c3a26	-0.18381557
119	0xbc48af8c	-0.012248885
120	0xbdc19aea	-0.09453376
121	0x3d3cf560	0.046132445
122	0x3d5c7e3d	0.053831328
123	0x3d8ac8f1	0.06776608
124	0xbcf5797e	-0.029965159
125	0x3b9d00b0	0.0047913417
126	0x3d9f9c73	0.07793512
127	0xbd6ee786	-0.058326267
128	0x3e26979a	0.16268769
129	0x3dcc8ae0	0.09987426
130	0x3dc5240e	0.096260175
131	0xbdee9b3d	-0.11650703
132	0x3d8e1591	0.06937707
133	0x3d6c121f	0.05763447
134	0xbc9a4e4c	-0.018836163
135	0xbe05a7fe	-0.13052365
136	0xbe908f7d	-0.28234473
137	0xbd32f9e4	-0.043695346
138	0x3c8c324e	0.01711383
139	0x3db186c0	0.0866828
140	0xbcca714b	-0.024712225
141	0x3e22a256	0.15882239
142	0x3dccda19	0.10002536
143	0x3bb78e13	0.0056016534
144	0x3d292340	0.041293383
145	0x3bd99c23	0.0066409274
146	0xbeab5ea6	-0.3347065
147	0x3d3889cc	0.04505329
148	0x3d7bfa87	0.06151822
149	0xbb9b10ff	-0.0047322507
150	0x3dc1283a	0.09431501
151	0xbe285b46	-0.16441068
152	0x3d8ccb7d	0.0687475
153	0xbdd2f8b4	-0.103013426
154	0x3daadbd2	0.08342709
155	0xbdcebeb9	-0.10094971
156	0x3d4b1535	0.04958077
157	0x3e32d4d7	0.17464004
158	0xbd021d97	-0.0317665
159	0xbd9db552	-0.077006
160	0x3e0c75d2	0.1371682
161	0xbd19901b	-0.037490945
162	0x3dfa555c	0.12223312
163	0xbe2180cb	-0.15771787
164	0x3e03624e	0.12830469
165	0x3d43b5b9	0.047780726
166	0xbd19da0c	-0.03756146
167	0x3dc16c4b	0.09444483
168	0xbe1a2d43	-0.15056328
169	0xbe91aaab	-0.28450522
170	0x3e4dc78c	0.20095652
171	0x3d4eeb68	0.05051747
172	0x3dcfbc55	0.10143343
173	0x3e0fd201	0.14044954
174	0x3d663f9c	0.056213006
175	0x3b754f4f	0.0037431305
176	0x3dc47082	0.09591772
177	0x3d1fa5af	0.038976368
178	0x3d1bd1fc	0.038042054
179	0xbcca2523	-0.024675911
180	0xbe32ba7f	-0.17453955
181	0xbd76e606	-0.06027796
182	0xbe166fa6	-0.14691028
183	0xbb5f5ba3	-0.003408172
184	0x3ba0ada2	0.004903511
185	0x3ca981b8	0.020691738
186	0x3d2c9b8f	0.04214054
187	0x3c0810e5	0.008304809
188	0x3d347534	0.044057086
189	0xbd9db9f2	-0.07701482
190	0xbe2dc002	-0.16967776
191	0xbd8849d5	-0.06654707
192	0xbdae7143	-0.08517697
193	0x3d1ad09b	0.037796598
194	0xbdbba020	-0.09161401
195	0x3c8da6b9	0.017291414
196	0xbba4ed9a	-0.005033207
197	0x3c9d942a	0.01923569
198	0x3e34939c	0.17634434
199	0xbdc6e780	-0.09712124
200	0xbe0e855c	-0.1391806
201	0x3d11c4fc	0.03558825
202	0x3b28695e	0.002569757
203	0xbe2931d2	-0.16522911
204	0xbdef6c9b	-0.11690637
205	0x3d49e725	0.049292702
206	0x3c139661	0.009008021
207	0x3d52e113	0.05148418
208	0x3ce2a65d	0.027667219
209	0xbd6e350a	-0.05815605
210	0x3db9a02a	0.09063752
211	0xbd825c71	-0.06365288
212	0xbdb6c315	-0.08923928
213	0x3d13dc32	0.036098666
214	0xbe038688	-0.12844288
215	0x3dbddeca	0.09271009
216	0x3c653280	0.013989091
217	0xbcd91410	-0.026498824
218	0xbe1e40cb	-0.15454404
219	0xbd56370f	-0.0522986
220	0xbcf9df54	-0.030501999
221	0x3deb4235	0.11487237
222	0xbe247df2	-0.1606367
223	0xbdaf587b	-0.08561798
224	0xbc95409b	-0.018219283
225	0x3d6250ab	0.055252712
226	0x3ddc32bd	0.10751865
227	0x3e66a70a	0.22524658
228	0x3d685177	0.056718316
229	0x3cc0bde6	0.02352805
230	0xbdceb540	-0.100931644
231	0x3e23c115	0.15991624
232	0xbc2742ed	-0.010208827
233	0xbe02b6e1	-0.12765075
234	0xbd1cbb67	-0.03826466
235	0xbd95bffe	-0.0731201
236	0xbd78567f	-0.060629364
237	0xbe11d2e6	-0.14240608
238	0x3db7fa1b	0.08983251
239	0x3c81faad	0.015866602
240	0xbc8291e1	-0.015938701
241	0x3d7e0660	0.0620178
242	0x3d89c26f	0.067265384
243	0x3d479821	0.048729066
244	0x3d85d744	0.06535199
245	0xbcf391c5	-0.029732594
246	0x3da2c095	0.07946888
247	0xbdb56f08	-0.08859068
248	0x3ce59061	0.028022947
249	0x3de79541	0.11307765
250	0xbe44235e	-0.19154117
251	0xbe8e5790	-0.2780118
252	0x3d0e299e	0.034707658
253	0xbdade0b4	-0.08490124
254	0x3bb9766c	0.005659869
255	0xbdac6404	-0.08417514

encoder.blks.block0.attention.W_o.weight f4 [32, 32]
0	0x3db6cbec	0.08925614
1	0xbe0e2ebd	-0.13885017
2	0xbdef3ad7	-0.11681145
3	0x3e0411bb	0.12897389
4	0x3db026d6	0.08601157
5	0xbe16e615	-0.14736207
6	0x3c20086e	0.009767635
7	0xbda99f3c	-0.08282325
8	0xbe25f54e	-0.16206858
9	0xbdd27be3	-0.10277536
10	0x3d505eb5	0.05087157
11	0x3cac080c	0.02099993
12	0x3c6eae51	0.014567927
13	0x3e6f69c0	0.23380184
14	0xbdb149cd	-0.086566545
15	0xbdd44389	-0.10364444
16	0xbd83fca8	-0.06444675
17	0x3d4183f3	0.047244977
18	0x3e5f280a	0.21792617
19	0x3d9f6b8a	0.07784183
20	0x3d597be5	0.05309667
21	0xbdfb8d1a	-0.12282772
22	0xbdd5fd20	-0.104486704
23	0x3d08bfea	0.03338615
24	0x3bac4a1f	0.0052578594
25	0xbdbfefa3	-0.09371879
26	0xbd0c309a	-0.034226038
27	0xbe1aa335	-0.15101321
28	0x3d2df8b8	0.042473525
29	0xbd9890d4	-0.07449499
30	0x3e2a7be1	0.16648819
31	0x3d80ec7f	0.06295108
32	0x3dc14580	0.09437084
33	0xbd55d5b1	-0.052205745
34	0x3e0d9e90	0.13830018
35	0x3dd994b8	0.10624069
36	0x3cec32f8	0.028832898
37	0xbd6a2e03	-0.057172786
38	0xb90758db	-0.00012907705
39	0x3d899ec2	0.06719734
40	0x3dd75607	0.10514455
41	0x3e494ae3	0.19657473
42	0x3db3d725	0.0878127
43	0xbc471f2d	-0.012153429
44	0xbe0cb9fd	-0.13742824
45	0xbd328a61	-0.043589
46	0xbd7fdd75	-0.062467057
47	0x3c9ebaae	0.019376125
48	0xbe1f1d93	-0.15538625
49	0x3e241428	0.16023314
50	0xbda6220b	-0.08111962
51	0x3da0d1cb	0.07852515
52	0x3e1c571a	0.15267602
53	0x3b05e004	0.0020427713
54	0xbdfa4fef	-0.122222774
55	0x3d15bb1d	0.0365554
56	0xbe14ada9	-0.14519371
57	0x3cc58642	0.02411187
58	0xbcc39f70	-0.023879737
59	0xbce373be	-0.027765151
60	0xbc001e68	-0.007819749
61	0x3db36b9f	0.087607615
62	0xbcb5b11b	-0.022179177
63	0x3e2c29b0	0.16812778
64	0xbcabfccc	-0.020994566
65	0x3b58dc25	0.00330902
66	0xbd6b52df	-0.05745208
67	0x3dc44b62	0.09584691
68	0xbc64b7d1	-0.013959841
69	0xbe040fc5	-0.1289664
70	0x3e626515	0.22108872
71	0xbd518ff5	-0.05116268
72	0x3de5fd64	0.11229971
73	0xbde9ffec	-0.11425766
74	0xbdcf2840	-0.10115099
75	0x3d832dca	0.06405218
76	0x3c10d561	0.008839936
77	0x3d87ac1c	0.06624624
78	0xbcb0243c	-0.021501653
79	0x3d97624c	0.073917955
80	0x3da2cefc	0.079496354
81	0x3de77b6d	0.113028385
82	0x3c651c6b	0.013983826
83	0xbd86a315	-0.06574074
84	0x3cae5848	0.02128233
85	0xbda47285	-0.08029655
86	0x3df30955	0.11867014
87	0x3d5baa4d	0.05362921
88	0xbdcbbbdb	-0.0994794
89	0x3e007b8f	0.12547134
90	0xbdeed580	-0.11661816
91	0xbe5f1f0d	-0.21789189
92	0x3e1813e6	0.1485134
93	0x3d472347	0.048617627
94	0x3db2bcdc	0.08727428
95	0xbdedac55	-0.11605135
96	0x3ceaac6f	0.028646676
97	0xbce8671e	-0.028369483
98	0x3d9801d6	0.07422225
99	0x3de11fa5	0.10992364
100	0xbdd41cff	-0.10357093
101	0x3e098706	0.13430414
102	0x3e161d53	0.14659624
103	0x3d5c2ea8	0.053755432
104	0xbc7c5c1e	-0.015402822
105	0x3daf1222	0.085483804
106	0x3e1c8bc8	0.15287697
107	0x3d83c261	0.06433559
108	0x3d6a6d66	0.057233237
109	0xbe2092da	-0.1568102
110	0x3a852aba	0.0010159828
111	0x3cf370c8	0.029716864
112	0xbbb9dd85	-0.005672159
113	0x3da37d27	0.07982855
114	0x3e1c8829	0.15286316
115	0xbc709bb1	-0.014685557
116	0xbd894816	-0.067032024
117	0x3d12e589	0.035863433
118	0x3c9e80ea	0.01934858
119	0x3c6c70af	0.014431163
120	0x3d29cbe4	0.04145421
121	0x3c534f4d	0.012897325
122	0xbdb65463	-0.08902814
123	0x3e1e590d	0.15463658
124	0x3d348fb9	0.044082377
125	0xbd68c840	-0.0568316
126	0xbdaa0e88	-0.08303553
127	0xbd6fad61	-0.058514956
128	0xbdc7e70d	-0.09760866
129	0xbe4d39d6	-0.20041594
130	0xbe3950db	-0.1809725
131	0x3cce3eb0	0.025176376
132	0x3ba44d58	0.005014103
133	0x3da6c128	0.081423104
134	0x3c5eb3e8	0.013592698
135	0x3dbca65b	0.09211417
136	0xbe412158	-0.18860376
137	0x3dceb478	0.100930154
138	0x3cb05b74	0.021527983
139	0x3e0f1cbf	0.1397581
140	0x3d717d11	0.058957163
141	0xbdce9061	-0.10086132
142	0x3d7f7b0e	0.062373213
143	0xbd966826	-0.073440835
144	0xbce84783	-0.028354412
145	0xbdb96a68	-0.090534985
146	0xbd58c7e0	-0.05292499
147	0xbd70983d	-0.058738936
148	0x3c44338a	0.0119751785
149	0x3e04b0fe	0.12958142
150	0xbd00c1e3	-0.031434905
151	0x3d9c54fa	0.076333955
152	0x3e51ebde	0.20500132
153	0x3c2ac8ff	0.010423898
154	0x3ddffd39	0.1093697
155	0xbd735781	-0.059409622
156	0xbdb45785	-0.088057555
157	0x3d8cea1b	0.068805896
158	0xbdd46942	-0.10371639
159	0x3d42760b	0.047475856
160	0x3cf0eb40	0.029409051
161	0x3da6a98a	0.08137806
162	0x3d81e90e	0.0634328
163	0x3de6d857	0.11271732
164	0xbcdcc3d6	-0.02694885
165	0x3deeb22d	0.11655078
166	0x3e1d48fa	0.1535987
167	0x3d862a30	0.065510154
168	0xbd8967c1	-0.067092426
169	0xbac6b122	-0.0015158991
170	0x3d0221a8	0.03177038
171	0xbd7b03d4	-0.061282948
172	0xbe205943	-0.1565905
173	0xbdb87809	-0.0900727
174	0xbe15ae99	-0.14617385
175	0x3db03688	0.08604151
176	0xbd1503f7	-0.036380734
177	0xbdbea23e	-0.09308289
178	0xbe14e518	-0.14540517
179	0xbdbcedd6	-0.09225051
180	0x3debe1b7	0.11517661
181	0xbd86e218	-0.06586093
182	0xbc3721cf	-0.011177494
183	0xbdec5c67	-0.11541062
184	0xbbb9e7f6	-0.005673404
185	0xbdf8abd5	-0.12142149
186	0x3d33279d	0.04373895
187	0xbce18624	-0.027529784
188	0xbddc9575	-0.10770694
189	0xbc9d7e94	-0.019225396
190	0x3cb8e19f	0.022568522
191	0xbdf905c6	-0.12159304
192	0xbb07a09e	-0.00206951
193	0x3d626b78	0.05527827
194	0xbcfcedd9	-0.030875133
195	0x3d9f7271	0.077855
196	0xbd90b7ac	-0.07066283
197	0x3d9e6ca5	0.07735566
198	0xbd955855	-0.072922386
199	0x3d7456e0	0.059653163
200	0xbc631567	-0.013860083
201	0x3d467173	0.048448037
202	0xbc0ec523	-0.008713993
203	0xbc0fbbdf	-0.008772819
204	0x3c49cd6b	0.012317042
205	0xbd528282	-0.051393993
206	0x3c99e4f5	0.018785933
207	0x3cad5012	0.021156345
208	0xbd579661	-0.052633647
209	0x3dbd9492	0.09256853
210	0x3d900923	0.07032993
211	0xbc38e668	-0.011285402
212	0x3bd6a194	0.0065500233
213	0x3df68b24	0.12038258
214	0x3d3415a4	0.04396595
215	0xbd39d8a9	-0.04537264
216	0x3d0c5718	0.034262747
217	0xbcb92b4a	-0.02260365
218	0x3b80e6de	0.0039337715
219	0x3d9fc2f1	0.07800854
220	0x3d45e245	0.04831149
221	0xbc5e4fd2	-0.013568835
222	0xbd13ca4d	-0.0360816
223	0x3ea3a10f	0.31958815
224	0x3c25aee0	0.010112494
225	0x3ba6ac23	0.0050864383
226	0xbd43fecf	-0.047850426
227	0xbcb0cbf7	-0.021581633
228	0x3e158e1c	0.14604992
229	0x3e38998f	0.18027328
230	0xbe151f19	-0.14562644
231	0xbd476983	-0.04868461
232	0x3cae026b	0.021241387
233	0xbdb46858	-0.088089645
234	0xbe2af056	-0.16693243
235	0xbdd12a09	-0.10213096
236	0xbe2dd3a6	-0.16975269
237	0xbe5a3e9d	-0.21312948
238	0xbd79e937	-0.061013427
239	0x3ca1e286	0.019761335
240	0xbe0cced8	-0.1375078
241	0x3e00976e	0.12557766
242	0xbcf3b1ef	-0.029747931
243	0x3cfd86f1	0.030948134
244	0x3d291c09	0.041286502
245	0xbddbd618	-0.107341945
246	0x3e020244	0.12696177
247	0xbae2acb6	-0.0017293904
248	0xbc1ad4e2	-0.009450169
249	0x3dd09c20	0.101860285
250	0xbdcfa0d8	-0.101381004
251	0xbe315c5b	-0.17320387
252	0xbe3074d5	-0.17232068
253	0xbdc5d62a	-0.09659989
254	0x3c9720f7	0.018448336
255	0xbdfeecb0	-0.12447488

encoder.blks.block0.addnorm1.ln.weight f4 [32]
0	0x3f81a180	1.0127411
1	0x3f61ce4a	0.882054
2	0x3f80e711	1.0070516
3	0x3f917cdb	1.1366228
4	0x3f828d2f	1.0199336
5	0x3f7cdf60	0.98778343
6	0x3fa0693d	1.2532116
7	0x3f81aed0	1.0131474
8	0x3f8c8254	1.0977273
9	0x3f83927f	1.0279082
10	0x3f7cf124	0.9880545
11	0x3f6728f5	0.9029687
12	0x3f651bc3	0.89495486
13	0x3f885caa	1.0653279
14	0x3f7f8f68	0.99828196
15	0x3f6bab05	0.9205783
16	0x3f7747e8	0.96594095
17	0x3f8993da	1.0748246
18	0x3f487b89	0.783135
19	0x3f7676f5	0.96275264
20	0x3f684e54	0.9074452
21	0x3f8e3ace	1.1111696
22	0x3f96c7b3	1.1779693
23	0x3f7f1d39	0.99653965
24	0x3f74cf9d	0.9562929
25	0x3f877742	1.058327
26	0x3f5f338c	0.8718803
27	0x3f764b05	0.9620822
28	0x3f830ed8	1.0238905
29	0x3f65afbd	0.8972128
30	0x3f70bd00	0.9403839
31	0x3f75b2c0	0.95975876

encoder.blks.block0.addnorm1.ln.bias f4 [32]
0	0xbe455b84	-0.19273192
1	0x3e2217de	0.15829417
2	0xbd0d26bd	-0.03446077
3	0xbcc3a25e	-0.023881134
4	0xbe8e9e7d	-0.27855292
5	0x3dc5a3bf	0.09650373
6	0xbcc23188	-0.023705259
7	0xbde94ba0	-0.113913774
8	0xbe331949	-0.17490114
9	0x3f07b77c	0.5301435
10	0x3e6624ef	0.22475027
11	0xbe825edd	-0.25463
12	0x3db625ea	0.0889395
13	0x3e25539b	0.16145174
14	0xbed7f46b	-0.42178664
15	0x3eab04b0	0.33402014
16	0xbda832d0	-0.08212817
17	0x3d6255d4	0.055257633
18	0xbd9371aa	-0.07199414
19	0x3cb93537	0.022608383
20	0x3dfcc710	0.12342656
21	0x3df98954	0.121843964
22	0xbf18a06f	-0.596198
23	0xbed716f2	-0.42009693
24	0x3d61639f	0.055026647
25	0xbe1837c9	-0.1486503
26	0x3f2b2e36	0.6686739
27	0x3e20b6bc	0.15694708
28	0xbdc93eb0	-0.0982641
29	0x3cb62427	0.022234036
30	0xbd88bfa2	-0.06677176
31	0x3dd1e9d4	0.10249677

encoder.blks.block0.ffn.dense1.weight f4 [64, 32]
0	0xbcb67d96	-0.02227668
1	0xbe4337dd	-0.19064279
2	0xbcda8aec	-0.026677571
3	0xbdb7233d	-0.08942268
4	0x3e39db40	0.18150043
5	0xbeacce1c	-0.33751
6	0x3eb3f607	0.3514864
7	0xbe1ae8e3	-0.15127902
8	0x3d40d8a2	0.047081597
9	0xbc5667a8	-0.013086237
10	0xbe382a86	-0.17984971
11	0xbe170258	-0.14746988
12	0x3c9326d6	0.017962854
13	0xbee501ca	-0.44727927
14	0x3dcf26bc	0.1011481
15	0x3dbb639c	0.09149858
16	0x3f20a701	0.6275483
17	0xbd5e9cbd	-0.054348696
18	0x3eb46d8b	0.35239825
19	0xbda5d018	-0.08096331
20	0x3d01fe62	0.03173674
21	0xbee68165	-0.45020595
22	0x3ea3ab80	0.31966782
23	0x3efb7368	0.49111485
24	0x3d6f788f	0.058464583
25	0xbe7fe0f3	-0.24988155
26	0xbe8298a2	-0.25507075
27	0xbd1bf6b0	-0.038077056
28	0x3ead3346	0.3382818
29	0x3c49bfc6	0.012313789
30	0xbe15448d	-0.14576931
31	0xbeb9b4f1	-0.3627086
32	0x3e89665a	0.268359
33	0xbdfbff71	-0.12304581
34	0xbd9c81a5	-0.07641915
35	0x3cfc41ce	0.030793097
36	0x3ea86fd5	0.3289782
37	0x3dbf567d	0.09342668
38	0xbe3adcdc	-0.18248314
39	0xbe38c57e	-0.18044087
40	0xbea2d316	-0.3180167
41	0xbecfebfa	-0.40609723
42	0xbe33b46e	-0.17549297
43	0x3e2b1e91	0.16710879
44	0x3dd9bcac	0.106316894
45	0xbec1c002	-0.37841803
46	0x3c629e23	0.013831648
47	0xbd48d76a	-0.04903356
48	0x3e02bd75	0.12767585
49	0xbebfbcec	-0.37448823
50	0x3dad9162	0.08474995
51	0xbdc20d85	-0.09475235
52	0x3d20f7db	0.039298873
53	0xbe80a03a	-0.25122243
54	0x3f19cf27	0.60081714
55	0x3e200edb	0.15630667
56	0x3db1a565	0.08674125
57	0xbe489e96	-0.19591746
58	0xbe9fc8d2	-0.312079
59	0x3de3ae95	0.11117283
60	0x3ea62360	0.32448864
61	0x3e4a7ae9	0.19773449
62	0xbdd970ae	-0.10617195
63	0xbeabcfd4	-0.33556998
64	0x3e00f784	0.1259442
65	0xbe3863b3	-0.18006782
66	0xbe02cb0b	-0.12772767
67	0x3d6a6d30	0.057233036
68	0x3e99d878	0.30047965
69	0xbe22a60a	-0.15883651
70	0xbd21fc7d	-0.039547432
71	0x3de500b4	0.11181775
72	0x3db11208	0.08646017
73	0xbe6548bd	-0.22391029
74	0xbd130d0b	-0.03590111
75	0xbde84827	-0.11341887
76	0x3e87978f	0.26482818
77	0xbd927b17	-0.07152384
78	0x3ea1b989	0.31586865
79	0x3db4aa5a	0.088215545
80	0x3ec2c33a	0.3803957
81	0xbe1084e9	-0.14113201
82	0xbe3a3021	-0.18182422
83	0xbe4ceffa	-0.20013419
84	0xbdeed091	-0.11660875
85	0xbcfbce58	-0.03073804
86	0xbd222a3e	-0.039591067
87	0xbe04a558	-0.12953699
88	0x3e5b9b5a	0.2144598
89	0xbe783158	-0.24237573
90	0xbe991748	-0.29900575
91	0xbe45ae1d	-0.193047
92	0xbeb83229	-0.3597577
93	0x3e695672	0.22786883
94	0x3ea32509	0.31864193
95	0xbd492134	-0.04910393
96	0x3eb3cc7e	0.35116953
97	0x3dd1b947	0.10240417
98	0x3db4fd4f	0.08837377
99	0x3e559646	0.20858106
100	0xbd00c1cd	-0.031434823
101	0x3e0a745c	0.1352095
102	0x3ee7c3b8	0.4526651
103	0xbe55cb47	-0.20878325
104	0xbe1c24fb	-0.15248482
105	0xbe328d52	-0.17436722
106	0x3e85d21f	0.26136872
107	0x3dabea81	0.083943374
108	0xbd31deb4	-0.043425277
109	0x3e22d52f	0.15901636
110	0x3ed5d0ec	0.41760957
111	0x3da431fe	0.08017348
112	0xbe85b760	-0.26116467
113	0x39c30bce	0.00037202094
114	0x3e249e75	0.16076072
115	0xbd70b1b5	-0.058763225
116	0xbda6871f	-0.08131241
117	0xbed1b17e	-0.40955728
118	0x3e2af9aa	0.16696802
119	0x3e804ee8	0.250602
120	0x3e7d89b5	0.24759562
121	0x3a7ec9ba	0.00097193907
122	0xbe8b8020	-0.2724619
123	0x3ea349cc	0.3189224
124	0x3e2db09a	0.169619
125	0xbe7833b4	-0.24238473
126	0x3eca2c21	0.39486793
127	0xbe6a25e8	-0.22866023
128	0xbc8b9159	-0.01703708
129	0xbd14477a	-0.036200978
130	0xbe4b7f37	-0.19872747
131	0x3e619a91	0.22031619
132	0x3db181f6	0.08667366
133	0xbe728a0b	-0.23685472
134	0xbe485162	-0.19562295
135	0xbd96a782	-0.07356168
136	0x3e649444	0.22322184
137	0x3cbc280b	0.022968313
138	0xbcf47a17	-0.029843373
139	0x3ea92b8c	0.33041036
140	0x3e627780	0.22115898
141	0x3cc8fe6d	0.024535382
142	0xbda219fe	-0.07915114
143	0xbea3f13a	-0.3201998
144	0x3db67e94	0.089108616
145	0x3c9008a1	0.01758224
146	0xbe1c73d0	-0.15278554
147	0x3dcd78cd	0.100328065
148	0x3ee43626	0.44572562
149	0xbe881a13	-0.26582393
150	0x3e106c7f	0.14103888
151	0x3eac96fb	0.3370894
152	0x3e3ac12a	0.18237749
153	0x3e49c12d	0.19702597
154	0xbee8ac0c	-0.4544376
155	0xbefa2a3c	-0.48860347
156	0xbdc66b82	-0.09688474
157	0x3d3398c8	0.043846875
158	0xbe862a12	-0.26203972
159	0x3ed8b287	0.42323706
160	0xbd766844	-0.06015803
161	0xbecee7b9	-0.40411165
162	0xbdd3344b	-0.103127085
163	0x3e99c258	0.30031085
164	0x3c25c40f	0.010117545
165	0xbdb6207e	-0.08892916
166	0x3eb45e83	0.35228357
167	0xbe100342	-0.14063743
168	0x3eaecf90	0.34142733
169	0xbef16b42	-0.47152144
170	0x3d9068d8	0.07051247
171	0x3c159f39	0.0091322
172	0x3ccce60a	0.025012035
173	0x3ea7d2a7	0.32777902
174	0x3edfe0f6	0.4372632
175	0xbedf1e93	-0.43578014
176	0x3df0a96d	0.117510654
177	0xbe1bf197	-0.15228878
178	0x3d2a29b8	0.041543692
179	0xbe2b873f	-0.16750811
180	0x3ce73715	0.028224507
181	0xbe844e6e	-0.25841087
182	0xbe924dd9	-0.28575018
183	0x3dd855e3	0.105632566
184	0x3e230f34	0.15923768
185	0xbd4f4c62	-0.050609954
186	0xbe37a47f	-0.17933844
187	0x3e9047ec	0.28179872
188	0xbe689989	-0.22714819
189	0xbdc75e41	-0.097347744
190	0xbee2a1a3	-0.44263944
191	0x3dc866f1	0.097852595
192	0xbd734ba8	-0.059398323
193	0xbe4059a9	-0.18784203
194	0xbe983dec	-0.29734743
195	0x3c909b44	0.017652161
196	0xbd8a1725	-0.06742696
197	0xbe3d7e24	-0.1850515
198	0x3c20a866	0.009805774
199	0x3ed5e0f3	0.41773185
200	0x3e6256a7	0.22103368
201	0xbe6c7607	-0.23091899
202	0x3d53221f	0.051546212
203	0xbe468605	-0.19387062
204	0xbe4cb565	-0.19991072
205	0xbe537f9e	-0.20654151
206	0xbebd0df3	-0.36924705
207	0x3d82e356	0.06391017
208	0x3e984687	0.29741308
209	0x3df9dc85	0.12200264
210	0xbc88c069	-0.01669331
211	0xbe626795	-0.22109826
212	0x3e7449c0	0.23856258
213	0x3d89011f	0.06689667
214	0x3e807daa	0.25095874
215	0x3e8982a1	0.26857474
216	0xbed08aee	-0.40730995
217	0x3b26ce11	0.0025452415
218	0xbe8dc478	-0.27688956
219	0xbdd54f9a	-0.104155734
220	0xba633d99	-0.00086685416
221	0x3e8dfe05	0.27732864
222	0x3efb899e	0.4912843
223	0x3dc4d51b	0.09610959
224	0x3ea9d4b1	0.33170083
225	0x3d91099c	0.07081911
226	0xbe45448c	-0.1926443
227	0x3ec5746a	0.3856538
228	0xbe559872	-0.20858935
229	0xbe00f767	-0.12594377
230	0x3e655ebe	0.22399423
231	0x3ecedb39	0.4040163
232	0x3e40a0d0	0.18811345
233	0xbdaeb7ec	-0.08531174
234	0x3d69bf93	0.057067465
235	0xbd26aae2	-0.04069031
236	0xbe7b81f6	-0.24561295
237	0xbe842b0e	-0.25814098
238	0xbd801b0e	-0.0625516
239	0x3e13a241	0.14417364
240	0x3d054341	0.03253484
241	0xbdf73b05	-0.12071804
242	0x3cedf5eb	0.029047927
243	0x3d7d3bb5	0.06182452
244	0x3d02587f	0.031822678
245	0x3d844f56	0.06460445
246	0x3e4c0728	0.19924605
247	0xbe9ec593	-0.31010112
248	0xbe425841	-0.18978979
249	0x3ec1335f	0.37734506
250	0xbf293fc3	-0.6611292
251	0x3dea0a02	0.1142769
252	0xbdcc911f	-0.09988617
253	0x3de58426	0.11206846
254	0xbc878cec	-0.016546689
255	0xbd69f070	-0.057114065

encoder.blks.block0.ffn.dense1.bias f4 [64]
0	0xbdaf8326	-0.085699365
1	0xbef714ac	-0.4825796
2	0xbe68ffd7	-0.22753845
3	0xbf0d4f8b	-0.551995
4	0xbe41331a	-0.1886715
5	0xbeb0cb39	-0.34530047
6	0xbe5f1a78	-0.21787441
7	0xbbd7b25e	-0.0065825423
8	0xbea34758	-0.31890368
9	0xbeca7165	-0.39539638
10	0xbed9499e	-0.42438978
11	0xbe922966	-0.2854721
12	0xbe6ef472	-0.23335436
13	0xbef8f33c	-0.48623073
14	0xbe228600	-0.1587143
15	0xbe98c26d	-0.29835835
16	0xbf08e125	-0.53468543
17	0xbea49c41	-0.32150462
18	0xbecef7b1	-0.4042335
19	0xbebbfcf5	-0.36716428
20	0xbee97582	-0.45597464
21	0xbe20fbe0	-0.15721083
22	0xbeecd400	-0.46255493
23	0xbecf9140	-0.40540504
24	0xbe272b1c	-0.16325039
25	0xbec7fa32	-0.3905807
26	0xbeccee9a	-0.4002579
27	0xbea30384	-0.3183862
28	0xbe75b4f3	-0.23994808
29	0xbe783796	-0.24239954
30	0xbedd7ad0	-0.4325776
31	0xbf0d8816	-0.55285776
32	0xbedd3772	-0.43206364
33	0xbec690ec	-0.38782442
34	0xbee240e5	-0.44190136
35	0xbf06cf71	-0.5266028
36	0xbe16a8ce	-0.14712831
37	0xbe9ee7db	-0.31036267
38	0xbecc2dd4	-0.39878714
39	0xbe089c6b	-0.13340919
40	0xbe9c402d	-0.30517712
41	0xbe880fc0	-0.26574516
42	0xbed2a858	-0.4114406
43	0xbf186443	-0.5952799
44	0xbe8272e1	-0.2547827
45	0xbeb192ba	-0.34682256
46	0xbec22ec5	-0.37926307
47	0xbeb7f798	-0.35931087
48	0xbef5e3af	-0.4802527
49	0xbefedf33	-0.49779662
50	0xbe067d44	-0.13133723
51	0xbedb7ea8	-0.4287007
52	0xbf08139c	-0.5315492
53	0xbee70a65	-0.45125118
54	0xbef5c7ec	-0.4800409
55	0xbef2d008	-0.4742434
56	0xbec1c5a7	-0.3784611
57	0xbe368d04	-0.1782723
58	0xbf1bcaa0	-0.60856056
59	0xbed28e4c	-0.4112419
60	0xbe8ca4d9	-0.2746952
61	0xbe864810	-0.26226854
62	0xbea510e3	-0.32239446
63	0xbe1bafc0	-0.15203762

encoder.blks.block0.ffn.dense2.weight f4 [32, 64]
0	0xbebf6df5	-0.37388578
1	0xbd27743a	-0.040882327
2	0xbdf19f5a	-0.11797972
3	0xbe8efc20	-0.2792673
4	0x3c660053	0.014038163
5	0xbe5f1b55	-0.2178777
6	0x3e047080	0.1293354
7	0x3ddb6ea9	0.10714466
8	0x3dc9bb70	0.09850204
9	0x3e9f9986	0.31171817
10	0x3e7516f2	0.23934534
11	0xbe63bbba	-0.22239581
12	0x3e92bb8e	0.28658718
13	0xbeb760e0	-0.35816097
14	0x3e23c643	0.159936
15	0xbd9a1563	-0.075236104
16	0x3ebc5f20	0.36791325
17	0x3dc0da70	0.09416664
18	0x3d3990cb	0.0453041
19	0xbe72a18b	-0.23694436
20	0xbe079445	-0.13240154
21	0x3e9d77aa	0.3075536
22	0xbd4742ea	-0.0486478
23	0x3e23dad1	0.1600144
24	0xbecd399d	-0.40083018
25	0x3e50ee38	0.20403373
26	0xbdaf351f	-0.08555054
27	0xbeb94dd5	-0.36192194
28	0x3c294306	0.010330921
29	0x3e3e9c2d	0.18614264
30	0xbe928800	-0.28619385
31	0x3c7938f4	0.015211333
32	0x3daa2a95	0.08308903
33	0xbe34732e	-0.17622063
34	0xbdfc6004	-0.12323001
35	0x3df36a71	0.118855365
36	0x3e850ce2	0.2598639
37	0x3e09fd2d	0.13475485
38	0xbdca6bef	-0.09883868
39	0x3e700f38	0.23443305
40	0xbdfe99f6	-0.124317095
41	0x3e1796b9	0.1480359
42	0x3e02f73b	0.12789623
43	0xbda9babe	-0.08287571
44	0xbd823db0	-0.06359422
45	0xbda619bd	-0.08110378
46	0xbe93a476	-0.2883641
47	0x3e566fbf	0.20941065
48	0xbd8a7b7a	-0.067618325
49	0x3e143f8a	0.14477363
50	0xbe892be9	-0.26791313
51	0x3dfcb01f	0.1233828
52	0xbd13d3fe	-0.036090843
53	0xbe9ced63	-0.30649862
54	0xbe8990d3	-0.26868305
55	0xbd35c3c9	-0.04437617
56	0x3dbf6d44	0.09347013
57	0x3e4de09f	0.20105217
58	0x3e81c16d	0.25342885
59	0xbb4072af	-0.0029365232
60	0xbe97e210	-0.2966466
61	0xbe056334	-0.13026124
62	0xbed597cc	-0.41717374
63	0xbe3fb2c2	-0.18720534
64	0xbf216b7a	-0.6305462
65	0xbe2ae1aa	-0.16687647
66	0x3c5077c0	0.012723863
67	0xbe3aeee1	-0.18255188
68	0x3eba70a7	0.36414072
69	0xbd254f79	-0.040358994
70	0xbe7cfed7	-0.24706589
71	0x3d776f94	0.060409144
72	0x3ae1058d	0.0017167792
73	0x3d1fae86	0.038984798
74	0xbeaaa995	-0.33332506
75	0x3e19387f	0.14962958
76	0xbb76d8f1	-0.0037665928
77	0xbe1e841c	-0.15480083
78	0x3e1e5fd1	0.15466239
79	0x3f123109	0.5710607
80	0x3e42e7af	0.19033693
81	0xbe503818	-0.20333898
82	0xbe3b8567	-0.18312608
83	0x3e278bf3	0.1636198
84	0xbe40c7a3	-0.18826155
85	0x3d7ed84f	0.062218007
86	0xbe25096c	-0.16116875
87	0x3dc6f4ff	0.09714698
88	0xbe73d22d	-0.23810644
89	0x3e5497d8	0.20761049
90	0x3dbd8a77	0.09254926
91	0xbcfc8b74	-0.030828215
92	0x3d027a12	0.031854697
93	0x3e1dd760	0.1541419
94	0xbe228788	-0.15872014
95	0xbee6f6b6	-0.451101
96	0x3ebb0479	0.3652685
97	0x3b60edc2	0.0034321402
98	0x3e1703f6	0.14747605
99	0x3e11cf2b	0.14239185
100	0x3e2f1636	0.17098317
101	0x3aa93c4f	0.001291165
102	0x3cb50ede	0.022101816
103	0x3d388ab6	0.04505416
104	0x3edee677	0.43535206
105	0xbe919b3a	-0.2843874
106	0xbe41443f	-0.1887369
107	0x3d88e132	0.066835776
108	0xbd0672ac	-0.032824203
109	0xbe5cc50d	-0.21559544
110	0x3cee71c3	0.02910698
111	0xbe3c33c7	-0.18379126
112	0xbe2aa807	-0.1666566
113	0xbe3c5317	-0.18391071
114	0x3d9a36c3	0.07529976
115	0x3ea4a6ac	0.3215841
116	0xbceec018	-0.029144332
117	0xbe4e2cee	-0.20134327
118	0xbe8d22c9	-0.275656
119	0xbd13a7e6	-0.036048792
120	0x3eb01660	0.3439207
121	0xbea43469	-0.32071236
122	0xbd8884f2	-0.06665982
123	0x3e130e71	0.14360978
124	0x3c92da04	0.017926224
125	0x3e967f8e	0.29394192
126	0xbd664b8e	-0.0562244
127	0xbe0bd2a8	-0.13654578
128	0xbdddc55b	-0.10828658
129	0xbe8b0b83	-0.2715722
130	0xbda3144b	-0.07962855
131	0x3baa5aa5	0.005198794
132	0x3deb93d7	0.115028076
133	0xbd260536	-0.040532313
134	0x3ef579e4	0.47944558
135	0x3e0d4fcd	0.13799973
136	0xbd0d1fb8	-0.034454077
137	0x3d345b21	0.04403222
138	0xbe491e19	-0.19640388
139	0x3dd7a28c	0.1052905
140	0xbdf236a1	-0.11826826
141	0xbddbebe8	-0.10738355
142	0xbdb93fd3	-0.09045377
143	0xbd9d278a	-0.07673557
144	0x3e27bfbe	0.16381738
145	0x3c8736a4	0.016505547
146	0x3ceb6438	0.028734311
147	0x3d9c9f1f	0.076475374
148	0xbe155d25	-0.14586313
149	0x3e66cb67	0.2253853
150	0x3d4cb1ad	0.049974132
151	0xbe8805dc	-0.2656697
152	0x3ea3e45f	0.3201017
153	0xbdae8769	-0.08521921
154	0xbca0dd69	-0.019636827
155	0xbcd3a6ef	-0.025836436
156	0x3e83a261	0.25709823
157	0x3d3b8ac6	0.04578664
158	0x3e926eb7	0.28600094
159	0xbe878bae	-0.26473755
160	0xbe20de80	-0.15709877
161	0x3d8b05b1	0.06788195
162	0xbea745aa	-0.32670337
163	0x3b917de1	0.0044400548
164	0xbcbb81d8	-0.022889063
165	0x3ef92bd5	0.48666254
166	0x3eafc305	0.34328476
167	0x3d991dc3	0.0747638
168	0xbd8cc9c8	-0.06874424
169	0x3edfb635	0.436937
170	0x3b0a26b9	0.002108021
171	0x3bb1d8af	0.005427442
172	0xbd5ca0d8	-0.05386433
173	0x3ea061c1	0.3132458
174	0x3be636ce	0.007025576
175	0x3ed48a55	0.4151179
176	0xbe48013c	-0.19531721
177	0xbb899fab	-0.004199942
178	0xbc00d131	-0.007862375
179	0xbe2886dc	-0.16457695
180	0xbb91a1f8	-0.004444357
181	0x3de56c48	0.11202294
182	0xbe686384	-0.22694212
183	0x3cc4a66e	0.024005141
184	0x3b851e84	0.0040624756
185	0xbe03767f	-0.12838171
186	0xbe034252	-0.12818268
187	0x3c625287	0.013813621
188	0xbede45f1	-0.43412736
189	0xbe2d0180	-0.16895103
190	0x3f1ea4d9	0.6197029
191	0xbd6b793b	-0.05748866
192	0xbe7aca27	-0.24491177
193	0x3d90b4cd	0.07065735
194	0xbd17ee81	-0.03709269
195	0xbdd16309	-0.102239676
196	0xbe90ff98	-0.28320003
197	0x3eb06345	0.34450737
198	0x3e091aca	0.13389125
199	0xbe8448ab	-0.2583669
200	0x3eba4309	0.3637927
201	0x3d6f4354	0.05841382
202	0x3db7f9fa	0.08983226
203	0x3ddbc43e	0.107307896
204	0xbc2bc309	-0.010483512
205	0xbdd14cfd	-0.102197625
206	0xbe2dce63	-0.16973262
207	0xbeb5ef98	-0.35534358
208	0x3d9195d8	0.071086586
209	0x3c98a768	0.018634513
210	0xbbb21f6a	-0.0054358738
211	0xbd8cc51e	-0.068735346
212	0xbd26c494	-0.040714815
213	0xbe4c7c15	-0.19969209
214	0x3cc95139	0.024574863
215	0x3c4a4f71	0.012348042
216	0xbd7fdf82	-0.062469013
217	0x3e834dfc	0.25645435
218	0xbd93af42	-0.07211162
219	0xbe7e408d	-0.24829312
220	0xbcaf4ce3	-0.021398967
221	0xbc4142ad	-0.011795682
222	0x3cc60eac	0.024176918
223	0xbd82dad9	-0.06389398
224	0x3e9334d5	0.28751245
225	0xbe584e9c	-0.21123737
226	0xbe91eaf9	-0.28499582
227	0xbe0ee249	-0.13953508
228	0x3e573dae	0.21019623
229	0xbd5c7b85	-0.053828735
230	0x3db02f24	0.08602741
231	0xbd7998d0	-0.06093675
232	0x3d0c1fad	0.034209896
233	0x3bd355dd	0.0064494447
234	0xbe3eff2a	-0.18652025
235	0xbe462b19	-0.19352378
236	0xbdb4556e	-0.08805357
237	0x3e3320ef	0.17493032
238	0x3dbfbe99	0.093625255
239	0xbf06e68d	-0.5269554
240	0xbe6fcfea	-0.23419157
241	0xbe1e627e	-0.1546726
242	0x3e2b6be4	0.16740376
243	0xbc9d6101	-0.019211294
244	0x3eb8e022	0.361085
245	0xbe6e1cdf	-0.23253201
246	0xbdffc1a6	-0.124881074
247	0xbdf8c66a	-0.121472195
248	0x3e7b7b7e	0.24558827
249	0x3e7a254d	0.24428292
250	0x3e7aa8d3	0.24478464
251	0x3f12b5ff	0.57308954
252	0x3e62a804	0.22134405
253	0x3dffd503	0.12491801
254	0x3c96c4ed	0.018404448
255	0x3e30a897	0.17251812
