Transformer/checkpoints/net.pth (torch, 203452 bytes, 23 tensors)

encoder.embedding.weight f4 [184, 32]
000000 89 6a 8c 3f 69 2a 04 3f 73 00 ab 3f f6 c6 56 be
       1.0970012 0.5162721 1.3359512 -0.20974335
000010 ee a8 da be df cf bd bf 8f 20 a3 bf 62 66 1b 3f
       -0.42707008 -1.4829062 -1.2744311 0.607031
000020 77 ef bc bf 2d 4f 18 bf a5 54 d2 be 21 1a 10 bc
       -1.4760579 -0.5949581 -0.41080204 -0.008795292
000030 69 92 ef 3e 75 41 74 3d 1e 6f 10 3f 5e 4a 14 bf
       0.4679139 0.059632737 0.5641955 -0.57925975
000040 37 85 a5 be 30 a1 cc 3e c7 f9 f3 be d9 38 d7 3f
       -0.32328197 0.39966726 -0.47651502 1.6814224
000050 a7 c6 e7 3d 38 c6 b1 3f af 64 28 3e f4 09 50 bf
       0.11317187 1.3888617 0.16444658 -0.8126519
000060 f7 98 84 3f 04 f5 0f c0 93 9a 1b 3e 32 df 00 c0
       1.0359181 -2.2493296 0.15195684 -2.0136228
000070 1e 43 30 c0 94 25 2d bf 9a bf 69 bd 5c 82 02 3f
       -2.7540965 -0.67635465 -0.05706749 0.5098016
000080 0e aa 4a bd 38 be fc be e4 73 ba 3f cc 2e 40 bf
       -0.049478583 -0.49363875 1.4566617 -0.75071406
000090 94 7b 78 bf cd f5 0e 3f f2 6d 6a be 00 eb 49 bf
       -0.97063565 0.5584381 -0.22893503 -0.78874207
0000a0 f8 6b d1 be 43 50 34 3f ca 08 9c bf a8 ac a1 bf
       -0.40902686 0.7043497 -1.2190182 -1.2630816
0000b0 20 d7 d5 be f5 82 7a be 4f 39 65 bd aa 05 57 3f
       -0.4176569 -0.24464019 -0.055962857 0.8399302
0000c0 72 5e af 3e 9e 84 98 3f bb 81 a5 bf f6 c3 c3 3f
       0.34251744 1.1915472 -1.2930216 1.5294178
0000d0 b4 71 7f 3e b0 0c 35 3f bf c8 d7 be 10 63 e7 bf
       0.24945718 0.70722485 -0.42145345 -1.8077106
0000e0 7b a3 d8 3e 4e 10 16 3f 6a 38 f5 3f 19 11 2f be
       0.42312226 0.5861863 1.9157841 -0.17096366
0000f0 03 8b 4f 3e 28 b4 9f 3c 30 9d 37 bf 60 c9 c7 be
       0.20267873 0.019495085 -0.71724224 -0.39020824
000100 6f 1f 3a bf e5 da 98 bf 59 ec 22 3f 06 a5 f8 3f
       -0.72704214 -1.1941801 0.6364189 1.9425361
000110 fa 47 c9 3f 87 b1 36 3f d7 4b 85 3f 55 2b 3d bf
       1.572509 0.71364635 1.041377 -0.73894244
000120 18 8f fd 3f 51 89 5b bf 8c 33 c5 be cd 43 11 bf
       1.9809294 -0.85756403 -0.3851589 -0.5674408
000130 5a 7f f3 3d b2 b8 95 3e 85 66 80 bf ce f3 8f bf
       0.11889525 0.29242474 -1.0031286 -1.1246278
000140 2d 27 28 3f 0f 25 a1 3f 88 1f fd 3d d6 e4 b4 3e
       0.6568478 1.2589434 0.1235953 0.35330838
000150 c6 1f 83 3f b3 69 12 bf f4 3e 61 3f a0 fa 65 3e
       1.0244071 -0.57192534 0.87986684 0.22458887
000160 f1 6e 92 bf 96 b6 aa 3e 5e 37 ab 3f cf 80 2c bc
       -1.1440107 0.33342427 1.3376272 -0.010528757
000170 56 6f e3 bf 81 52 86 3f 57 8a bb 3f 22 aa 03 bc
       -1.7768352 1.0493928 1.4651593 -0.008036168
000180 c0 78 03 c0 f6 12 7c 3f a6 f9 82 bd d3 62 db bf
       -2.054245 0.9846643 -0.06395273 -1.7139534
000190 0d 40 25 c0 87 30 a6 3f 90 66 65 be af a7 06 c0
       -2.5820343 1.2983559 -0.22402406 -2.1039846
0001a0 43 a9 1f bf b9 1d 1f c0 ff fb 57 3e fd fc 7e 3f
       -0.6236765 -2.4861891 0.21092223 0.9960478
0001b0 d0 61 d3 3e 97 a7 81 3b 41 47 78 bf 73 13 c7 be
       0.41285563 0.003956746 -0.96983725 -0.38882026
0001c0 72 8f 80 bf d7 d9 aa 3f dc 3f e0 bf 05 5d 43 bf
       -1.0043776 1.334773 -1.7519488 -0.7631381
0001d0 c3 a6 0a c0 fe d2 d5 bf c2 5e 2e bf 97 20 17 bf
       -2.1664283 -1.6705015 -0.6811334 -0.59034103
0001e0 a8 e6 22 3f 97 17 da 3d 5a ed ed 3f 1a e0 6b be
       0.63633204 0.10649031 1.8588059 -0.23034707
0001f0 7c 58 24 3e 6f 65 32 bf 97 f5 ef 3e 79 64 e1 3f
       0.16049379 -0.69686025 0.46867058 1.7608787
000200 bc 2c f1 3f 86 38 d1 bf e6 ec ab be f1 98 b7 be
       1.8841777 -1.6345375 -0.33579177 -0.35858873
000210 c1 e6 71 3f 28 ed 8f 3f 0c 65 88 3f 4c fb 06 be
       0.9449273 1.1244249 1.0655837 -0.131818
000220 78 21 eb be 5b 05 81 3f ad 7d 26 c0 5d 6c b9 be
       -0.45923972 1.0079759 -2.6014206 -0.36215487
000230 33 ed cd bd 02 48 fc 3d e9 f8 bb 3f 6d 65 14 3f
       -0.10055008 0.12318422 1.4685336 0.57967263
000240 1c 81 4f bf a7 72 c1 be b7 4c 06 bf 0d 4c ba bf
       -0.8105638 -0.37782785 -0.5246081 -1.4554459
000250 f4 cc e4 be 7f 36 f6 bf e1 5e 09 3e 52 8a e2 be
       -0.44687617 -1.9235381 0.134151 -0.44246155
000260 4e 91 24 3f 59 80 fa bf 74 cb 43 bf 08 c6 04 3f
       0.6428422 -1.9570419 -0.7648232 0.5186467
000270 88 97 99 3f 43 42 4c bd 4d a7 89 bd 99 0a 5e be
       1.1999369 -0.04986788 -0.06721363 -0.2168373
000280 b8 c4 8a 3f b2 d7 44 bf 48 f5 78 3f e4 fa 46 bf
       1.0841284 -0.76891625 0.9724927 -0.7772658
000290 f7 42 b1 3f b6 81 bc bd c7 df c4 be f9 97 b0 be
       1.3848561 -0.09204428 -0.3845198 -0.34490946
0002a0 d2 1f 8f bf fa 45 55 c0 10 79 87 be da 41 8e 3f
       -1.1181586 -3.332396 -0.2645955 1.1113846
0002b0 6a 99 f1 be aa 72 7b 3f 30 b6 31 be a3 54 f5 3e
       -0.47187358 0.9822184 -0.17354655 0.47916135
0002c0 30 73 1d 40 12 d3 66 3b a2 b2 6d 3f 74 cd 9d 3f
       2.4601555 0.0035221023 0.928507 1.2328324
0002d0 f5 0c d6 3e 0f a1 0f 40 c3 26 77 3e 43 7b ea 3e
       0.4180676 2.2442052 0.2413588 0.45797166
0002e0 f9 c6 73 3e 54 38 dd 3f b5 c3 62 3e e1 13 12 3e
       0.23806371 1.7282815 0.22144969 0.14265396
0002f0 8b 0b 83 3f 4f 02 4c bf 1d 11 06 3f 51 8b 8d bf
       1.0237898 -0.7969102 0.5236986 -1.1058141
000300 fc 61 80 3f fe 5b 9d bf b5 9f 86 bf 9a b1 86 3e
       1.0029902 -1.2293699 -1.0517489 0.26307374
000310 18 91 d5 3f 9f c7 85 3e 14 5e 2d bd 26 93 f1 3e
       1.6684904 0.2612886 -0.042326048 0.47182578
000320 8c 8e 2e 3f 9f d2 4d 40 f4 cf 15 40 48 4e a1 3f
       0.6818626 3.2159803 2.3408175 1.2602015
000330 69 c0 81 3e b5 e6 c3 3d 50 f4 0a bf e2 f8 69 be
       0.2534211 0.09565488 -0.5427904 -0.22848848
000340 4f 12 6d bf 4b a0 b1 be 83 76 db 3e 51 50 88 3d
       -0.9260606 -0.34692606 0.42863855 0.06655944
000350 7e 55 e8 bf 1c 25 b0 3f ab b0 41 3f 32 8c 22 3e
       -1.815109 1.3761325 0.756602 0.15873793
000360 81 7b 5f be e0 9a 80 be fa 22 26 3f ae eb 79 bf
       -0.21824457 -0.2511816 0.6489712 -0.97625244
000370 09 a3 6f 3f 24 c4 bd bf 7e 6a 24 3f a1 1f 7e 3d
       0.93608147 -1.4825482 0.64224994 0.062041882
000380 7f da d6 bf ac 98 d9 3d d5 64 cf bf 4d ff c0 3f
       -1.678543 0.10624823 -1.6202646 1.5077912
000390 47 aa ae 3f 8a d2 45 bf 4a 30 1e 3e 44 8e 04 3f
       1.3645715 -0.7727438 0.15448108 0.5177958
0003a0 e2 66 a7 3f 3b aa 9d 3d 2f 25 34 40 ab 51 f0 3e
       1.3078272 0.076984845 2.8147695 0.46937308
0003b0 56 ce 9d 3f 3f 3c ad be 05 8f 41 bf f2 40 c9 be
       1.2328594 -0.33835027 -0.75608855 -0.39307362
0003c0 a9 bb 84 bf de 5f 5a 3c 4f 36 36 bf cc 9b 93 bf
       -1.0369769 0.013328521 -0.7117662 -1.153192
0003d0 31 80 0b 3f 0f e9 9c bf 90 eb 6b bf 73 da ba 3e
       0.5449248 -1.2258624 -0.92156315 0.3649479
0003e0 0b 63 70 bf bb 6d 96 bf b1 86 a3 3f 54 e3 f7 3f
       -0.9390113 -1.1752237 1.277548 1.936625
0003f0 0c aa 26 bd 75 6a b9 3f 27 71 d4 be f2 38 b2 3f
       -0.040689513 1.4485613 -0.41492578 1.3923628

encoder.rnn.weight_ih_l0 f4 [96, 32]
000000 8c 8c 40 bd 07 83 dc bd b0 ae e8 ba b6 c7 85 be
       -0.047009036 -0.10767179 -0.0017752256 -0.2612893
000010 51 23 01 bf e0 09 06 3e ef eb c5 3e fa bf ee be
       -0.50444514 0.13089705 0.38656566 -0.46630841
000020 2e 86 b2 be 5a 44 82 bf 22 94 73 be c6 34 8a be
       -0.34867996 -1.0177109 -0.23786977 -0.26993388
000030 02 b7 96 3d ab 21 aa be ad 5d cf bd 3c d6 5e be
       0.07359125 -0.33228812 -0.10125289 -0.21761411
000040 39 c7 c4 bd 57 25 bc 3e 26 61 09 bf 7c e4 d3 3c
       -0.09608311 0.36747238 -0.5366386 0.025865786
000050 f1 3a 33 3f 92 87 46 bc f4 e7 1f be 91 70 47 bf
       0.7001181 -0.012117283 -0.15615827 -0.7790614
000060 70 36 f7 be b7 35 8f 3d 65 d4 43 3e e8 3c ca be
       -0.4828372 0.06992667 0.19123991 -0.39499593
000070 97 53 23 be 2e f8 f2 3e de 54 d1 39 08 04 b6 be
       -0.15949856 0.4745497 0.00039926817 -0.3554995
000080 b7 65 01 be 83 d3 bc 3d 04 12 eb be 27 79 ce 3d
       -0.12636457 0.0922003 -0.45912182 0.10081702
000090 f1 88 22 3e 44 ff b7 be 50 89 c5 be 21 57 92 bd
       0.15872552 -0.3593694 -0.38581324 -0.07145525
0000a0 02 8f 9b be e9 ea 35 3f d1 64 01 bf 59 5b 6c 3e
       -0.30382544 0.7106157 -0.5054446 0.23081721
0000b0 ec 39 b2 bd 3c ed 1f be 88 53 01 be 25 d6 a1 bd
       -0.08702454 -0.15617841 -0.12629521 -0.07902173
0000c0 78 3d 3f 3e 2a d0 ec 3d 74 0d 78 bc 27 e0 1c be
       0.18675792 0.11563142 -0.015139926 -0.15319882
0000d0 58 1e 79 be 7f 6d 80 3e 7f 9d 26 3e 05 3a ee be
       -0.24327981 0.2508354 0.16271017 -0.4652864
0000e0 31 a0 3a 3f 88 df 8e 3e ac 1f d1 bd 84 2c e4 bd
       0.7290068 0.27904916 -0.10211119 -0.11141303
0000f0 2a 33 a5 bd 72 45 60 be b9 61 d0 3b cf 6d 61 be
       -0.080663994 -0.21901491 0.0063593057 -0.22014545
000100 7a 92 1a bf ab 6d 6e 3d b5 7b e8 3e 8d 2e 11 3f
       -0.60379755 0.058210056 0.4540688 0.56711656
000110 28 23 28 3e a3 ba 2b 3d 0e 6d 01 bf 18 76 0e bf
       0.16419661 0.041926038 -0.5055703 -0.55648947
000120 09 9f 0d be ab 53 2c bf ae 6c 88 3e 5b cf df 3e
       -0.13830198 -0.6731517 0.26645416 0.43712887
000130 06 f4 1c 3f 3f f0 0d 3e 53 d5 4c be b0 2a cf 3d
       0.6130985 0.13861178 -0.20003252 0.10115564
000140 9b 2e 90 3e 4b c8 24 bf 34 26 62 3d 29 82 2a 3f
       0.28160557 -0.6436812 0.055212215 0.6660486
000150 1b 0f 37 3e 2c fe a1 3e 22 76 75 3d 61 94 3d 3d
       0.17876856 0.3163923 0.059927113 0.046284083
000160 38 9d 06 bf 1d 93 df 3e 10 49 ba 3d c4 53 16 3d
       -0.52583647 0.43666926 0.09095967 0.03670098
000170 a0 06 83 3e 39 7b 03 bf 72 b4 0c bf d0 a0 92 bf
       0.25590992 -0.513599 -0.5496284 -1.1455326
000180 f0 24 d4 3d 29 93 43 bd ce 38 66 be 48 d0 fe bd
       0.10358608 -0.047747765 -0.22482607 -0.1244207
000190 75 4c d1 3d 00 6f fb 3d 6a 47 3e bd 0b 57 c3 bc
       0.10219661 0.12277031 -0.046454825 -0.023845216
0001a0 b2 46 c1 3d 16 30 7c 3f fd 4d 38 bf 9b 99 af bd
       0.09437312 0.98510873 -0.71994 -0.0857422
0001b0 3a 49 cf bc 58 38 10 be 50 77 49 3e e9 e0 17 be
       -0.025303472 -0.14083993 0.1967442 -0.1483189
0001c0 21 82 9c 3e e3 7a bb 3e ac 9f db 3d 3b fc 36 3f
       0.3056803 0.36617193 0.10723814 0.71478623
0001d0 eb 6c 6c 3e ab c2 1e 3f cd bf 3f be b3 31 25 bf
       0.23088424 0.6201579 -0.1872551 -0.6452896
0001e0 20 2b 0e 3e 22 dd 3d 3f f0 c4 f9 bd 3a 04 10 bf
       0.13883638 0.74165547 -0.12195766 -0.5625645
0001f0 65 33 32 3f 20 17 e8 3e 48 b7 7f be 38 d6 03 3e
       0.6960967 0.45330143 -0.2497226 0.12874687
000200 8d dd 61 bd 95 c3 d4 3e 5f 4d b6 be 95 85 2a be
       -0.055142928 0.41555467 -0.35605904 -0.1665252
000210 36 ec b9 be ea 24 fd bd 8c 0a 3d 3e 32 dd 1d 3f
       -0.36313027 -0.123605564 0.18461055 0.6166564
000220 bc e6 a2 be 22 a7 b6 bf 37 60 4a 3f 97 50 25 3e
       -0.3181666 -1.4269755 0.7905306 0.16144024
000230 ed 50 a6 3e f4 a8 eb 3d f0 70 91 3e 10 32 02 bf
       0.32483616 0.115068346 0.28406477 -0.5085764
000240 ae dc 6d 3e 36 ab a6 3e 99 ef a0 be ac 72 c2 bd
       0.23228714 0.325525 -0.31432799 -0.09494528
000250 c3 c0 d7 3e 5c f3 40 3e da 3a 5d 3e 04 a6 b2 3e
       0.42139253 0.18842834 0.21604481 0.34892285
000260 88 36 ca bd c0 59 b0 bb df 56 00 3e 93 7d ea 3e
       -0.09873682 -0.005381793 0.12533139 0.4579893
000270 90 cc 16 3f 17 48 6f 3c 4d db 0e bf b3 db b0 be
       0.5890589 0.01460459 -0.55803376 -0.34542617
000280 05 e6 a3 be 34 c2 76 3d 6e 5b ac 3d 92 f4 cf bd
       -0.32011428 0.0602438 0.08415876 -0.1015407
000290 c7 6b ac be 84 1d 32 bf d8 4e 7f be c9 6e a8 3d
       -0.33675978 -0.6957629 -0.2493242 0.082242556
0002a0 ff f5 13 3d a0 ba b1 be 41 5f cb bd 5a b3 c2 bd
       0.036123272 -0.34712696 -0.099302776 -0.09506865
0002b0 fc 52 60 be 7f 1a 49 3e 46 e2 11 3f d2 75 2c 3f
       -0.21906656 0.19639014 0.5698589 0.6736728
0002c0 6a 52 56 3f ef 65 6d 3c b6 ba 28 3f 78 28 29 3f
       0.83719504 0.014489635 0.659099 0.66077375
0002d0 ab 2d 00 3f 6e cd cc bd 8b 56 1a 3f 85 e4 c6 be
       0.50069684 -0.1000012 0.60288304 -0.38846222
0002e0 81 d9 8a 3e 0b a8 00 bf 3a 29 bf 3e 1b 14 cb be
       0.27119067 -0.50256413 0.3733614 -0.39663777
0002f0 c4 d0 8e 3d 78 ca ff be 5b fc 34 bd 11 1c 82 3d
       0.06973413 -0.4995916 -0.044185977 0.063530095
000300 00 fc d3 3e 3d e7 4e bf 02 3e 8d 3f f6 bc 8d bc
       0.41403198 -0.8082159 1.1034548 -0.017302018
000310 c6 fc 50 bb a0 0a a6 3e f2 e0 8b be 57 ca a4 bc
       -0.0031888946 0.3242998 -0.27320057 -0.020116014
000320 e4 7f e9 3d 35 bd 04 bb 8e fe 23 3e 1a 83 a7 3e
       0.11401346 -0.0020254378 0.16015074 0.3271721
000330 27 f8 4e 3e f8 6d ea be 77 62 37 3f e2 54 4e 3e
       0.2021185 -0.45787024 0.7163462 0.20149568
000340 da 44 a6 be 18 84 64 be f2 b1 a9 be d7 b5 45 be
       -0.32474405 -0.22316015 -0.33143574 -0.19307648
000350 1d 75 92 bd fe e3 88 3c da 2d ec 3e 7d 9d 56 be
       -0.07151244 0.016710278 0.46128732 -0.20958515
000360 1c 8f bb 3c c7 16 43 bf 91 b9 9d 3d aa 93 b2 be
       0.022895388 -0.7620663 0.077014096 -0.34878284
000370 3a bd b5 be 3a 31 a8 3e fc 92 00 bf 3d c5 29 bf
       -0.3549593 0.32850057 -0.5022428 -0.66316587
000380 0a 7c 2c be d5 56 46 3d 4b d6 9b 3e 7f c7 2b 3f
       -0.16844192 0.048422653 0.3043693 0.6710128
000390 ec 72 80 be fd d1 e9 3e b5 3b 53 be 07 cc 1d be
       -0.25087678 0.4566802 -0.20628245 -0.15409862
0003a0 6d e3 fd 3e af 63 be be a1 ca 8f 3e 72 c4 fb be
       0.49587575 -0.37185428 0.2808428 -0.49173313
0003b0 64 9a 19 3f 7c 4d 3d 3e c0 63 a1 bd 37 ba 25 be
       0.60001206 0.18486589 -0.07880354 -0.16184317
0003c0 ca 42 4d 3e 24 b0 4c 3e 19 5b 29 3e c2 4f 12 3f
       0.2004501 0.19989067 0.16538657 0.5715295
0003d0 87 f1 44 3e ec 60 9a bd 67 4b 46 3e ae fe 63 3d
       0.1923276 -0.07538018 0.19364701 0.055662803
0003e0 64 fa 67 bf 93 dc bf be b9 a0 d4 3e 1d c3 12 3f
       -0.9061644 -0.37472972 0.41528872 0.5732897
0003f0 b1 a8 6f be e9 57 3c 3f b1 78 f7 be 6b 5f 80 3b
       -0.23404194 0.7357164 -0.48334268 0.0039176247

encoder.rnn.weight_hh_l0 f4 [96, 32]
000000 49 ae 98 3d bf 04 43 bf b1 ea b2 bd e9 aa 5a bf
       0.07455117 -0.76179117 -0.0873617 -0.8541704
000010 e9 16 b2 be 41 0e 93 3e cb fb 8a bd 11 ee 9a be
       -0.34783104 0.28721812 -0.06786307 -0.30259755
000020 11 aa e4 3c 15 08 cd 3e 30 e0 89 3e 3b ef 7b 3f
       0.027913125 0.4004523 0.26928854 0.9841191
000030 52 17 5d 3e 33 7e a1 bb 53 39 b1 bd 05 53 0f 3e
       0.21590927 -0.004928374 -0.08653512 0.13996513
000040 23 1d 61 3e 5c 79 56 bd 69 b2 aa be 54 eb 4f be
       0.21983771 -0.05236183 -0.3333924 -0.20304614
000050 e2 de e7 be d4 77 d4 be be 32 26 bf 74 0f 81 be
       -0.45287234 -0.41497672 -0.64921176 -0.25207102
000060 05 08 e6 bc 3a 80 b8 be fa 5e f3 be 66 4f 99 3e
       -0.028079996 -0.3603533 -0.475334 0.2994339
000070 df 90 1a bf 41 16 e3 3e 12 8f bd be 92 9d da 3e
       -0.60377306 0.44352916 -0.37023216 0.42698342
000080 b0 ec c5 3e a9 b6 48 3d 46 22 47 be 59 be c6 3d
       0.3865714 0.049002323 -0.19446668 0.09704275
000090 96 97 2b bf 15 0c 2e be 6e 95 e7 be 5d e2 b6 be
       -0.67028177 -0.16996796 -0.45231193 -0.35719576
0000a0 73 2b 31 3e 68 f2 7a bd 5f 1d 85 3e 85 8d a8 3f
       0.17301731 -0.061266333 0.2599897 1.3168188
0000b0 34 d2 1a 3f 9b 59 fa 3e e7 4a 27 3f 49 92 9a be
       0.60476995 0.4889649 0.65348667 -0.30189732
0000c0 da 3b 7d 3d 16 42 a4 3e fb 6d 08 bf b0 e0 7c 3d
       0.061824657 0.3208167 -0.53292817 0.061737716
0000d0 c0 8a 33 3e 01 67 e7 3b 6f 56 96 3d 04 46 fa be
       0.17533398 0.0070618396 0.07340705 -0.48881543
0000e0 82 67 a6 be 67 90 99 be 68 b9 64 be b8 91 f7 3d
       -0.32500845 -0.29992983 -0.22336352 0.120883405
0000f0 81 d0 78 be a5 ef 0a 3f 6f aa 0d 3f 76 1b 2a 3f
       -0.24298288 0.5427192 0.55338186 0.6644815
000100 88 f0 f8 be 35 cc b5 3d 39 01 ed bd 9e ef 41 bd
       -0.4862101 0.0887684 -0.11572499 -0.047347657
000110 60 7e 97 be bf 1d 28 bf 50 88 c2 be 5a ee 77 be
       -0.29588604 -0.6567039 -0.37994623 -0.24212018
000120 21 aa 33 be 6e 25 27 3f a8 c0 94 bc f7 8b ce 3e
       -0.17545368 0.6529149 -0.018158272 0.4034116
000130 e4 35 c9 be b5 fa be 3e 2e 7e 95 3c 59 5d fe 3e
       -0.39298928 0.3730065 0.018248644 0.49680594
000140 5e e5 0b 3f 0c 13 4c 3e 8e 78 a5 bd eb 74 93 3e
       0.5464686 0.19929141 -0.080796346 0.2880014
000150 5d 5c fa 3e e5 ed 2e be 53 16 93 3e c7 d3 0d bf
       0.48898593 -0.17082937 0.2872797 -0.5540127
000160 e6 30 8e 3e 76 3a f8 bd 44 42 96 3e d2 36 2d 3f
       0.27771682 -0.121205255 0.29347432 0.67661774
000170 79 27 2c bf 0f 73 b7 be 22 22 43 be b4 dc b3 3e
       -0.6724773 -0.3582997 -0.1905599 0.3512932
000180 bb b0 1b 3d 22 5a 35 be a4 6d 96 3e 6c cb a4 3e
       0.03801034 -0.17710164 0.29380524 0.3218645
000190 0d da b0 3d 62 de fa 3d c8 70 78 3a 82 e1 39 bd
       0.0863534 0.122494474 0.0009477255 -0.045381077
0001a0 54 cd b1 3d 92 66 7d be e7 24 26 3e 42 22 92 3d
       0.08681741 -0.24746159 0.16225015 0.071354404
0001b0 c0 20 3e 3e 00 8c 92 be 3b 01 11 be 32 6f 0c bf
       0.1856718 -0.28622437 -0.14160626 -0.5485717
0001c0 a8 87 a3 3e 3a b4 ee 3d d4 eb 87 3e f6 a5 d0 be
       0.31939435 0.11655469 0.2654711 -0.40751618
0001d0 72 d1 cb 3e 88 13 a3 be 8b ef 1a be 8d 0d 66 be
       0.39808232 -0.3185084 -0.15130441 -0.22466107
0001e0 6b 37 1b be 4d 96 17 be ec 15 b5 bb 1e d3 94 3e
       -0.15157859 -0.14803429 -0.005526295 0.2906732
0001f0 d6 d0 a4 be 7f 96 ac 3e 28 63 7b 3d 95 6b 5e bd
       -0.3219058 0.3370857 0.06137386 -0.054301817
000200 8d a4 68 be d7 df f8 3e 62 2f dd 3d b5 8d da be
       -0.22719021 0.48608276 0.10800053 -0.4268624
000210 fe f8 0c be 9e f5 c8 3d 40 a3 8b 3d 97 7c 03 be
       -0.13766858 0.09812473 0.06818247 -0.12840496
000220 1e a4 1c 3d f3 67 d7 3e 77 87 17 3e c9 cc 44 bf
       0.03824245 0.42071494 0.1479777 -0.7687498
000230 fa c2 1e 3e 18 97 a5 3c 17 a5 74 3e 17 0e 4b 3f
       0.15504065 0.020213649 0.23891102 0.79318374
000240 63 02 51 be da 19 ea bd 78 80 25 be 21 6d f2 3d
       -0.20411067 -0.11430712 -0.16162288 0.11837221
000250 77 8f 91 3e 48 b2 fb 3e 99 d3 f7 3e 67 a4 e9 bd
       0.28429767 0.49159455 0.48403624 -0.114083104
000260 97 f1 b8 3d 89 07 d1 3e 0c 9c 67 3d 0c d5 75 bd
       0.090304546 0.4082606 0.056545302 -0.06001763
000270 e2 58 21 be 1c f6 62 3c 60 fc 20 3f 09 b3 97 be
       -0.15756562 0.013852622 0.62885094 -0.2962878
000280 ad 9a 2d 3e 42 a9 a2 be ab ed 18 3d 95 a7 ac 3e
       0.16953535 -0.31769758 0.037336033 0.33721605
000290 99 55 4e 3e 9f a7 ee be cc 50 10 3f ef e8 ee 3e
       0.2014984 -0.4661226 0.56373286 0.4666209
0002a0 fc 16 4c 3e 6b 45 d1 be b1 58 8f bb 57 63 1d 3f
       0.19930643 -0.40873274 -0.0043745865 0.61479706
0002b0 33 30 9d 3d 41 7c 57 be 98 af b5 be ab 5b f0 be
       0.07675209 -0.21043493 -0.3548553 -0.46944937
0002c0 04 fa 2d bd 59 ce 24 3f fd 09 4b be ca 56 48 3e
       -0.04247476 0.6437736 -0.19828029 0.19564357
0002d0 e9 d2 a9 3e a8 c5 c8 3d f9 3d c0 be 70 ff 2c be
       0.33168724 0.09803325 -0.3754728 -0.16894317
0002e0 4d 81 26 3d 27 6e bb 3e eb 21 aa be f5 a9 20 3e
       0.040650655 0.36607477 -0.33229002 0.15689833
0002f0 cf 3b fc 3e 06 bf 32 3c 45 ad 04 3f f3 23 99 3d
       0.4926438 0.010909801 0.5182689 0.0747756
000300 aa 4c 83 bd 2b af 78 bf 32 08 fe 3c 60 48 65 ba
       -0.06411107 -0.97142285 0.031009767 -0.00087464415
000310 98 6e df bd c7 15 66 3c f8 52 c2 3d f8 9a 32 be
       -0.10909766 0.014043278 0.09488481 -0.17441928
000320 ab 86 c7 3d 54 b5 fc 3e fb 77 24 3e 42 56 6c be
       0.09742483 0.49357092 0.16061394 -0.2307978
000330 4b 3f 08 3e 35 8a 85 be 21 24 05 3f cd 0b fb 3e
       0.13305394 -0.26082006 0.52008253 0.4903244
000340 5a 5b df 3e 4b a5 d5 be ff f0 1d bd d2 44 39 bf
       0.43624383 -0.4172767 -0.03855991 -0.72370636
000350 ff be 06 3e c2 07 a6 be 1a c9 cc 3e f9 a8 00 bf
       0.13158797 -0.32427794 0.39997178 -0.5025783
000360 e7 91 72 3e 2b 61 27 bd 6c 31 06 3f fa 81 31 3e
       0.2368847 -0.04086415 0.5241916 0.17334738
000370 59 6e f3 be ec 31 b4 bb 98 27 0f 3e df a2 f9 be
       -0.47545126 -0.005499115 0.13979948 -0.48757073
000380 82 78 48 be 8c 06 9c 3c 1c bf 0b be 6d cd 59 3d
       -0.1957722 0.01904609 -0.13647121 0.053174425
000390 4e 4d d1 bd 98 f1 02 3f 0b e8 9b 3e 61 b4 60 3f
       -0.10219823 0.5114989 0.30450472 0.87775236
0003a0 76 c0 f5 bd 50 55 46 3f 4f f9 11 3e 80 55 9e 3e
       -0.119996 0.77473927 0.1425526 0.30924606
0003b0 4b ad 14 3f a5 44 f3 be 30 d4 f5 3e 79 56 01 bf
       0.58076924 -0.4751331 0.4801345 -0.5052257
0003c0 0a 1e 26 be 1b 29 a3 bf ca 3f 31 3f e5 09 f6 be
       -0.16222396 -1.2746919 0.6923796 -0.48054424
0003d0 05 a9 0a bd 3c 39 80 bf 3a 3e 3a bf 75 04 21 3f
       -0.033852596 -1.0017467 -0.727512 0.62897426
0003e0 bd e5 2b 3d fb 16 80 be 3c ab d8 be f8 fb 59 3e
       0.041967142 -0.25017533 -0.4231814 0.21287525
0003f0 24 7f 7e 3c a9 cb 05 3f 9c 59 ef 3d 14 b1 12 bc
       0.015533242 0.52263886 0.116870135 -0.0089533515

encoder.rnn.bias_ih_l0 f4 [96]
000000 5c 79 2f be 6d 31 8a be 7e ef b3 3c 69 c1 61 bd
       -0.17136139 -0.26990834 0.021964785 -0.05511609
000010 f2 bc bf 3e 6f 21 c2 3c 17 44 de bd 1e a2 5f bd
       0.3744884 0.023697583 -0.10852831 -0.054597966
000020 ba f5 71 bd cb 6b 8f be e3 e3 03 3f ba 8a a7 be
       -0.059072234 -0.28011927 0.515196 -0.32723027
000030 2a f8 3d 3e e8 12 af 3d 03 78 73 3c 37 1a 4c 3d
       0.18551698 0.08548528 0.014860156 0.049829688
000040 7c 5e 11 3e 54 cf 40 3e e9 9b 03 3d b4 ed 82 3e
       0.14196199 0.1882909 0.03213111 0.25571978
000050 46 d7 78 3e 39 9a ff 3d 67 8a 4f 3e 91 64 50 3c
       0.2430087 0.124805875 0.2026764 0.012719289
000060 0a 69 53 be a9 fc 52 be 64 b3 51 3e 69 91 ee bd
       -0.20645538 -0.20604195 0.20478588 -0.116488285
000070 b5 1f 80 be e2 06 1e 3e 73 15 85 bc ec 88 7f 3e
       -0.2502419 0.15432313 -0.01624558 0.24954575
000080 fc a0 8e be 7e 67 45 3e 2f d0 62 be 1c 13 d7 be
       -0.27857196 0.1927776 -0.22149728 -0.42006767
000090 14 47 0e bf f2 a0 96 be b8 c0 0f bf 3b 19 a7 bd
       -0.55577207 -0.29419667 -0.5615344 -0.08159109
0000a0 ad 6b 9f be e7 4f a4 bd e8 29 8a 3e d0 f5 ae be
       -0.31136838 -0.08023053 0.26985097 -0.34171915
0000b0 d6 f9 63 be 76 a7 01 bf 25 30 4c bd a3 63 13 3e
       -0.22263274 -0.5064615 -0.0498506 0.14393477
0000c0 84 13 1c be 67 32 bc bd dd 92 a5 be 70 7c 7d 3e
       -0.1524182 -0.09189301 -0.3233861 0.247545
0000d0 84 c6 bb be 94 52 e5 be 24 3c a5 be 39 f2 d1 be
       -0.36674893 -0.44789565 -0.32272446 -0.41005114
0000e0 99 cc 0d be 71 11 21 bc 93 09 ec be 77 2d cf bc
       -0.13847579 -0.0098308185 -0.46101055 -0.025290234
0000f0 6d 4a 6b be a2 2e 36 be f8 45 98 ba af 69 2c 3e
       -0.2297761 -0.17791227 -0.0011617532 0.1683719
000100 0e 18 5a 3e 9d 12 49 3e bd 6c 19 be ea 3d 06 be
       0.21298239 0.19636007 -0.14982887 -0.13109556
000110 d2 55 a0 3d 89 ec 3e 3e 27 dc 84 be cf 28 c8 3e
       0.07828869 0.18644919 -0.25949213 0.39093634
000120 14 0e 2a 3e 19 a0 1a be 41 74 3d be 54 01 12 3d
       0.16606933 -0.15100135 -0.18501379 0.035645798
000130 d9 9f d7 3d 5a 02 9d bd 94 c1 79 3e a7 26 16 be
       0.105285354 -0.07666464 0.2439025 -0.14663182
000140 9c 8c f1 3d d4 65 8f 3c 60 ac 19 bd d5 e8 a2 be
       0.11794397 0.01750461 -0.037517905 -0.31818262
000150 3d 85 91 bd da ce 60 3e 57 cd c7 bd 05 87 02 bd
       -0.07105491 0.21953908 -0.09755962 -0.031867046
000160 9f 58 b7 3d 17 8c b8 3d bc 4d f2 bd dd 11 27 3e
       0.0895245 0.09011095 -0.11831233 0.16315408
000170 d0 76 82 3e fa 7f 3a 3d d6 8f 2b 3d b9 ad 34 bd
       0.25481272 0.045532204 0.04188522 -0.044110987

encoder.rnn.bias_hh_l0 f4 [96]
000000 e5 c2 cc bd e1 cc 99 be d6 6b 57 be ec 53 50 be
       -0.09998111 -0.30039123 -0.2103723 -0.20344514
000010 46 ad a9 3e bb 0a bf 3c 3a 32 d6 bd a8 bb 6a be
       0.3314001 0.023320546 -0.10458799 -0.22923148
000020 a4 00 bc bd ed 7f 64 be 3f 3f eb 3e 15 d4 36 be
       -0.0917981 -0.22314425 0.4594669 -0.1785434
000030 6d cd 61 3e 6f 8e 05 3e 4f dd 55 bd 24 30 e4 bd
       0.2205102 0.13042615 -0.05221301 -0.111419946
000040 25 a6 c8 3d c2 2a 8b bd 43 17 0d bd 5b 95 07 3e
       0.097973146 -0.06795265 -0.034446012 0.13240568
000050 a7 8b 11 3e 0c 3f a5 3e 81 77 a7 3e 13 6d f6 bd
       0.1421343 0.32274663 0.32708362 -0.12032523
000060 3b fb a8 3d 91 2e df bd bb f7 8a 3d 4b 18 a8 3d
       0.082510434 -0.10897554 0.06785532 0.082077585
000070 2d 23 ee bd 33 0c b7 3d c3 70 da 3d ed bd 56 3d
       -0.11627803 0.08937874 0.10666039 0.05242722
000080 c3 d7 7f be 95 27 3f 3e ca 75 14 be 60 74 f9 be
       -0.2498465 0.18667443 -0.14498058 -0.487216
000090 b3 c1 f4 be 3c 1e c4 be ca 43 20 bf 56 fc bd bd
       -0.4780403 -0.38304317 -0.6260344 -0.09276645
0000a0 89 49 e4 3c b1 c2 f9 bd d7 a5 c1 3d e7 88 85 be
       0.027867096 -0.121953376 0.094554596 -0.2608101
0000b0 c1 3e 54 be 38 8b 4f bf 46 e9 ca bd 40 aa 17 bc
       -0.20727064 -0.81071806 -0.099077746 -0.009256899
0000c0 c1 2c 81 be e8 30 c3 be bc b0 b0 be 74 73 87 3e
       -0.25229457 -0.3812325 -0.34509838 0.2645527
0000d0 0c a0 81 bd fd ee df be db 6d d4 be ec 64 a3 be
       -0.06329355 -0.4373702 -0.41490063 -0.31912935
0000e0 82 d6 de be 10 58 a5 bd 60 5a e4 be f3 38 25 3e
       -0.4352303 -0.08073437 -0.446002 0.16135006
0000f0 1f ad b6 be ba 3b 5d 3c c3 f3 dd bd 79 18 8f bd
       -0.35678956 0.013503009 -0.108375095 -0.0698709
000100 2f c7 b2 3d f5 83 dc 3d 31 e8 bd be 47 dd b2 3c
       0.087293975 0.10767356 -0.3709121 0.021834029
000110 1a 6c 73 bc ff 62 7a 3e 62 9c 7d 3e c9 18 3b 3e
       -0.014857316 0.24451827 0.24766687 0.18271174
000120 61 c7 62 3d 23 64 57 3d ba af 85 3d 06 95 72 3d
       0.055365924 0.052585732 0.06527658 0.05922415
000130 d5 09 29 3e 84 ed 20 3e 8e 9d 1b 3e d9 f1 43 3d
       0.16507657 0.15715605 0.15196821 0.047838066
000140 a2 9e 0d be 92 40 94 3d 23 d5 b7 3d 48 1e b6 ba
       -0.13830045 0.07238878 0.089761995 -0.0013894523
000150 db e8 de 3d c2 45 9d bd 34 38 92 be 32 2d eb 3d
       0.108842574 -0.07679321 -0.28558505 0.1148323
000160 1f d3 da bd 35 e1 16 3e c1 d0 0c 3e 21 e5 a5 3e
       -0.106847994 0.14734347 0.13751508 0.32401374
000170 19 50 a8 3d aa 80 e6 bd f2 b0 9d 3e 4a de 22 be
       0.082184024 -0.112550095 0.3079906 -0.15905109

encoder.rnn.weight_ih_l1 f4 [96, 32]
000000 ff 72 7b 3e 82 a0 00 3e 0c d7 37 be ac 23 d2 3d
       0.24555586 0.12561229 -0.17953128 0.1026071
000010 b4 b2 60 3e 5a 17 2d bd 7f 5b d0 be fb 89 1c be
       0.2194317 -0.042258598 -0.40694806 -0.1528701
000020 f9 36 b0 3e 0c aa da bd 51 a2 ab 3e 5f 18 99 be
       0.3441694 -0.10676965 0.33522275 -0.29901406
000030 c0 e1 c4 bd f0 72 c1 3e f9 5c d8 3e 7f 14 96 bd
       -0.09613371 0.37783003 0.42258433 -0.07328128
000040 d9 d6 ab 3e e6 61 ea 3c dc 3b 4c bd 08 2e ae be
       0.33562353 0.028611135 -0.049861774 -0.34019494
000050 dd 23 94 3d 08 be 95 be ce 51 2a bf 5d a3 1b 3e
       0.07233403 -0.29246545 -0.66531074 0.15199037
000060 e5 ad 04 bd e8 ed 46 3f 02 f6 a6 be 41 63 8f bd
       -0.0323924 0.77706766 -0.32609564 -0.07001353
000070 03 73 36 3e 38 06 4c be cd 62 7e 3a 86 83 23 bd
       0.17817311 -0.19924247 0.00097040535 -0.039920352
000080 ec 6c 3f bd 59 b8 c5 be 7a 00 7e be 82 ca cf be
       -0.046734735 -0.3861721 -0.2480487 -0.4058419
000090 e9 db 20 bf 2a fe cd be 81 c3 66 3f 71 07 76 3e
       -0.62835556 -0.40232974 0.90142065 0.24026276
0000a0 95 a3 bc 3e 2b 3b a9 be a9 7a 6d 3f 3b 4b 84 3e
       0.36843553 -0.33052954 0.9276529 0.25838646
0000b0 e2 e5 17 3e 5d d3 aa be 32 47 dd 3e 06 f0 e8 be
       0.14833787 -0.33364382 0.4321838 -0.45495623
0000c0 f3 a5 8e 3e a5 b1 4c bf 9c 74 10 3f 35 91 7d be
       0.27860984 -0.79958564 0.5642793 -0.24762423
0000d0 2a 51 64 3f 71 56 41 bf 80 c1 4d 3d 7d 2f a5 be
       0.89186347 -0.75522524 0.050233364 -0.32262793
0000e0 2e 67 09 3e e5 89 c8 be 5e 30 fb be 04 0e b8 be
       0.13418266 -0.39167705 -0.4906034 -0.35948193
0000f0 30 69 9b be f1 c8 ed 3d de 97 4a 3f 06 5a b2 bd
       -0.3035369 0.11610592 0.7913798 -0.08708577
000100 e7 60 31 be e9 0f ac be 10 de 06 3e 33 5b 58 be
       -0.17322122 -0.33605888 0.13170648 -0.2112854
000110 b3 05 f4 bd bf 24 f0 3d f4 6f b9 3e cb a5 69 be
       -0.119151495 0.11725759 0.36218226 -0.22817151
000120 63 2d 75 3f 38 ce 99 3e 73 c5 bb be d6 71 da 3e
       0.9577238 0.30040145 -0.3667408 0.42664975
000130 2a 74 88 3d 12 50 dc be 2a 75 61 3e 4e 91 57 3e
       0.066627815 -0.4302984 0.22017351 0.21051523
000140 3b f5 42 bf 19 fc 49 bf 0f 23 f0 3d 88 b4 1a bf
       -0.7615544 -0.78900295 0.11725437 -0.6043172
000150 e6 3e 86 bd fb 39 39 bd 40 04 de 3d eb 6e 2d bf
       -0.06554966 -0.04522131 0.108406544 -0.6774737
000160 87 cc 8f be 99 49 ad be bb af c6 bc 73 17 91 3e
       -0.2808573 -0.33845213 -0.024253717 0.28338203
000170 73 b2 19 bf 0c 4f 3d 3f c7 10 2e 3f a1 59 9f be
       -0.60037917 0.7394874 0.6799435 -0.3112307
000180 c3 67 08 3e b3 d4 f8 bc c1 62 92 3e 41 59 f3 be
       0.13320832 -0.03037486 0.28590968 -0.47529033
000190 7e cd 91 be da d7 fe be 70 33 29 be 35 60 66 be
       -0.2847709 -0.49774057 -0.16523528 -0.22497638
0001a0 34 d8 64 3f 29 7e 18 3e 59 e8 b4 3e cc 91 6b be
       0.893924 0.14891876 0.35333517 -0.23004836
0001b0 d4 af 1c bd ed e4 12 3e 56 60 ef be f0 4e 70 bf
       -0.03825362 0.14345141 -0.46753186 -0.9387045
0001c0 31 0a ca 3e 2b 7d 0c 3e 60 fe ce 3e 0d ff c6 be
       0.394609 0.13719623 0.40428448 -0.38866463
0001d0 28 26 34 3e ef 90 dd be b0 03 5c 3e 86 d7 9e 3e
       0.1759268 -0.43274638 0.21485782 0.31023806
0001e0 7a 90 3b bf 05 f8 db 3e 77 df b3 bd e4 c4 c2 3e
       -0.7326733 0.4296266 -0.08782857 0.3804084
0001f0 d7 a9 f3 3d c6 18 7f bd b9 e6 57 bf fc 39 bb 3d
       0.11897629 -0.062279485 -0.8433643 0.09141919
000200 80 46 d4 3e 41 18 1d bf 82 7f 3d bf 1f af 91 3e
       0.41460037 -0.61365134 -0.74022686 0.2845392
000210 ae 9a 07 3d 49 82 b8 be b8 7a 0a bf e3 e6 15 3f
       0.0331065 -0.360369 -0.54093504 0.5855543
000220 1e 4e 1d bf 2a cb c4 3e 1e 5a f9 3e fa bf 6e 3f
       -0.6144732 0.38436252 0.48701566 0.93261683
000230 74 00 7d be 8d c2 04 bf ec aa 95 3d 4c 10 1e bf
       -0.24707204 -0.5185936 0.073079914 -0.6174362
000240 5e e0 0a bf f1 5b 98 3e 9e 78 23 3c 82 3b 14 3f
       -0.5424861 0.29757646 0.009977488 0.579033
000250 4e ed c6 be 36 bf bc bd b8 59 6b 3e e1 cc 43 3e
       -0.38852924 -0.09216158 0.22983444 0.19121124
000260 ff 22 9f be b0 e6 82 3e 0f a9 4a bd 81 e5 ba 3e
       -0.31081387 0.25566626 -0.049477633 0.36503223
000270 94 02 e5 3e 4f 90 12 3e d5 b6 ea 3d 6c 85 7a be
       0.4472853 0.14312862 0.11460654 -0.24464959
000280 00 c5 d8 3e 63 d1 01 bf 53 e6 e0 be 6e 25 e0 3d
       0.423378 -0.50710124 -0.43925723 0.10944639
000290 cb 61 96 be 92 4e 9d be 90 94 02 be aa 94 d7 be
       -0.29371485 -0.30724007 -0.12751985 -0.4210561
0002a0 23 14 7e bf 24 90 17 3e b4 81 bb 3e ae 22 88 3f
       -0.99249476 0.14801079 0.36622393 1.0635583
0002b0 4f 4c 03 3f 36 16 88 3e f9 e2 8d be a7 5d 80 bf
       0.5128831 0.26579446 -0.2771223 -1.002858
0002c0 90 0a e8 3e a1 b9 43 3e cd be 86 bd 7f 19 ce be
       0.4532056 0.1911378 -0.06579361 -0.40253827
0002d0 1d 26 9a 3e 39 73 44 bf 90 b9 6f be cb 30 21 be
       0.30107203 -0.76738316 -0.2341063 -0.1574127
0002e0 30 d6 96 bc 54 39 26 bd 42 95 ab be 62 95 28 3c
       -0.01841268 -0.040582016 -0.33512312 0.010289522
0002f0 61 54 9e 3d 64 b8 69 be 6d f4 2a 3f 14 96 6a 3e
       0.07730938 -0.22824246 0.66779214 0.22908813
000300 e6 ca 21 3f f4 0d 0a bf 74 54 33 be 2e 5b 2d 3e
       0.63200223 -0.5392754 -0.17512685 0.16929314
000310 98 21 33 bf 26 59 2b bd 5c 47 31 be 5f 3b 71 3e
       -0.69973135 -0.041833065 -0.17312378 0.23557805
000320 7d 79 97 bd e2 8f aa bc 74 97 d9 be b9 0f a6 3e
       -0.07396219 -0.020820562 -0.42498362 0.3243387
000330 fa 7d ba 3e 70 92 1c 3f 74 0f 08 be 7a a4 1f be
       0.36424237 0.61160946 -0.13287145 -0.15590087
000340 e6 d5 05 3f 16 19 10 3f f4 ec 59 3f e7 45 17 bd
       0.5227951 0.5628828 0.85127187 -0.0369319
000350 e9 f9 17 bf ba 3d c6 3e 65 9c 83 3e 63 e2 62 bf
       -0.5936571 0.3871897 0.25705257 -0.8862669
000360 6e db 9a be 64 ef f9 3c f3 e8 8d be d3 2b 03 3e
       -0.30245537 0.030509658 -0.2771679 0.12809686
000370 c7 4c aa 3e 4b 11 1c bf df 48 c1 3e 3d 5c 68 be
       0.332617 -0.60963887 0.3775091 -0.22691436
000380 0a 7a 13 bf 1c 8a 8b 3e 56 7c 97 3e 1e d7 ff 3e
       -0.5760809 0.27253807 0.29587048 0.4996881
000390 4e 39 da 3e 87 d3 c1 3e 12 9f 05 3e b9 c9 63 be
       0.42621845 0.37856695 0.13048962 -0.2224492
0003a0 bf 86 f6 3e b9 13 b6 3e c8 a7 b0 be c7 39 3b be
       0.48149678 0.35561922 -0.34503007 -0.18283759
0003b0 23 81 63 3e 89 34 99 3d d3 25 65 bf c4 0a 2c 3f
       0.2221723 0.074807234 -0.8951084 0.6720393
0003c0 b3 de 63 3f f2 8f 15 3e af ca c8 bc 87 bf 8c 3e
       0.8901169 0.14605692 -0.02451071 0.27489874
0003d0 24 0d df be 22 f5 d7 3e 32 f1 4b bf 9e 23 9b bd
       -0.43564713 0.4217921 -0.7966491 -0.07575153
0003e0 80 fc 4b be 50 20 b9 be da c9 b5 be 20 31 01 3e
       -0.1992054 -0.36157465 -0.35505563 0.12616396
0003f0 c1 52 e9 3e 86 4e fe be 95 30 c2 be 5e b7 0c 3f
       0.4557095 -0.49669284 -0.3792769 0.54967296

encoder.rnn.weight_hh_l1 f4 [96, 32]
000000 f0 84 69 3d a9 fe 92 3f b7 6d 54 3d 30 6b ab be
       0.057011545 1.1483966 0.051862445 -0.33480215
000010 1e 1b 1f bf c6 02 0a bf 79 62 f7 be bb 6e 93 bd
       -0.6215075 -0.5391048 -0.48317316 -0.071988545
000020 f8 4c 81 3e f4 f5 b4 3e e3 ef 4f 3e 9b 73 95 be
       0.25254035 0.35343897 0.20306353 -0.29189762
000030 7c d4 67 3e ba 9a 27 3f 6d dc c0 3e 32 17 93 3e
       0.2263965 0.6547047 0.37668172 0.28728634
000040 58 97 32 3f b3 66 32 3f d9 82 8e be 73 a3 19 bf
       0.6976218 0.69687957 -0.27834204 -0.6001503
000050 ad ff f1 3e da db 74 be e9 8a d7 be 29 ea 09 3f
       0.47265378 -0.23911992 -0.42098168 0.53872925
000060 8c e0 f1 bd fd c0 d1 3e 13 09 a1 be 56 d9 28 3f
       -0.11810407 0.4096755 -0.31452236 0.6595663
000070 20 15 4d be 92 b2 24 3e 36 9b 90 be 4d d6 47 3e
       -0.2002759 0.16083744 -0.28243417 0.19515343
000080 43 c0 3b be e7 00 6f be 3a 70 15 3f 9f 3a 6a bd
       -0.18335061 -0.23340188 0.5837437 -0.05718481
000090 5a 80 13 3e 76 eb d1 be 4c 08 89 3e 22 2b 15 bd
       0.14404431 -0.40999955 0.26764143 -0.036418088
0000a0 b6 8a 96 3e f6 ca 97 3e 40 bb 25 be a2 f7 1a be
       0.29402703 0.29647034 -0.16184711 -0.15133527
0000b0 7f 0a 19 bf 76 c4 ef bd 54 f1 45 be 05 e6 42 3e
       -0.5978164 -0.11707394 -0.1933034 0.19033058
0000c0 b3 da 7a 3d 4b 20 4e be 96 e6 84 be 53 e1 6e bf
       0.061243724 -0.20129506 -0.25957173 -0.9331257
0000d0 aa 06 16 3e 48 55 2c 3e a3 ca 14 be 0b 20 07 be
       0.1465098 0.16829407 -0.14530425 -0.13195817
0000e0 26 e4 7f 3e a4 95 b6 bd 39 51 56 3e 41 01 ff 3e
       0.24989375 -0.089152604 0.20929421 0.49805644
0000f0 a1 2e a3 be cd 88 90 be 6e 7c f9 be 23 4a e3 3e
       -0.31871513 -0.2822937 -0.48727745 0.443925
000100 59 04 3f bc 08 a2 ac bd b5 ee 32 bf b3 4a 90 be
       -0.011658751 -0.084293425 -0.6989549 -0.2818199
000110 eb 6f 1e bf 6b d1 83 be 1e 81 0f 3e 5b 3b 12 bd
       -0.61889523 -0.2574571 0.14014098 -0.035701137
000120 07 74 09 bf 01 28 e7 3d b5 4d 65 bd 6b d2 72 3d
       -0.5369267 0.11286927 -0.05598231 0.0592827
000130 ec ab aa be ad 84 59 3f 29 5b 7c 3e e7 8b 0d 3e
       -0.3333429 0.8496807 0.2464415 0.138229
000140 c6 7c a3 bb b1 74 b3 3e 54 3f d7 be 0d 00 5f 3e
       -0.0049892394 0.35049966 -0.42040503 0.21777363
000150 89 a9 3d 3f 2c c2 2c 3f 9c 88 c1 be f6 51 12 be
       0.74086815 0.6748378 -0.37799537 -0.14289078
000160 18 0f 94 3d 8b aa 24 be fc 49 be bd 85 f5 da 3e
       0.072294414 -0.16080682 -0.09291455 0.42765442
000170 74 05 0a be 97 bb 11 3f d1 60 c3 be 58 c0 4b 3d
       -0.13478643 0.56926864 -0.38159803 0.04974398
000180 f3 d9 b4 3d 8d 52 11 3d 04 f4 a0 be 0b 76 31 3e
       0.08830633 0.035479117 -0.3143617 0.17330186
000190 92 f6 44 3d 2a 59 56 be 7f 7d f9 3e ef da 8f 3d
       0.04808671 -0.20932451 0.48728558 0.0702418
0001a0 d0 15 8a bd 69 44 5b be ed 34 a6 3d 70 69 c3 3d
       -0.06742442 -0.21412815 0.081155635 0.09541595
0001b0 dc 2b 14 bf 6b 9f e0 be 2e b1 b9 3d eb d3 b7 be
       -0.57879424 -0.43871626 0.090669975 -0.35903868
0001c0 3c d2 13 bf 28 5b ab 3d 13 20 51 be 19 14 df bc
       -0.5774267 0.08366996 -0.20422392 -0.027231263
0001d0 55 9f 04 bf c2 fd 6b 3e e0 64 31 3e ef 0e e4 3e
       -0.5180562 0.2304602 0.17323637 0.44542643
0001e0 6c 4a f0 b9 7e f4 00 3e 12 35 18 bd 40 ab e8 3d
       -0.00045831816 0.12593266 -0.037159987 0.11360788
0001f0 e2 54 de 3c 5d ea 8e 3d 41 45 a0 3e dc b2 d8 bb
       0.027140085 0.06978295 0.31302837 -0.0066131186
000200 13 d2 d3 bd 60 42 29 bf 22 04 2b 3e 2c 61 14 3e
       -0.10342803 -0.66116905 0.16700795 0.14490193
000210 5f e6 c7 bd c2 1e f6 3e 46 f4 85 3e 68 aa 1c be
       -0.09760737 0.4807034 0.26162928 -0.1529938
000220 34 3c f6 3d 86 7f 0e 3e 8d 61 dd be 78 b5 57 be
       0.120232016 0.13915834 -0.43238488 -0.21065319
000230 c6 6b b3 be 13 0b aa bd c5 f5 66 be 3e 3c 6b be
       -0.35043162 -0.083028935 -0.22554691 -0.229722
000240 06 c7 27 bd 24 5a 90 bc cd e3 8c bf 2b f2 1b be
       -0.040961288 -0.017621107 -1.1007019 -0.15229098
000250 36 e4 ea 3d 89 a2 cf 3d b9 5f 6e bc 4e 5a 04 3e
       0.11469309 0.10138423 -0.014549189 0.12925074
000260 a7 27 5a 3e 24 12 2b bd f1 64 b8 bd ac ba 7a 3d
       0.21304189 -0.041765347 -0.09003628 0.06121318
000270 d6 4f f3 ba 92 a1 7c bf 78 48 6c ba 80 c6 c5 bc
       -0.0018563222 -0.98684037 -0.0009013484 -0.024142504
000280 2e 35 20 bf a1 6e 8c be 49 26 e8 3e 8d 24 03 3f
       -0.62581146 -0.27428153 0.4534171 0.5122765
000290 93 0b 81 be dc 80 9d 3d 2a 0f 8e 3c 93 04 01 3e
       -0.25204143 0.076905936 0.017341215 0.12599401
0002a0 74 32 2e 3e 86 45 7b bc f5 c9 9c 3d 80 8a 02 3e
       0.17011434 -0.0153364 0.07655708 0.12748146
0002b0 a0 4a ac 3e f2 29 0e bf 24 d7 7b 3a 63 fa 86 3e
       0.33650684 -0.55532753 0.00096069486 0.26362905
0002c0 24 9e 9e 3e 6f 87 3e 3e 3f 1e 4f 3e f4 8b a4 3e
       0.30980027 0.18606351 0.20226382 0.32138026
0002d0 26 e1 ad 3d 13 60 43 be af 9c b0 bd dd b3 85 be
       0.08490209 -0.19079618 -0.08623635 -0.26113787
0002e0 49 49 7b be 2a 0d b1 3d b7 1f 91 bd de 76 84 be
       -0.24539675 0.08645089 -0.07086127 -0.25871938
0002f0 ed b9 1d 3f 90 75 dc be 28 a5 b5 be dc 7d f1 bd
       0.61611825 -0.43058443 -0.35477567 -0.11791584
000300 b2 9e b8 3c 5d db fb 3e c0 80 70 3e 7f 82 67 be
       0.02253661 0.49190798 0.23486614 -0.22608374
000310 6d 35 bb 3d 08 a4 7e bd e4 c8 8d bf 04 45 0f bf
       0.091410495 -0.06216815 -1.1076932 -0.55964684
000320 8b 43 17 be 45 7d ae 3e e5 19 27 3e 2f af ad bd
       -0.1477186 0.34079948 0.16318472 -0.08480679
000330 08 60 83 ba 07 58 05 be 67 41 d6 3d 8d 43 86 bd
       -0.0010023126 -0.13021861 0.10461693 -0.06555853
000340 c1 c9 e6 3e ec ee 95 3d 91 e9 9f be 3d 80 de 3e
       0.450758 0.07320961 -0.31232885 0.43457213
000350 bc de 94 3e ff 6a 4a be 07 12 e8 3e 07 4d a2 bd
       0.29076183 -0.19767378 0.45326254 -0.07924848
000360 26 e7 44 be 1d 88 b5 be 8a ba 80 bd bc b4 e0 3c
       -0.19228801 -0.3545541 -0.062855795 0.02742993
000370 2f 71 46 3e bc 4f 15 3f 5e 50 60 3e 5e bc 1b 3d
       0.19379114 0.5832479 0.21905658 0.038021438
000380 e9 6f bc 3e dd dc 02 be f8 17 dc 3e 09 48 44 3e
       0.3680413 -0.12779565 0.42987037 0.19168104
000390 9e 0c 8e 3e d9 ba a4 be 55 18 9a be cd 28 3a be
       0.27744 -0.32173803 -0.3009669 -0.18179627
0003a0 36 5c 3e bf 94 2d 5d be 76 f9 4f bd 39 d1 25 bf
       -0.7435945 -0.21599418 -0.050775014 -0.64772373
0003b0 f5 7d a1 bd d7 44 bf 3d 53 d9 fd 3d 32 e1 ee 3e
       -0.078853525 0.09339302 0.12394967 0.46656185
0003c0 12 fd cb bd da 92 44 3e e2 80 8a be 5b 39 8a 3e
       -0.09960379 0.19196644 -0.27051455 0.26996884
0003d0 cf a2 4b bd f3 f3 1c 3f a3 94 b5 be c7 98 dd 3d
       -0.049715813 0.61309737 -0.35464963 0.108201556
0003e0 d7 f1 bd 3e 5e e7 06 bf 1a 96 31 be 10 59 c9 be
       0.37098572 -0.5269679 -0.17342415 -0.39325762
0003f0 6e ba 2b 3f 49 fa 25 3f b9 89 eb be f3 81 c1 bd
       0.67081344 0.6483503 -0.46003512 -0.09448614

encoder.rnn.bias_ih_l1 f4 [96]
000000 83 95 06 3b c8 68 1b bd b3 c9 33 bd 8d 05 b4 be
       0.0020535893 -0.037941724 -0.043893527 -0.35160485
000010 8a 19 3d 3e 90 c6 3d be 56 45 67 bb 48 0e 5b be
       0.18466774 -0.18532777 -0.003528913 -0.21392167
000020 c6 42 68 be c1 36 9d be 2f 39 26 bd 9b 94 d0 3e
       -0.22681722 -0.30705836 -0.04058188 0.40738377
000030 11 2b ca 3e 23 6d b7 be 26 c3 95 3d 59 76 f1 bd
       0.39485982 -0.35825452 0.07312612 -0.11790151
000040 60 7f 7e 3e 28 4e 6f be ea a2 16 be 79 21 a8 3e
       0.24853277 -0.23369658 -0.14710584 0.32838038
000050 54 0f 1a 3f 36 1c a0 3e d8 b7 5e 3f da 56 30 3e
       0.6017964 0.31271523 0.86999273 0.17220631
000060 93 61 81 3d 7b 50 44 3e 49 01 ab 3d 95 8c ea bd
       0.06317439 0.19171326 0.083498545 -0.11452595
000070 4a e2 1d bd 70 39 10 3d ec 21 ee 3b 1f 57 54 be
       -0.038545884 0.035211027 0.0072672274 -0.20736359
000080 23 80 e6 3d 38 0e b0 be c6 d2 69 be c8 a7 06 bf
       0.11254909 -0.34385848 -0.2283431 -0.52599764
000090 2d 77 0a bf c5 91 e1 bd a8 03 df be b9 0f fa 3c
       -0.540881 -0.110141315 -0.43557477 0.030525075
0000a0 65 ce 33 bf 43 19 4d be bd ef 3e bd 33 72 07 bf
       -0.7023681 -0.20029168 -0.04661535 -0.5290863
0000b0 73 98 a1 bf e5 37 02 bf 37 02 73 bf de c3 06 be
       -1.2624649 -0.5086654 -0.94925255 -0.13160655
0000c0 0d 34 d9 3d b9 b0 53 be 32 3b 24 be a1 1a 12 bf
       0.10605631 -0.20672883 -0.16038206 -0.5707188
0000d0 38 5e 69 bd cb 2d 0d bd ff d3 7f bf 76 b2 f6 be
       -0.05697462 -0.0344675 -0.99932855 -0.4818303
0000e0 ce f1 c6 be a1 b4 f4 be 67 76 2c bf 78 76 44 bf
       -0.38856357 -0.4779406 -0.6736817 -0.7674327
0000f0 7f 9a 83 bd a1 ff 17 bf b5 26 12 3e a1 70 93 be
       -0.06425952 -0.59374434 0.14272578 -0.28796867
000100 62 1e 8e be cc 56 94 3d f1 3f c1 3e 7e fc 80 3e
       -0.27757555 0.07243118 0.37744096 0.25192636
000110 64 b1 0c be 4f 20 24 3e e9 10 8c 3c 3f 81 e0 be
       -0.13739544 0.1602795 0.017097907 -0.43848607
000120 ef 69 d6 3d 67 71 d2 3e 13 31 b8 be b1 72 15 be
       0.10469424 0.41102144 -0.3597494 -0.14594533
000130 fe be d3 bd 1c fd de ba 4d 32 fe 3d d6 51 c4 bd
       -0.10339163 -0.0017012688 0.12411938 -0.095859215
000140 95 02 ae 3e ed 1e af 3e bf fd 65 be 01 ad 15 3e
       0.33986345 0.34203282 -0.22460078 0.14616777
000150 13 19 09 3f dd 75 a8 3c 4a 58 59 be ea 67 c3 ba
       0.53553885 0.020564014 -0.21225086 -0.0014908288
000160 80 97 9b be 29 e4 de bd 5b e5 41 3e a4 be a0 bd
       -0.30389023 -0.10883362 0.18935148 -0.07848862
000170 2e 47 90 be 95 2b b0 bd 6a cd 92 be 76 af 0f 3f
       -0.28179306 -0.086020626 -0.28672343 0.5612711

encoder.rnn.bias_hh_l1 f4 [96]
000000 5b c0 4a bc 75 ef 5a 3d 0d b8 20 be a9 5f ba be
       -0.012374963 0.05345102 -0.1569521 -0.36401108
000010 0e 88 26 3e d9 84 fd bd ca e6 94 3e ba 7b 79 be
       0.16262838 -0.12378854 0.29082328 -0.24363604
000020 ca 11 82 bc 37 d8 55 be 4e 0d 3a bd 92 fb 28 3f
       -0.015877623 -0.2088326 -0.045422845 0.66008866
000030 f3 8a ce 3e 90 43 01 bf 34 76 9c 3e 56 fc 5e be
       0.40340385 -0.5049372 0.30558932 -0.21775946
000040 33 c3 5b 3e f5 23 93 be 84 bf 9c be 78 a8 d8 3e
       0.21461181 -0.2873837 -0.30614865 0.4231603
000050 8f 94 43 3f 22 97 05 3f 48 5f 6b 3f d0 bb a1 3e
       0.7639856 0.52183735 0.9194226 0.31588602
000060 d1 f3 61 3d 9b f3 8c bd b9 5e 2d be 6f 2f b3 3c
       0.055164162 -0.068824016 -0.16930665 0.021873204
000070 a2 b6 50 3d 85 7b b4 3c 58 9e 51 3b c2 65 99 3d
       0.050955422 0.022031555 0.003198525 0.07490112
000080 d3 8c a4 3e 64 ee 9f be 42 91 73 be c4 f8 1a bf
       0.3213869 -0.31236565 -0.2378588 -0.60535836
000090 4a 9f 3e bf 54 1b 71 be 63 a7 00 bf de 95 a9 3d
       -0.74461806 -0.23545581 -0.5025541 0.08280538
0000a0 0c 90 1e bf 47 1c 9c be 3b 80 d1 3d 99 59 15 bf
       -0.6193855 -0.30490324 0.10229536 -0.5833984
0000b0 1a 53 b2 bf c3 1b 9d be 83 63 79 bf 54 3e ac be
       -1.393161 -0.30685243 -0.9741747 -0.33641303
0000c0 ec 79 01 be f1 95 f0 be 5b 6e a2 bd 76 ed 3d bf
       -0.12644166 -0.46989396 -0.07931205 -0.7419046
0000d0 9f ea 2f be 82 c4 3c be ff 17 88 bf ac 0d ac be
       -0.17179345 -0.18434337 -1.0632323 -0.3360418
0000e0 a4 a6 0a bf e3 5b 11 bf 45 33 e6 be a2 83 24 bf
       -0.54160523 -0.56780833 -0.4496099 -0.64263356
0000f0 3b 02 13 be 30 03 26 bf 59 f1 f2 bd 79 d2 ba be
       -0.1435632 -0.64848614 -0.1186244 -0.36488703
000100 cc 53 c8 bc 65 18 aa 3e c4 fc b3 3d 83 1e 10 be
       -0.02445402 0.33221737 0.087884456 -0.1407414
000110 45 b3 ae be da 00 34 3e 3d 45 33 3c ed 4b 71 be
       -0.34121147 0.1757845 0.010941801 -0.2356412
000120 b7 50 21 3e 92 54 9f 3e c9 d0 1b bf c6 6b 88 be
       0.15753447 0.3111921 -0.60865456 -0.26644725
000130 26 62 b7 be a0 49 6e be ee c0 4d 3d a0 78 e8 bd
       -0.3581707 -0.23270273 0.05023282 -0.113511324
000140 79 1e 9b 3e a4 f8 3a 3d 0b 04 8e be 96 56 01 3f
       0.30296686 0.04564728 -0.2773746 0.50522745
000150 31 da 18 3f d3 4d 06 3f 0b 66 ba be 5a cb f8 be
       0.59707934 0.524625 -0.36405978 -0.48592645
000160 4e 7b a7 be d2 8c 1c be 1c fd 9e 3e e3 6f f8 3e
       -0.32711262 -0.15288094 0.31052482 0.48522863
000170 fb 07 9c be b2 48 d0 3d 36 cf ce 3d 60 64 ce 3e
       -0.3047484 0.101701155 0.10098116 0.40310955
