Seq2Seq/checkpoints/net.pth (torch, 202944 bytes, 23 tensors)

encoder.embedding.weight f4 [184, 32]
00000000: 6959 a9be 136a 4ebf 7eaa b53f b8a9 86be
00000010: 2f4e 303f f8a2 1340 647d 5c3f 4964 38bd
00000020: f33f 993f 44c4 7e3f 371b 80bf 3a6b 7bbf
00000030: ce81 94bf 9e41 a1bf e928 d13e 0260 bd3e
00000040: b019 7d3f 6922 e73f 9816 b8bc 4970 33bf
00000050: 1cdf a0bf 41f5 fcbf 1b55 043f 9a52 bd3f
00000060: 33c3 6f3f d3ad c83f 706e 23be 9684 b13f
00000070: 95bb c1be 7638 99be c8fc 23bf 69fd 413f
00000080: 6a51 3cbf 9b1b 413d 384a 043f cd2a 6f3f
00000090: 3c02 b43e 0771 15c0 21da ebbe 7e9e 373f
000000a0: 0f7f 26bf 1e98 b4be 849c b1bc 34d4 3fbf
000000b0: 25b1 6f3f 192a a6bf dbab b13f 320e 9d3e
000000c0: 3144 393e 8c90 f43b fee6 f23f 81cf 4cbf
000000d0: 871f 3bbd 64c6 dfbe a23d ad3e 998b 13bf
000000e0: f005 a73f ab52 e2bf 7d4e 28bf 57da 09bf
000000f0: 5639 b53f 6d87 70bf 8019 763e 1644 593d
00000100: e5f7 89be c906 30be 9287 8abc 40ce bd3c
00000110: 0822 bcbf 84a8 953f ccf2 8d3f c562 35bf
00000120: 9725 abbf 0117 f1bf a9ec b53f 6ee9 b6bf
00000130: 778b 243d 7be3 62bf be8e 8abe f33d 75bf
00000140: 30f7 2b3f 52f5 82bc cdda 1fbf 5d43 f73e
00000150: 5c2b 6fbe 4d32 0340 c6ef 973d 1c7d 2d3e
00000160: e1f7 02c0 4d60 e63e 6a99 973c 374f 1f3f
00000170: 7c40 84bf 6118 afba 83c6 70bf eca0 673f
00000180: 5373 cabe 8928 123e e7fd 83be 5b0a 7e3e
00000190: bf0a 9a3e 633d 073f 4fa5 98bf 4004 7abf
000001a0: ee67 193f 3415 76bf 56da f23f 8a23 a1bd
000001b0: 4994 273f 583a f13e b15b bf3f ec6d e43e
000001c0: 9f60 213f f5a1 123f f10b 6a3f 01d0 cb3e
000001d0: c9dd 6cbf 6779 16bd 8495 cebe 7357 ad3f
000001e0: 986b cabe 65b4 dfbe a14e 403d c062 593f
000001f0: 2df6 723f 3e42 8bbf 9eaa 80be 4a18 f73f
00000200: b826 a5be 61de a8bf f336 66bf da64 b73f
00000210: 8b4e 1ebf 0ad3 193e ef12 36bf 3b42 053f
00000220: 3da1 aabe d653 f23f c856 c8bf 66a2 873e
00000230: 4de3 f83f 7bca b63f 1fd7 b63e 2da9 afbf
00000240: 9905 0ec0 981d 273f 218f 643f 8674 a53f
00000250: 29bb 493f 7bb5 8dbf 3e41 6bbf 9cff 733c
00000260: 3cc8 413f 1c0d d1bf a9a0 14bf 1e88 c53e
00000270: 98f0 903e ce5d d7bf 9fbe 7a3c 4fe6 2dbe
00000280: e781 643e 5871 8e3f cdb5 163f 9e15 12c0
00000290: a4bc a1be 79fa 01bd 3fa5 9d3e 78ce 523f
000002a0: e342 87bf 8df4 933f 4000 263d fecf 8a3f
000002b0: f225 513e 8127 eabf fbd4 e03e 32be 32bf
000002c0: 4bb7 de3f 21dd a8bf 5030 da3f d9c3 823e
000002d0: 1990 f4be 0315 41bf 7f95 673f fbb7 4a3f
000002e0: b66e 9c3f 7eda 5cbf 2e22 21bf b1d5 a03d
000002f0: 2923 a23e 62e9 dd3f d6d1 913f 211e 77bf
00000300: 7510 82bf 117f afbf 7962 d73d 39b5 7d3f
00000310: fb00 d13f 5c69 773f ba67 d6be a9c0 703f
00000320: e1f8 d13e 10b0 e03e 5100 1abf bdab c7be
00000330: 32dc 66be 282e 073f 26f3 b0bf 3044 9ebf
00000340: 351b a4bf 61f7 cfbe 99ad f2bd f511 2f3f
00000350: ad90 7abe e7f8 06bf 9b85 3fbf 2b4c 96be
00000360: c468 b2be 9dbd 333f 3d68 d9bf 9073 073f
00000370: 92aa 3440 dd2a 9f3f 5843 e8bc 9d32 6ebe
00000380: c51a 58be f0c7 81bf a16c a8bf 5596 15bf
00000390: 043e 12bf ba2d a43e bc05 f6be 5462 b13f
000003a0: 35f4 863f cb64 98bf 7edc bf3f d3b6 6bbf
000003b0: 34f6 88bc e832 0740 6096 c2bf 9163 573f
000003c0: e42e 2fbf fe29 8b3f f281 63bf 4194 5d3f
000003d0: 2dbf 333f 8ee8 8bbf 443d 0740 5909 a23e
000003e0: 18d5 22bf 5cdf 23bf ab84 16c0 9c8e 9bbf
000003f0: 98ea 5bbf 0ff1 923f b0b9 82bc 8da0 2cc0
-0.33076027 -0.80630606 1.4192655 -0.2630136 0.688693 2.3068218 0.8612883 -0.045017514
1.1972641 0.9951823 -1.0008305 -0.9821049 -1.1602113 -1.259815 0.40851524 0.3698731
0.9886732 1.8057376 -0.022471711 -0.7009321 -1.2568088 -1.9762346 0.5169236 1.4790833
0.93657225 1.5678047 -0.15960097 1.3868587 -0.37838426 -0.2992589 -0.6405759 0.757773
-0.7356173 0.047145467 0.5167575 0.93424684 0.35157955 -2.3350236 -0.46064857 0.71726215
-0.65037626 -0.35272306 -0.021681078 -0.7493317 0.93629676 -1.2981597 1.3880571 0.30674893
0.18092419 0.0074635204 1.8976743 -0.80004126 -0.045684364 -0.43706048 0.33836085 -0.57634884
1.3048687 -1.7681478 -0.65744764 -0.53848785 1.4158123 -0.93956643 0.24033165 0.053043447
-0.2694694 -0.17190088 -0.016910348 0.023169637 -1.4697886 1.1692052 1.1089721 -0.70853835
-1.3370847 -1.8835145 1.4212848 -1.4289987 0.040172067 -0.8862836 -0.2706203 -0.9579765
0.67174053 -0.015986118 -0.6244324 0.48293582 -0.23356384 2.049945 0.0741878 0.16942257
-2.0463793 0.44995347 0.01850577 0.6223025 -1.0332179 -0.0013358706 -0.94052905 0.9047992
-0.3954111 0.14273275 -0.2577965 0.24808638 0.30086324 0.52828044 -1.1925448 -0.97662735
0.5992421 -0.96126103 1.8972881 -0.07868107 0.6546064 0.47114825 1.4949857 0.44615114
0.6303806 0.57278377 0.9142447 0.39807132 -0.9252592 -0.036736872 -0.40348446 1.3542312
-0.39535213 -0.43692318 0.046949986 0.84916306 0.94906884 -1.087959 -0.2513017 1.9304287
-0.32256103 -1.3192865 -0.89927596 1.4327652 -0.618386 0.15021911 -0.7112264 0.52054185
-0.3332614 1.8931835 -1.5651484 0.26491088 1.9444367 1.4280542 0.35711 -1.3723503
-2.2190917 0.6527953 0.892809 1.2926185 0.7880121 -1.1071008 -0.91896427 0.014892485
0.7569616 -1.6332126 -0.5805765 0.38580412 0.28308558 -1.6825502 0.015304237 -0.16982387
0.22315179 1.112834 0.58871156 -2.2825694 -0.31589234 -0.03173301 0.30790135 0.82346296
-1.0567287 1.1559006 0.040527582 1.0844724 0.20424631 -1.8293306 0.4391249 -0.69821465
1.7399687 -1.3192483 1.7045994 0.25540045 -0.47766188 -0.75422686 0.9046249 0.7918698
1.2221286 -0.8627089 -0.6294278 0.078532584 0.3166745 1.7336848 1.1392162 -0.9653035
-1.0161272 -1.3710653 0.10516829 0.9910465 1.6328424 0.9664514 -0.41876012 0.94043976
0.41010192 0.43884325 -0.6015673 -0.38998213 -0.22544935 0.52804804 -1.3824203 -1.2364559
-1.2820803 -0.40618423 -0.118495174 0.68386775 -0.24469252 -0.52723545 -0.7481324 -0.29354987
-0.34845555 0.702112 -1.6984936 0.5291071 2.8229108 1.2434956 -0.028352425 -0.23261495
-0.21103962 -1.0139141 -1.3158151 -0.58432513 -0.5712588 0.32066137 -0.4805125 1.3858132
1.0543276 -1.190576 1.4989164 -0.9207584 -0.016718961 2.112482 -1.5202141 0.841363
-0.68430924 1.087219 -0.88870156 0.8655434 0.70213586 -1.0930345 2.1131144 0.31647757
-0.63606405 -0.64012694 -2.3518474 -1.2152896 -0.85904837 1.1479815 -0.015957683 -2.6972992

encoder.rnn.weight_ih_l0 f4 [96, 32]
00000000: 6700 86be 11a3 49bd 64e8 813e 8e5b 243f
00000010: cba5 9fbe f22b 9b3c 7d36 ca3e eac6 dc3c
00000020: ffa4 8dbe 5858 8dbe 6f70 a03d 4048 233f
00000030: 55cf 873e dc11 85bc 6070 6e3e e226 b6be
00000040: cb0b 44be 88ad 083f 5f1e e53e 8554 873c
00000050: 08bc 4ebe 2d15 26bf 55a8 b6bc fd7d 923e
00000060: f5e5 b13e 40fe d33e 1446 82bf db80 afbe
00000070: 4f8f 8fbe 5201 76be b429 91be 671d ac3d
00000080: 41ec 31be 9d71 133e 42d9 45be 3efc b23e
00000090: 4ede b73e 0252 903e 7eea 04bf d439 3f3b
000000a0: f1cb a2be 9feb 603f 1934 023f 2bca 9e3e
000000b0: 9503 d43e de60 303e 00b1 cd3e 3d66 d43e
000000c0: 8dd7 ac3e 2c9a 8cbe 75a8 26be 3a9d 433e
000000d0: fce5 133c 50ba 893e b1da 083f 4823 023f
000000e0: 6971 7cbe 9305 64be ca61 a6be 0e2e 27bd
000000f0: e545 413d 83de 43bf 15eb 37be 36b3 4d3e
00000100: 9ad6 03bf b13a 9bbe 6421 6e3e 35bf 5f3e
00000110: 0566 97bd 1076 3dbd 0b81 093f 0b40 583e
00000120: 31a8 453d cf36 2e3e 1357 043e 64f3 093e
00000130: dbae 7ebe dfb8 febd ec9c c03e 19e0 c8bd
00000140: a56d 8dbe 9a75 853f b978 053b 93db 753d
00000150: 6bd3 1cbf e67d 59be fd2b 34bf adc0 4f3f
00000160: 85ee 393e 8913 a03e 351c d0be 6743 84be
00000170: a769 2dbe 462b 1bbf b66b 4abf e7c9 5c3f
00000180: 8e89 4f3f 8767 723f a0cf d33b 5906 15bf
00000190: 07e5 2a3f de1c 693e dcdc 77bd 882d 3ebf
000001a0: b810 50bf 7a14 a93d 499b d2be 981d 3ebe
000001b0: bfc5 c0bd 08ae 153d 30c5 dabd 0884 b73e
000001c0: 1789 573f 01a8 023e 2ba3 bbbe 1fce edbc
000001d0: 45b8 ba3d 78bd 073e 8959 90be 2494 aa3d
000001e0: 30b8 c43e 2e3d 66bd 23dc 9c3e 9d5f 6e3e
000001f0: ca0e 96be 1d25 5dbe f9da 2f3e 55e9 413e
00000200: 729f 9fbe 8e82 023f 32a1 043e d647 b43e
00000210: 9b84 e03e 3961 a8be de8a 3abd 79b5 473e
00000220: e66c 4b3e 0c93 8bbe fef1 253f 94da e0be
00000230: 8fae 183f fd89 1c3f 1edd 4a3f 0271 ffbe
00000240: 6b75 69be 74d1 e03d 422a e83e 85b9 49be
00000250: a58f eebe 6738 a7be 02f9 21be c286 eebe
00000260: 42ab 443e e62e 11bf 7045 43bf a051 883e
00000270: 211b 4f3f dc16 6dbd ab91 dbbe 3aea 923e
00000280: 4d9e 603e baf4 97be ddfe abbd 2eab b7be
00000290: 60f9 fa3e 7085 623e 1e64 24bc 1468 4bbe
000002a0: f8d7 86bd c963 58bd 3f3a cf3d 4e3c c6bd
000002b0: a006 d33e ce7b b2bd 1406 af3e 8e84 81be
000002c0: 3288 793e 7764 9f3e 67a0 8f3c 4a67 82bd
000002d0: f079 f7be 22d9 f5be c636 c0bc 085b 0f3f
000002e0: a7a4 5abf 96b4 913e ef31 0b3f 2ccc 963e
000002f0: 3cc1 053f ba88 6fbe a9c0 033f 9562 a33e
00000300: dbf3 9bbe 0aa1 c83e f8ad 66be 9499 c2be
00000310: 7f6d 97be b30f d63e e725 2bbf 0f46 fe3e
00000320: 5210 183e 5e38 a0be 17d0 543f 8034 033f
00000330: 85cc 083f 2f95 c6bd 4978 83bc 9b50 8bbd
00000340: df37 4b3d f3a3 1e3f 6839 a9be 90a9 cd3e
00000350: 7f97 7c3d b136 863e 0719 c2bd 8d44 a93d
00000360: 9c17 f7be 87b2 86be ba6f d33c 71ee 23be
00000370: a72b 84be aaac 5bbe 3edc d43e e4cd d2be
00000380: 4db1 823e 4daa 353e 08b1 18bf 073a 303f
00000390: 0c21 9bbe f82f 2ebe e2a0 e1be 27e8 b8be
000003a0: 0953 df3d 67a9 053e 025e 4f3e 1df0 0fbf
000003b0: 9afa b0be e226 493f 12c0 113f 9bbf 723e
000003c0: ccc1 2dbe 2ee7 eb3e 79a2 863e 2e79 e93e
000003d0: 19c8 f3bd 39de 693b 83c6 7e3d f655 2d3e
000003e0: 8b40 823e d1e2 54bf ad2d 0c3f 7f2b 433e
000003f0: cdb2 60be 6e47 1abf 4ef1 f2be c24d c93d
-0.26172182 -0.049227778 0.25372612 0.642022 -0.31181177 0.018941853 0.39494696 0.026950318
-0.27664945 -0.27606463 0.07833945 0.6378212 0.2652537 -0.016243868 0.23285055 -0.3557654
-0.19145124 0.5338979 0.44749734 0.016519794 -0.20188916 -0.6487606 -0.022297064 0.28611746
0.34745756 0.41404915 -1.0177636 -0.34277996 -0.28039023 -0.24023941 -0.2835213 0.084040456
-0.1737528 0.14398809 -0.19321159 0.3495807 0.35911793 0.28187567 -0.51920307 0.0029178755
-0.3179622 0.8785953 0.50860745 0.31013617 0.41408983 0.17224452 0.40174103 0.41484252
0.33758202 -0.27461374 -0.16275199 0.19102946 0.0090270005 0.26899958 0.53458697 0.50835085
-0.24652638 -0.22267751 -0.32496482 -0.040815406 0.047185797 -0.765114 -0.1796077 0.20087895
-0.5149933 -0.30318215 0.23254925 0.21850283 -0.073925056 -0.04625517 0.5371253 0.2111818
0.048256103 0.17013095 0.12923841 0.13471752 -0.2487139 -0.12437605 0.37619722 -0.09808368
-0.27622715 1.0426514 0.0020366146 0.060023855 -0.612601 -0.21239433 -0.7037962 0.81153375
0.18157394 0.31264904 -0.4064652 -0.25832674 -0.16934834 -0.60612905 -0.79070604 0.8624558
0.81069267 0.9468922 0.00646396 -0.5821281 0.6675572 0.22764918 -0.060513362 -0.74288225
-0.8127551 0.08255859 -0.41134098 -0.18565977 -0.09412717 0.036542922 -0.10682142 0.3584292
0.8419356 0.12759401 -0.36647925 -0.02902895 0.09117178 0.1325587 -0.2819331 0.08329037
0.38421774 -0.05621069 0.306367 0.23278661 -0.29308158 -0.21596189 0.17173375 0.18936665
-0.31176335 0.5098046 0.12952116 0.35211056 0.4385117 -0.32886675 -0.04554259 0.1950282
0.1986576 -0.27260625 0.64822376 -0.43916762 0.59641355 0.61148053 0.7924365 -0.49890906
-0.22798698 0.1097745 0.4534474 -0.19699676 -0.46593967 -0.3266022 -0.15817645 -0.46587187
0.19205955 -0.56712186 -0.7627783 0.26624775 0.8090077 -0.05788313 -0.42884573 0.28694326
0.21935387 -0.296789 -0.08398221 -0.35872787 0.49018383 0.22121215 -0.010033635 -0.19863921
-0.065841615 -0.052829538 0.101185314 -0.09679471 0.41215992 -0.0871502 0.34184325 -0.25296444
0.2436836 0.31131336 0.01753254 -0.06367357 -0.48335218 -0.48017222 -0.023463618 0.5599828
-0.8540749 0.2845809 0.5437307 0.29452646 0.5224798 -0.23392001 0.5146585 0.3191115
-0.30459484 0.39185363 -0.22527301 -0.38007796 -0.29575726 0.41808853 -0.6685471 0.49662825
0.14849976 -0.31293005 0.8313002 0.51251984 0.5343707 -0.09696423 -0.016048567 -0.06802484
0.04961383 0.61968917 -0.3305161 0.40168428 0.061667915 0.262136 -0.0947743 0.08265028
-0.482602 -0.2630808 0.025810111 -0.16008927 -0.25814554 -0.21452585 0.4157428 -0.41172707
0.25525895 0.17740746 -0.5964513 0.6883854 -0.3029865 -0.17010486 -0.44068056 -0.36114618
0.109045096 0.13052903 0.20250705 -0.5622576 -0.34566194 0.78574955 0.569337 0.23705904
-0.16968459 0.46074814 0.26295832 0.45600265 -0.119034 0.0035685434 0.062201034 0.16927323
0.25439867 -0.83158594 0.54757196 0.19059561 -0.21943207 -0.60265243 -0.47449726 0.09829284

encoder.rnn.weight_hh_l0 f4 [96, 32]
00000000: 7b48 c33c 7f93 82be 548c 833e 829e 11bf
00000010: d6b0 c8be 245c 683f efb2 4abf 1254 163f
00000020: 85bc d53c 8e04 f6bd 044b a1be b311 02bf
00000030: c8fc 163e 7640 943e c079 073f 968a c6bd
00000040: e563 0f3e a736 aa3e 6655 243f d307 f8be
00000050: dacf 8ebe 69c1 2e3e 11b6 1abf 6a4f b6bd
00000060: 4573 9a3d 46d8 aebd 9cd3 003f 3266 57be
00000070: 7e2a 02be 20ed 55be 0eaa c6be f66d e9be
00000080: 6c19 893e dd8d 25bd 188e b7bd 82b2 b4be
00000090: d7f2 453d 4271 8f3d f88e cc3e cc88 debc
000000a0: 92c1 47bf a0e4 76be 9af6 8ebe 13f0 97be
000000b0: 2cc5 863d 06bd 863e e49a 1f3f 7af6 93be
000000c0: 406f fcbe ceba a5bd df6c c63e ef67 ab3e
000000d0: cb09 82bd 8911 023f 94c4 de3c bef2 a3be
000000e0: ca3d a53e 935b 9d3e 5fc3 583f d1df 093e
000000f0: 1953 fc3e c6ab c3be 5926 493e 2b55 6fbc
00000100: c5bb b2bd ce1d 6abe 5cdb 533f 6ecd 17bd
00000110: 72bf d8be b4bc 5e3f eec2 9b3e 2177 0d3f
00000120: 2dbf a6b8 29b7 23bf 7961 3bbe 106a b43e
00000130: 3b5c d83e dce3 e9be c60f c9be dd1e bbbe
00000140: 5b0c 393f 1f3a 0e3f 142e e0be 8b58 b4be
00000150: 0666 76be c777 b9be 6b60 1f3f ee52 a23e
00000160: e841 89bd f95e b7be 29d7 1bbf 0178 8b3e
00000170: c4ea 14bf c031 ef3d 4189 d9bc a1f8 bbbe
00000180: f31e dd3e 269e 843e 11a9 903e 5c77 133e
00000190: c874 34be df33 08bf 1b64 983c 7d7b 60be
000001a0: 35f2 77be ae46 b03e 249b ee3e 7f93 85be
000001b0: 9208 e13e d463 ccbe 379a c3be a1cb da3e
000001c0: 6d53 d2be 3951 113d 81d5 a1be eff4 ecbd
000001d0: 9e78 ba3d 25a4 063e acd5 4f3e 2245 833e
000001e0: d5f2 14be 16ed 7ebe 9b89 4bbc 2ef1 283f
000001f0: cb7e b7be f2c8 d5bd abfd 173e ac48 14bf
00000200: e088 5f3e ef24 c93d d517 593e 6184 d43e
00000210: 81be 363d 1f6d 09be bc9c 1d3d a264 32bf
00000220: ed09 143e 36fa 2c3c 2c29 95bd 0a38 93be
00000230: 8b11 62bd 6330 f2be a91b 963e abc6 5dbd
00000240: 3627 bc3e f226 bf3e 518f 9e3e f1d3 aa3e
00000250: 8aa5 d8be 072e 943d e56b 063f 3025 6ebe
00000260: b186 633e 0c2f 1d3e da3e e8bc 8d60 b63e
00000270: 6161 0bbe 7799 65bd d14f 5dbd bb6d 993d
00000280: 2510 44be fffb 713d 82c3 92be 699e bb3e
00000290: 2b5b f53e 428a bebe 0e68 04be a153 493e
000002a0: 4790 623e fc3f 033f 7a7c b03e 16d8 0d3f
000002b0: c4c7 21bf 30fd 843e 51a8 60be b419 3dbe
000002c0: b87e a1bd 0e49 05bd 586a fbbe e7fa b1bd
000002d0: 5a8a 023d 6f11 773c 1578 98be c107 e63d
000002e0: 787a f33e d7eb f2bd ca98 ad3d 7b56 4c3b
000002f0: 8be5 873d e22c 6b3d 201f a1be abcf 853e
00000300: 3bbc a8bd fee4 143f b0ce e1bd 02cd 0abe
00000310: 937c 1b3f 6996 b13e 22cf a6be 18ad af3e
00000320: 2fa3 8bbe e399 713d 4e33 3d3a 803c 8c3e
00000330: 9d61 6f3e 2b03 e93c a4e5 f8be 07ba 9ebe
00000340: 7e1a b33e 98be 20be a793 0fbe b1f0 b13e
00000350: 8294 4d3e 35cd 173e 1281 563f 7eb4 4ebe
00000360: 13f5 85bd 502a b7bd 7ce5 acbe 9f8a 143f
00000370: 5bb0 83be 6dd1 f3bd dabd a43e 4381 cfbd
00000380: feb5 aabe d689 52be da5d a83e a80d 8ebe
00000390: 03b5 e63e 4334 013f 448a b0be 12fa 783e
000003a0: af32 ee3c 1bde dabd 0948 29bd e404 b6be
000003b0: 702d 67be 6237 93be bc61 17bf a5e8 1abf
000003c0: 9a4e 95be 5796 853e 18e4 113e 69d2 3bbe
000003d0: e4cc 03be eb77 50ba 0c22 4b3f e77c 223e
000003e0: 83db a8be 9697 aabe 43cf 24be c2f0 0e3e
000003f0: 6ad7 16be 4fd1 b93d 619d 56be 18c9 f1be
0.023838272 -0.25503156 0.25693 -0.5688249 -0.39197415 0.90765595 -0.7917928 0.5872203
0.02609087 -0.120125875 -0.31502545 -0.50808257 0.14744866 0.2895543 0.5292015 -0.09694402
0.1400295 0.3324482 0.6419281 -0.4844347 -0.27892953 0.17065968 -0.6043406 -0.08901866
0.07541517 -0.08537345 0.5032289 -0.21035078 -0.12711522 -0.20891237 -0.38801616 -0.45591706
0.26777208 -0.040418494 -0.08962649 -0.3529244 0.048327293 0.07004024 0.39952826 -0.02716484
-0.7802974 -0.24110651 -0.27922517 -0.2967535 0.06580576 0.26316088 0.6234572 -0.28898984
-0.49303627 -0.08092271 0.38754937 0.33477733 -0.06349524 0.50808007 0.027193345 -0.32021135
0.32273704 0.30733928 0.8467311 0.13464285 0.49282148 -0.3821699 0.19643535 -0.014607708
-0.087272204 -0.22862932 0.8275659 -0.037061147 -0.4233356 0.8700669 0.30422157 0.552599
-7.951106e-05 -0.63951355 -0.18298902 0.3523717 0.42257866 -0.45681655 -0.39269847 -0.36546984
0.7228448 0.55557436 -0.43785155 -0.35223803 -0.24062356 -0.36224195 0.622565 0.31703895
-0.06702024 -0.35814646 -0.60875183 0.27239993 -0.58170724 0.11679411 -0.026554706 -0.36713126
0.43187675 0.25901908 0.28253987 0.14401 -0.17622674 -0.5320415 0.018602422 -0.21922107
-0.24213488 0.34428924 0.46602738 -0.26089093 0.4395185 -0.39919913 -0.38203594 0.42733482
-0.41079274 0.03547785 -0.31608203 -0.11570155 0.09105037 0.13148554 0.20296353 0.25638682
-0.14545758 -0.24895129 -0.012422944 0.6599301 -0.35838923 -0.10438718 0.1484286 -0.5792339
0.21829557 0.09821498 0.21200497 0.41507247 0.044615272 -0.13420533 0.03847955 -0.69684803
0.14456911 0.010557702 -0.072832435 -0.28753692 -0.05519251 -0.4730254 0.29317978 -0.054144543
0.36748666 0.373344 0.30968717 0.33364823 -0.42313796 0.072353415 0.52508384 -0.23256373
0.2221935 0.15349978 -0.028350282 0.35620537 -0.13611366 -0.05605456 -0.054031197 0.074916326
-0.19146784 0.059078213 -0.28664786 0.36644295 0.47921118 -0.37214857 -0.12930319 0.19660808
0.2212535 0.5126951 0.34469968 0.55407846 -0.63195443 0.25974417 -0.21939208 -0.18466836
-0.07885498 -0.032540374 -0.4910457 -0.08690434 0.031870224 0.01507984 -0.29779115 0.11231948
0.47554374 -0.11861389 0.08476408 0.0031179476 0.06635579 0.05741585 -0.3146906 0.26135
-0.08239027 0.58161914 -0.11025751 -0.13554767 0.6073696 0.34685066 -0.32579905 0.34311748
-0.27272937 0.05898465 0.0007217423 0.27389908 0.2337708 0.028443893 -0.48612702 -0.31001303
0.3498115 -0.15697706 -0.14021169 0.34753945 0.20076182 0.14824374 0.83790696 -0.2018604
-0.06540885 -0.08943617 -0.33768833 0.5802402 -0.25720486 -0.11905179 0.32176095 -0.101320766
-0.33341974 -0.20560393 0.32884103 -0.27744794 0.45059976 0.5047037 -0.34480488 0.24314144
0.029076902 -0.106868945 -0.041328464 -0.35550606 -0.22575927 -0.2875319 -0.59133506 -0.6051124
-0.2916153 0.26091263 0.14247167 -0.18341984 -0.12871128 -0.00079524395 0.79348826 0.15867959
-0.32979974 -0.33318776 -0.16094689 0.1395903 -0.14730611 0.090731256 -0.20958473 -0.47223735

encoder.rnn.bias_ih_l0 f4 [96]
00000000: 162b d73d 766f f43c 3364 32bc a419 613e
00000010: 00b2 a13e 080e d5bd ae9c 4c3e a7e0 833e
00000020: 0412 c63d 4c44 813d e3f1 bfbd 1ace 183f
00000030: a149 923e 1d2b e53e 966b 3cbc 8123 783e
00000040: 2367 0e3e 08c9 cbbd 4e54 5239 b2c5 993e
00000050: 9a2c d73e 0f02 d53d 99cd 04bd f0e6 8bbe
00000060: 5118 0fbd c39b 803d 1c8f 7d3e 9697 49be
00000070: 38ec 0fbf cd50 c23d 2756 e13e a8fe 563e
00000080: 12bd b2be 7956 603c 03cf 1bbe 770d 2c3d
00000090: be74 843d 49fb a3bd 491a 89be 3192 19bc
000000a0: 0f50 16be 7614 3ebe 61ae 9dbd a510 28be
000000b0: fa02 213d cce5 dbbe 07fd 1dbe 72ea 6f3d
000000c0: 3237 d5bd 7e09 babe c6cd 8dbd 9240 84be
000000d0: 12ef 9fbc 68d4 afbd 8b30 9cbe ffe8 efbe
000000e0: 06ff 923e 0547 62be 1bad cf3d bd9b 2bbc
000000f0: 8106 603d cf70 02be 1f94 49be c464 e8bd
00000100: f302 edbd c698 83bb a7f5 22bd 3851 fd3c
00000110: d76a 403e 15f7 8f3d 2d56 213e cf0a 90bd
00000120: 4adc d13b e73b 473d 10e8 2f3e 15da 603c
00000130: 7478 903d 71e5 be3b 4961 39bd c349 183e
00000140: 6ac4 793d 45db 13bd 00df e3bd f468 6abd
00000150: 1952 18be 3766 583d 7fcb 103e c123 f83d
00000160: 137f 603e 7ad3 b1bd 3da3 123d 2585 e93d
00000170: 63ed a33d 3e32 fe3c 2b09 813e a5a5 d03d
0.10506265 0.029838305 -0.010888147 0.21982437 0.31581116 -0.10403067 0.19981644 0.25757334
0.09671405 0.06311855 -0.09372308 0.59689486 0.285718 0.44759455 -0.01150026 0.24232294
0.13906531 -0.09950453 0.00020058567 0.30033642 0.42026216 0.10400783 -0.032422636 -0.2732463
-0.0349353 0.06279709 0.24761623 -0.19686732 -0.56219816 0.09488068 0.44011042 0.20995581
-0.34909874 0.013692492 -0.15215687 0.04200503 0.06467579 -0.08006913 -0.26777866 -0.009373234
-0.14678977 -0.18562493 -0.07699276 -0.164126 0.03930948 -0.4294876 -0.15428554 0.058573194
-0.10410918 -0.36335367 -0.06924014 -0.25830513 -0.019523177 -0.08585435 -0.30505785 -0.4685745
0.28710192 -0.22097404 0.10140439 -0.010474143 0.054693703 -0.12738346 -0.1968541 -0.113473445
-0.11572828 -0.0040160147 -0.039785054 0.030922517 0.18790756 0.07029549 0.1575553 -0.070333116
0.0064044343 0.04864111 0.17178369 0.01372387 0.070542246 0.0058256914 -0.045258794 0.14871888
0.06097833 -0.036097784 -0.11126518 -0.057228997 -0.14875068 0.052831855 0.14140128 0.121161945
0.21923475 -0.08682914 0.035800207 0.114023484 0.08004262 0.031029817 0.25202307 0.10187844

encoder.rnn.bias_hh_l0 f4 [96]
00000000: f4e2 bd3c e43a 34be 75d5 14be 41a2 2c3e
00000010: ce72 343e d8de 6c3d 3dcc 953e baf7 cc3e
00000020: 143d 543e 0f46 38be 38df a6be 2d16 1d3f
00000030: 7d01 893d f11e 223f c28c 0a3d fccf c0bd
00000040: 99a3 393d dc4d a5be b5b2 213d d338 0b3e
00000050: 1f2a c33e cfea d53d 3efc bfbd 7418 6abe
00000060: 6c6b f73d 4de1 6d3e 46c1 dc3e 3a11 ae3c
00000070: 3616 69be 8609 e5bc a9ad 903e 7b0f 9a3d
00000080: 4408 9fbe 8e7f e8bd b3d1 213e 3e04 2c3e
00000090: c8db e8bc 7bfc 753d 4a10 10bf 3680 46be
000000a0: be89 5dbe cdb0 a2be e001 72bd 16ed 28be
000000b0: 6640 65be a737 9dbe 496e 773d 4c37 853c
000000c0: e161 0cbd 2d0a debe 3a6f a83d 7420 09be
000000d0: 9383 d23c 791d 8abe 175e 90be a036 08bf
000000e0: 148a c63d d08b 043c 4430 d63d 4e94 b53d
000000f0: 6be8 11be cb20 97be 77e9 ebbd d81f 99bd
00000100: ea2a a93c 4c23 af3d 75e8 0cbe 825c 5dbd
00000110: 4ea2 463e 3dd3 38bd 5ab3 4bbc 3b34 40bd
00000120: d4e8 383d 9981 1d3d aa21 9cbc e969 0cbd
00000130: 5948 4f3e bddc 043e 4971 633d 3a55 2b3e
00000140: 682d 4bbd c300 bcbd f94d 333e efd2 d5bd
00000150: 7e73 85bd 400b f0bc a91f 9dbd fbda 33bd
00000160: 1610 38be da3b dfbe 0511 f5bc aa3c 0dbd
00000170: 8c6e 7a3e e261 143d d20a 393e 8db2 debd
0.023179509 -0.1760059 -0.14534552 0.1685877 0.1762192 0.057829708 0.29257384 0.4003275
0.20726424 -0.17995475 -0.32592177 0.6136196 0.06689737 0.6332846 0.033825643 -0.0941467
0.045322035 -0.32285964 0.03947707 0.13595895 0.38118073 0.10445177 -0.09374283 -0.2286089
0.12081036 0.23230477 0.43116206 0.021248449 -0.22762379 -0.027958643 0.28257492 0.07522484
-0.31060994 -0.11352454 0.1580265 0.16798493 -0.028425112 0.060055237 -0.56274855 -0.19384846
-0.21634576 -0.31775513 -0.05908382 -0.16496691 -0.22387847 -0.30706522 0.06040791 0.01626172
-0.034273032 -0.43367139 0.0822434 -0.13391286 0.025697505 -0.2697561 -0.28196785 -0.5320835
0.09694305 0.0080899745 0.10458425 0.088661775 -0.14248817 -0.29517207 -0.11519139 -0.07476777
0.020650346 0.08551654 -0.1376055 -0.0540433 0.19397852 -0.045123328 -0.012432897 -0.04692481
0.045143917 0.038453672 -0.019059021 -0.03428069 0.20242442 0.1297483 0.05552796 0.1673173
-0.04960385 -0.09179833 0.17510213 -0.10440623 -0.06516169 -0.02930224 -0.07672054 -0.043910008
-0.17974886 -0.4360035 -0.029915342 -0.034481682 0.24456233 0.03622616 0.18070534 -0.108738996

encoder.rnn.weight_ih_l1 f4 [96, 32]
00000000: 25e8 1cbe 6a02 cebe 42f3 27bf 42d6 f6be
00000010: 3136 19be 9b2b 073f 3994 adbd b7a2 243e
00000020: 5931 2dbf 2aee 58bf 15e1 623e 9432 7fbe
00000030: 04dd 773e d7e3 febe 3b15 c23e 40f7 eebe
00000040: 5827 29be be36 003f c094 9cbc 6d4d 4bbf
00000050: d68a a53c d7f9 1f3e fb7c b53d f348 67be
00000060: c2db 93be ef47 53be 2a0b d1be 3617 523e
00000070: 588e c53e a560 c93e ba5d 0dbe 34c2 5abf
00000080: 6d82 adbe cd0e e23e 9a62 e33e 0985 22bf
00000090: 4d2b 17be 3bd8 543d 1d31 4abe e1d0 c8bd
000000a0: d3bb f93e 59e1 c53e 5b99 193f e3a5 30bf
000000b0: 675d dd3d 6966 26bf 6eab 953d ac7f 1e3f
000000c0: c2c6 f0bd 967d 263f ff60 3bbd 187a 96be
000000d0: 8141 933e 005d 983c 1f60 09bf f851 b9be
000000e0: 9ec5 773e d1ff 8bbd a17a 1dbf d412 a0be
000000f0: 4fb0 1fbc e672 9fbe bf3a 043e a1aa 7fbf
00000100: a7b5 c93a 60a3 f93e 08c5 6abf 6aa4 243f
00000110: 246d e7bd caa4 a63d 4272 8cbe d913 7dbf
00000120: a151 86be 8ff3 803f 3556 a9bd 84f8 a33e
00000130: 40ea 82bd 19e4 6f3d d7e0 f7bc 6e93 f13d
00000140: 8440 03bf 0e83 af3e 412c fd3e adf8 953e
00000150: 1ba2 89be 61e3 533d ea09 53bf e035 03bf
00000160: 8246 da3e 260c 8ebe d231 56bb ef31 083c
00000170: 999e c1be 7db7 c5bd 1a87 e53e 36f5 323e
00000180: fc1c bfbb 081f 85bd c29f 2a3f 7fe3 c63e
00000190: 3a0d 133f 545f 2ebd 8ccc 65bf de19 643f
000001a0: 044b 57bd 926c debe 3997 4fbf 87d0 3ebb
000001b0: e2ca 833e bbba 023d d55a 5bbe 53ad 043f
000001c0: a407 ab3e d0f7 26be b6d3 2ebe 8c02 29be
000001d0: 6dd4 a8be beaa 41bf aae8 83be 5662 ec3e
000001e0: ba9b d23e 3e45 90bd 3260 eebe ecd1 f3be
000001f0: dbb7 ed3e dadf fabe 22a9 5cbe cb9b 733e
00000200: e0bd 35bf 03be 883c 339f a8be b26a b3be
00000210: 6073 d83c 57b4 16be 8e27 0dbf abec 263f
00000220: b2cf 16bc db37 963b 383d 80bf 4f2b d4bd
00000230: 91b4 b7bc 05d8 6b3b db3f 9f3e 124d 18bf
00000240: dce1 db3e 7982 e13e 100f 663e 06e1 6fbe
00000250: 8bc8 363f 79f6 6ebe 8590 f53d 3e20 e43e
00000260: d470 cabe 26cc 2e3f 19d1 a43c 37a6 45bf
00000270: 3f12 033f f1ab 383d 38ea 19be fb5e c7be
00000280: 0372 503e 0473 ca3e 5d4c 643d b435 5fbf
00000290: 6438 68be 4184 4ebd 1fdb 813d b156 d8be
000002a0: 8229 18bf b1e9 0abf 4c9d 30be 6bb6 dfbd
000002b0: 79aa b03e 773a 17be e497 15bf ef5b d13e
000002c0: 20fd 7cbe e41c 8b3e 3b2a 47bf 8c71 6b3e
000002d0: 86e1 f5bd de5f 073f 64fb adbe b68f 7b3e
000002e0: 1d49 64be 2d50 3b3e 0c10 31bf ab4f 15bf
000002f0: 43d9 063f 9f70 c0be 6f26 75be 5fc3 b63e
00000300: 695c 8abd 22b0 dbbd 0063 26be 0482 3ebe
00000310: 8022 aebe 9d25 06bf cb92 d63d 6ab9 4cbe
00000320: 5ab3 f43e 3d91 1c3f 1fd5 cd3e b806 1cbf
00000330: b93b 3e3e 3636 48bf 6efc 033f fce5 593d
00000340: 3845 0bbe 697f 623f 6b8d a13e f493 063e
00000350: d1dc d93d 5b75 1b3f 8476 11be 30ea 403e
00000360: 9b18 453f 6451 ba3e 7515 92be 2df6 76be
00000370: ea07 353e 590c 31bf fd55 fe3d 7d74 55bf
00000380: 4525 44be 9a61 a6bd 8eff 453e 832e 3d3f
00000390: 5f87 c4bd edf7 223f 1ebd 963e 1102 823e
000003a0: c2f2 983e 0d7b 58bf 57a3 953e bfc5 293f
000003b0: cd76 3f3e a56a 99bd 5ab3 46be 1c72 493f
000003c0: 4d62 cebe bd03 20bf d75a f73d 8f0a fd3e
000003d0: e591 573e 3af6 bbbe 03e3 c73e 6bdf 39bf
000003e0: b879 9b3e 6f9e 83be 4ec2 11bf 68ef 653d
000003f0: 716a e2bd b1ad d2be 12db 603d a035 8b3f
-0.15322931 -0.40236217 -0.65605557 -0.4821034 -0.14962079 0.5280091 -0.08475537 0.16077696
-0.67653424 -0.8473841 0.22156174 -0.24921638 0.24205405 -0.49783203 0.37906823 -0.46673012
-0.16518915 0.5008353 -0.019113898 -0.7941502 0.020207804 0.1562265 0.08861729 -0.22586422
-0.288786 -0.20632909 -0.4082883 0.20516667 0.38585162 0.39331546 -0.13805285 -0.8545258
-0.3388857 0.44151917 0.44411165 -0.63484246 -0.14762612 0.051964026 -0.19745298 -0.098054655
0.4877611 0.3864849 0.59999627 -0.69003123 0.10808831 -0.65000015 0.07308088 0.6191356
-0.1175666 0.6503538 -0.0457468 -0.29390025 0.28760913 0.018599033 -0.53662294 -0.3619535
0.24196479 -0.068359025 -0.6151524 -0.31264365 -0.009746625 -0.31142348 0.12913035 -0.99869734
0.001538922 0.48757458 -0.91706896 0.64313376 -0.11300114 0.081369 -0.27430922 -0.9885841
-0.26234153 1.0074328 -0.08268396 0.3202554 -0.06392336 0.05856714 -0.03025858 0.11795698
-0.5127032 0.34279674 0.49447826 0.29291287 -0.2688149 0.051730517 -0.82437 -0.5125408
0.42631918 -0.27743644 -0.0032683504 0.008312686 -0.37816313 -0.09654138 0.44829637 0.17476353
-0.0058323126 -0.06500059 0.6665002 0.3884544 0.5744206 -0.04257138 -0.8976524 0.8910197
-0.052561775 -0.43442208 -0.8109012 -0.0029115991 0.25740725 0.03191636 -0.21421368 0.5182697
0.33404267 -0.1630547 -0.17072949 -0.16504878 -0.32974568 -0.75651157 -0.25763446 0.46168774
0.41134435 -0.07044457 -0.46557766 -0.47621095 0.46429333 -0.4899891 -0.21548894 0.23789899
-0.7099285 0.016692167 -0.3293396 -0.3504234 0.026422203 -0.14717232 -0.5513848 0.65204877
-0.009204792 0.004584295 -1.0018682 -0.10359823 -0.022424968 0.0035986912 0.31103405 -0.594926
0.42945755 0.44044855 0.22466683 -0.23425683 0.71399754 -0.2333621 0.119904555 0.4455585
-0.39539206 0.68280256 0.020119237 -0.7720675 0.51199716 0.04508585 -0.15030754 -0.38939652
0.20355992 0.39540875 0.05573689 -0.8719132 -0.22677761 -0.050419096 0.06340622 -0.4225364
-0.59438336 -0.54262835 -0.17247504 -0.10923465 0.3450506 -0.14768396 -0.5843489 0.40890452
-0.24705935 0.2717048 -0.77798814 0.22992533 -0.12005906 0.52880657 -0.33980858 0.2456654
-0.22293516 0.18292303 -0.6916511 -0.5832469 0.52675265 -0.37585923 -0.23940443 0.3569593
-0.06755907 -0.10726954 -0.16248703 -0.18604285 -0.34010696 -0.52401143 0.10477217 -0.19992605
0.47793084 0.61159116 0.4020166 -0.6094775 0.1857747 -0.7820772 0.5155705 0.053197846
-0.13600624 0.8847566 0.31553206 0.13142377 0.106378205 0.60725945 -0.14205366 0.18839335
0.7699067 0.3639022 -0.28531995 -0.24117346 0.176788 -0.69159466 0.12418745 -0.8338087
-0.19154842 -0.08124085 0.19335768 0.73899096 -0.095961325 0.63659555 0.2944116 0.25392202
0.2987271 -0.8456276 0.2922618 0.6631736 0.18697663 -0.07491044 -0.19404355 0.7868974
-0.40309373 -0.62505704 0.12077873 0.49422118 0.21051748 -0.36711293 0.39040384 -0.72606534
0.30366302 -0.25706813 -0.5693711 0.05613652 -0.11055458 -0.4114814 0.05489642 1.087574

encoder.rnn.weight_hh_l1 f4 [96, 32]
00000000: f59f 303f ea42 4a3f 1a7a e33d d8c5 3f3d
00000010: 37de 883f 3ef4 b0be 0ba5 6e3e 9170 4a3f
00000020: 8435 e8bd eb24 953c 43b1 9ebe ac5e 2ebe
00000030: fd62 973e 48f8 80be 5b79 ca3d e914 64be
00000040: 0eac 36bf 6974 de3e 8b5b 32bc 253a a9be
00000050: 6102 d73e 2805 1bbe ce1c ba3e 5cbb 80be
00000060: e1d6 423e 2148 393c eeba 4e3e 4c8e 083f
00000070: 1528 c3bd 1092 f8be 6cf1 8f3e f977 2fbf
00000080: 08b9 bb3e b7f3 e33d f9d2 3c3d 86aa d83e
00000090: 81f4 2dbe f06b efbe c335 9fbd a307 0bbf
000000a0: a689 033d 6041 223f 5494 263e fda8 153f
000000b0: 4375 973e 3a96 b7bd cc13 a83e 1760 57bd
000000c0: fbd4 da3e b32f ccbe ed25 b63e a1d8 4ebe
000000d0: 4a85 753e 5515 043d 13f1 75bf 6bdd abbe
000000e0: ecf4 203e a206 043f 09ef be3c 910e 903e
000000f0: 0461 bcbd 6d84 d23e 6624 a6be 0b95 403d
00000100: 684b d13e 5f14 64be fada 58bf 414d 42be
00000110: ac44 c7be 4908 a0be a93a 5a3e 4b3d 923d
00000120: 0858 a8be 4b84 393e 5543 82bc 9dfa 03be
00000130: 9964 183e b7dc 253e 74cf 343e 35db ebbd
00000140: ecb5 763e 514e a6be 8132 b23e 4327 66be
00000150: 5be1 143e 7ce0 0fbf fe91 33bf 4386 983e
00000160: 9ae5 063f 2641 1d3e f8d1 47be c5b2 b43d
00000170: 4329 f1be 3d41 0cbf 3a6f 243e 9d0a 23be
00000180: 7309 eabd 0603 00be 1aa4 7cbe 6473 dd3e
00000190: bd5e 0abf 7257 9b3e 8415 b5ba 768a 7fbf
000001a0: ca3e a23d 313c 3fbe 31cf 5b3d 261c e8be
000001b0: de92 7dbe d9c0 253c a079 0ebe 6d77 66bc
000001c0: 984e 16bf 5843 b2be 49f7 b13e 007c 3e3e
000001d0: 16a7 e1bd 2831 82be a190 b0be c2a0 62be
000001e0: 6564 dabe d44a b33e a2b3 aebe 0a8c 4c3e
000001f0: fb76 ecbd 2558 0dbf 502c 96b9 7a75 233e
00000200: 3bf8 02bd c150 2b3f 382c 1ebe 0315 e73d
00000210: bfba 123e e2cb 06be adb5 83be 3f1f c1be
00000220: 16e5 6f3e 4134 00bf f2c8 c5bc 08a3 42bf
00000230: bb67 38be 9834 60be 0e97 563e 8368 1abe
00000240: df25 08bf 8c0e 813d 6280 3b3e 1a19 983e
00000250: b7ae 0abe bd20 45bf d8fa 1abf 974e 703d
00000260: 0b07 0a3d 0f81 ea3e 3f52 343e a67a f7bd
00000270: 97ef 133e fbe8 20bf 6973 93be d12c 303d
00000280: 8aed 0f3e 5085 c03e 60f5 773e b43d 90bd
00000290: e3de 6bbf 5142 b8be 476f 63bd 78fb eabe
000002a0: a15c 373c c903 c93d f3eb 83be 775a 74bd
000002b0: c3ad 76bc eba6 0a3f 83c0 f03e 266e 1f3d
000002c0: f986 6abe a78f ebbd 1104 373f 3ce9 503b
000002d0: 16f4 d13e 577f e2be 098e b43c 4e3e 0abe
000002e0: 1bcd e43e 8bb2 2d3f 676b 81be eb35 233f
000002f0: 03ba 7ebe 3529 14be 7618 a0be 0a04 0c3f
00000300: ddb7 cb3e 87de 4cbe 1e54 c7be 80c4 6b3d
00000310: db4c cc3c 89f1 54bf 5b2b 19bf 21c2 983d
00000320: 0087 ffbd 90f4 fb3e c2b9 19be d4b9 3f3e
00000330: 3c77 8c3e c02b 123f 6628 693f ef09 82be
00000340: edaf a03e 4d8b 9ebe 8e85 aa3e 3c4c eebe
00000350: 9e51 adbe b11f 293e 2432 22bd 6508 9b3e
00000360: 9466 c43e 0286 22bf 3eb6 fa3e f3d7 be3e
00000370: 5ac5 1abf 125e f9be 8179 99be d70b 16bf
00000380: 4da0 eabe cc86 dabe bedc 413f 7434 503f
00000390: cad5 05bf ca18 a6be 167a f23d 6aa8 eabe
000003a0: 832b da3e 7ced 373e 1683 b0be 6278 ecbd
000003b0: ef67 383e 59f5 0d3f 543e 573e de41 b8be
000003c0: 836d 8e3e edcb b1bd e4c9 b2be 9091 0f3e
000003d0: 1231 09be 7e77 9c3e b6fc 6d3f 8fd3 7abe
000003e0: 74e9 5ebd df47 d0be 8927 8fbe 7637 7d3d
000003f0: 0fc1 04be 0c91 75bb 2564 ac3c ceee f1be
0.68994075 0.7900835 0.111072734 0.046819538 1.0692815 -0.34561342 0.23305146 0.7907801
-0.11338332 0.01820608 -0.30994615 -0.17028302 0.2956771 -0.25189424 0.09886428 -0.22273602
-0.71356285 0.4344819 -0.010886083 -0.33052173 0.41994002 -0.15138686 0.363501 -0.25142944
0.19027282 0.011308701 0.20188496 0.5334213 -0.095291294 -0.48548937 0.28113878 -0.6854244
0.36664605 0.11130469 0.046099637 0.423176 -0.16987802 -0.46762037 -0.07773926 -0.5430853
0.032113694 0.63381004 0.1626752 0.5846098 0.2958165 -0.089642 0.32827604 -0.052581873
0.42740616 -0.39880142 0.3557581 -0.20199825 0.23976627 0.032246906 -0.96070975 -0.33567366
0.1571843 0.5157262 0.02330734 0.28136113 -0.09198192 0.41116658 -0.32449645 0.04701714
0.40877843 -0.22273396 -0.8470913 -0.18974783 -0.3891958 -0.3125632 0.2131144 0.07140597
-0.32879663 0.18116872 -0.015901247 -0.1288857 0.14882125 0.16197477 0.17657262 -0.1151642
0.24092835 -0.32481626 0.34804156 -0.22475915 0.14539091 -0.5620191 -0.7014464 0.29789934
0.52694094 0.15356883 -0.1951369 0.0882316 -0.47101793 -0.54787046 0.16058055 -0.15922017
-0.114275835 -0.12501153 -0.24671975 0.432521 -0.5405081 0.30340153 -0.0013815616 -0.9982065
0.07922132 -0.18675305 0.05366439 -0.45333976 -0.24763057 0.010116779 -0.13913584 -0.014066559
-0.58713675 -0.34817004 0.34758976 0.1860199 -0.11018197 -0.25428128 -0.34485343 -0.22131637
-0.4265472 0.35018027 -0.34121424 0.19975296 -0.11546131 -0.5521262 -0.00028643245 0.15962783
-0.031975012 0.66920096 -0.15446556 0.112833045 0.1432905 -0.13163713 -0.25724545 -0.3771915
0.23427233 -0.50079733 -0.02414367 -0.76030016 -0.1800832 -0.21895063 0.2095606 -0.1507893
-0.53182787 0.06301603 0.18310693 0.2970665 -0.13543211 -0.7700308 -0.6053901 0.0586687
0.033698123 0.4580159 0.176095 -0.1208394 0.14446865 -0.628555 -0.28798988 0.04301149
0.14055458 0.3760171 0.24214697 -0.07043019 -0.92136973 -0.35988095 -0.055526044 -0.4589498
0.011191518 0.09815175 -0.25765952 -0.059656586 -0.015056076 0.54160947 0.47021875 0.038923405
-0.2290305 -0.11502009 0.7149058 0.00318773 0.41006535 -0.44237778 0.022040384 -0.1350033
0.44687733 0.6785056 -0.25277254 0.6375415 -0.24875645 -0.14468844 -0.31268662 0.54693663
0.39788714 -0.20006762 -0.38931364 0.057560444 0.024938991 -0.83181053 -0.5983178 0.07458902
-0.12476921 0.49210024 -0.15012267 0.18723232 0.2743472 0.5709801 0.9107727 -0.25398204
0.3138422 -0.30965653 0.3330502 -0.46542537 -0.3385133 0.16515996 -0.0395986 0.30279842
0.3835951 -0.6348573 0.48967165 0.3727413 -0.60457385 -0.48704582 -0.29975513 -0.58611816
-0.45825425 -0.42680967 0.7572745 0.8133004 -0.5227934 -0.32440788 0.11839692 -0.45831615
0.42611322 0.17961687 -0.3447501 -0.11546399 0.18008398 0.55452496 0.2101987 -0.35987753
0.27817926 -0.08681474 -0.34919655 0.14020371 -0.13397625 0.30559915 0.9296373 -0.24494766
-0.054421857 -0.40679833 -0.2795985 0.06182047 -0.12964271 -0.0037470488 0.021043846 -0.47252506

encoder.rnn.bias_ih_l1 f4 [96]
00000000: a83b 2c3e da6b b73d 4467 f2bc af32 b8be
00000010: 3ce6 b33d bfc2 3cbe 2ae3 813d 117f 84be
00000020: eaf0 a3bd 3678 983e a7d1 a23d 5529 ed3e
00000030: 2b64 6abe 2ca5 14be 54d4 363d e03c 043f
00000040: 8691 8a3c 821e c73d 1a0c ecbd 6c32 e23e
00000050: 7636 5ebe 8e50 013d e3ac f53d 3b2c 3f3e
00000060: d530 d93e c8e0 52be d346 443e 2a57 2f3e
00000070: f3d7 073f 9e8f e7bc 9fa8 07bf 1f39 733e
00000080: 89e2 af3d 11d8 15bf 9f6c 28bf 0251 7c3d
00000090: 9cc8 0ebf 4f45 f03d a6e6 70bf 19e6 483e
000000a0: ce74 e9be 4df4 69bf 7356 0bbf e049 d6be
000000b0: 9fca c13d 8f1d 51bf ddc0 c3bd 087e febc
000000c0: defa 82be a750 7abe bc6a 3abe 2b08 1fbf
000000d0: f8e0 33be 4365 40be 3a54 9ebe da47 b7be
000000e0: 0636 7bbf af5f f73c 3b7c 68be e534 d83d
000000f0: a5a6 4abf 9a3a 08bf 93f7 c23e 8986 24be
00000100: 4a51 38be 502f 023f f339 fb3d 6307 613e
00000110: 39b7 b33d 17a8 ecbd e931 cb3e d50f af3e
00000120: 7b28 f83c f50d 923d 80e3 94be d74e 50be
00000130: 6f99 fdbd 0fe0 143e 1382 7c3a 0e50 a8bd
00000140: 37e1 413d 9d12 b4be 8a6e c73e 311a 8abe
00000150: aa72 553e ed79 97bc 2e9c f8be 886a 1dbe
00000160: 12b8 0f3e b7b9 623d 665c 283e 692a 0abe
00000170: d3b6 0e3d eca8 55be 1800 323e 34ab 803d
0.16819632 0.08956118 -0.029590257 -0.3597617 0.08784148 -0.18433665 0.06342156 -0.25878194
-0.08004935 0.29779214 0.07950144 0.46320596 -0.22889774 -0.14516133 0.044636086 0.5165539
0.016915094 0.09722616 -0.11525746 0.44179094 -0.21700463 0.031570964 0.11995866 0.18669216
0.42420068 -0.2059356 0.19167642 0.17123094 0.5306389 -0.028266724 -0.5299167 0.23752259
0.0858813 -0.58532816 -0.6579074 0.061600693 -0.55774856 0.117319696 -0.9410194 0.19619025
-0.45596927 -0.913884 -0.54428786 -0.41853237 0.09462475 -0.8168573 -0.0955827 -0.031065956
-0.2558202 -0.24444829 -0.18204778 -0.6212184 -0.17566288 -0.18788628 -0.30923635 -0.35797006
-0.9812931 0.030196993 -0.2270364 0.10556964 -0.7916053 -0.5321442 0.3807951 -0.16066946
-0.1799976 0.50853443 0.12266912 0.21975474 0.08775181 -0.11555498 0.39686516 0.34191766
0.03029274 0.07131568 -0.2907982 -0.20342575 -0.12382781 0.14538597 0.00096324197 -0.08218394
0.047333922 -0.3517045 0.38951522 -0.26973107 0.20844522 -0.018490756 -0.48556656 -0.1537267
0.14035061 0.055352893 0.16441497 -0.1349274 0.034842324 -0.2086522 0.17382848 0.062826544

encoder.rnn.bias_hh_l1 f4 [96]
00000000: 6063 133e c68a 113e 5579 853e 1709 f1be
00000010: a420 9abd cb2c b1bd f88a d6ba 265b dfbd
00000020: 51a9 343e ea3f 2f3e ee0e a53e 6c82 e23e
00000030: be5c 84bd 7dd7 7bbd 2815 77be 6ebd f73e
00000040: ad05 0fbe 35ae 36bd 7dcc 21be 056f 063f
00000050: 32d0 6bbe 2918 4cbe c6c5 d0bb c8e5 883e
00000060: e7d0 e83e ce4a 283d 3f5a a83e 1f15 cf3e
00000070: a84a a03e 2188 283e 7fa7 aabe 8ec0 bc3e
00000080: 24ce a9bc c43c 04bf 2444 2abf ca0a 663e
00000090: a6a7 10bf 0c69 00be 4ec0 59bf 7ab9 263e
000000a0: 2cd2 02bf 0af1 63bf 132e 1cbf 82ad 76be
000000b0: 02e7 403c 6f4d 6cbf 836b 69be 6bb4 8b3c
000000c0: c00f 98be 5e3b 91be c6de 43be 29c6 2cbf
000000d0: 7188 dbbd dfb4 a3be dec7 7ebe 87a7 a1be
000000e0: 939c 44bf aef2 fe3d 1855 c1be ed42 d93d
000000f0: ba88 11bf 7f1a bebe 376a 9e3e 9fea 06be
00000100: bfb0 89be 87f7 f73e 2a1f 0fbe ed62 2ebe
00000110: 4e88 683e 2963 47be 22e0 263d 0860 963e
00000120: f6b8 acbc cd77 d83d 5dfb dcbe e0d2 8ebe
00000130: 4c65 553e 9894 ac3e 0f94 0bbe f773 553e
00000140: aebc 37bc 993b 02be 45df 863e c616 c3be
00000150: 9e02 6b3d 47a9 90be fe24 d6be 645e c9be
00000160: 5edc 3bbd 9ed1 a33e 64a6 a4bc 4858 b9be
00000170: 271a c53e a77d b9be bbe9 523e 9a2d d6bd
0.14393377 0.14213094 0.26069131 -0.47077248 -0.07525757 -0.08651122 -0.001636832 -0.10906057
0.17642714 0.17114225 0.32237953 0.4424013 -0.06463002 -0.061484803 -0.24129164 0.4838671
-0.13967009 -0.04459973 -0.15800662 0.5251315 -0.23028639 -0.19931091 -0.0063712327 0.2673781
0.4547188 0.041086964 0.32881352 0.40445802 0.31306958 0.16458179 -0.33330914 0.36865658
-0.020728178 -0.5165522 -0.66510224 0.22465053 -0.5650581 -0.12540072 -0.8505906 0.16281691
-0.51101947 -0.8903967 -0.61007804 -0.24089625 0.011773827 -0.92305654 -0.22794919 0.017053803
-0.29699516 -0.28365606 -0.1912795 -0.6748987 -0.107193835 -0.3197393 -0.24880931 -0.31573126
-0.76801413 0.12448631 -0.37760234 0.10608468 -0.56849253 -0.3712959 0.3094041 -0.13175438
-0.2689266 0.48431036 -0.13976732 -0.17029925 0.22708246 -0.1947142 0.040741093 0.2937014
-0.02108429 0.10569725 -0.43160525 -0.2789526 0.20839423 0.33707118 -0.13630699 0.20845018
-0.011214418 -0.12718047 0.26342216 -0.38103312 0.057375543 -0.28254148 -0.41825098 -0.39329827
-0.045864455 0.31995863 -0.020098872 -0.36200166 0.38496515 -0.36228678 0.20596974 -0.104579166

decoder.attention.W_k.weight f4 [32, 32]
00000000: 7d3f 9dbd 9b1c fc3d 61a5 0bbd c564 5b3d
00000010: c5e1 56b9 d797 f53d 1bb2 81be 15bc a43c
00000020: 8f18 e93e a927 a63e fcf2 293e 3ed5 333f
00000030: 03e2 713e f954 493e 1c11 aebe 9e6d d1bd
00000040: 2de7 31be 4cbf dfbd 6194 c5bd 726a 92bd
00000050: 2370 003e 877e 9abc c58f d2bc 1e3c cfbd
00000060: 8a19 b23d f117 45be c302 59bd e0e1 16be
00000070: bef6 11be 82dc 6c3e da66 f63e 2f7f 28be
00000080: 4917 b5bc c1ff 9abd ecd4 6c3e 01f5 52bd
00000090: 33f8 bbbe 9e93 f53c 4c49 a2bc 19ba 47bf
000000a0: 0551 bbbe 0d9f 61be 5257 2bbe a9a2 a5be
000000b0: c3ce af3e 0d85 ad3c 50f7 773e 4860 513d
000000c0: df0d eabe 1afb 7abd 164f 4bbe 1a90 6e3c
000000d0: c7a1 553e f23b a33a 14c1 823e e453 e33d
000000e0: b897 1ebf b1e8 4e3d 73b4 7dbe ac50 563b
000000f0: ee9d cb3e 25b5 6bbd 3c20 963e 6ff1 eebe
00000100: 15e8 413d b0be 273e 48dd 0abd 7cf1 493e
00000110: 018b 23be c04a 543e 74ce 723d 440b 30be
00000120: 85af 1d3f 6f55 54bd cb4e 353e 6714 483d
00000130: 45b4 be3d 419a 713d bee1 b3be 4818 e1be
00000140: a94a edbd 5b48 613e ee7d 26be 76a7 9ebe
00000150: 335b ffbe 5975 da3c 171e 3c3e 3eb5 b7bd
00000160: d4dc 433e accf 26bf 1ef0 ebbb 32f8 45bd
00000170: 5ef2 f2bd 4f1b d43e 2b89 ee3e 4c4a 7bbd
00000180: f9a5 d6be 68e0 c53d 485c 4a3e a3aa 21bd
00000190: 9d1c 43bf fa3c 11bf 46f9 95be 2c08 81bf
000001a0: cfa2 65be 0a32 efbe 23e1 533e 5d09 0fbe
000001b0: 9a0a e5bd 4ea0 c23e ef3e 163e 5b69 023f
000001c0: f9b6 09bf b3b0 8cbe 1dd5 883d b0e7 223e
000001d0: f37b 433e 1322 0abe f360 0c3d d622 46be
000001e0: 2215 f1be 2f6e 053f 770e a83e 8ae6 c6be
000001f0: 028f 2ebd 0e3b dcbe 7ff3 abbd 5590 e13e
00000200: 980d 0fbf f074 8dbe d535 e93d 1aa1 9d3e
00000210: cd75 cb3e 7b53 7f3e cf62 803e 2e0f 5cbe
00000220: 665d c13d 687d 123f a43a 51be ca03 a1bd
00000230: 17fe a2be 0520 563e 5c2c 18bf 0d79 c63c
00000240: f3eb 98be 5024 bf3e 8747 4fbe 6ca6 4ebe
00000250: b460 b0be 85a9 663e 12b0 3e3e e1ab 783e
00000260: 8b10 a0bd 20f9 0ebf 267b a4be 6c95 21bf
00000270: 9d45 6f3e dc8f 023f 7345 153e 9305 cf3e
00000280: 1fcc 84bc 21ba 87be 09e1 eebd 82e6 f1bb
00000290: 1182 423e ccc0 a73e 4431 0bbe 98f1 90be
000002a0: e1fa 0f3f 456f a1bd 8b9c 11bf aeea 7dbe
000002b0: 37cd 0b3f acea a33c 7c22 91bd cd41 913d
000002c0: faea d2bd 0404 3c3e 27ae a43e ae35 7b3e
000002d0: bf34 d43e 23c2 893d 487b 5d3e 8ed2 cebd
000002e0: b124 c4be 7fcd 3c3e cad0 09be 7d5e eebd
000002f0: 0b72 70be 7672 2dbf 38f7 ddbd c2a7 17bf
00000300: 9ead f0be 8de9 b9be 40db ccbe 6f19 373e
00000310: 3b20 1f3f d01f bb3e 112a e23d 62d5 fd3e
00000320: 57a6 a0bc a3bd 73be c583 ecbe 9bff ac3d
00000330: c4d3 e6be ea25 a63e 77b1 babc 177f 503e
00000340: 3e95 4c3c 2e93 373e e281 84bd e6e9 c7bd
00000350: 1413 dbbd 057b 333e 3e0a 9c3e 0740 f23e
00000360: 16da cf3e d58a 83bd 383a 71be 674b f0be
00000370: 83d8 0e3d f6ff c93c 47a2 dc3e 14ce 66be
00000380: 01ad 77be d00d dcbd 7592 823e 3270 f03e
00000390: 22fe bdbc b91c c0bd 724d 0dbf e716 53bf
000003a0: 48f2 fc3d 9743 913e 7bbf 34bf 08a9 38be
000003b0: 0d35 653e ccf8 58bd a6a6 093f 260a febe
000003c0: d7f1 b0bc 974a d5bc 9c6a 043e 4710 89be
000003d0: ff9b ca3e 60dd 19bf c123 eb3e 9f56 3bbe
000003e0: b950 053d 5234 e93c 5b8c 2dbf 9c6e 813e
000003f0: 6186 4fbd e63d 84bd 9b56 56be 30ab fdbe
-0.07678125 0.123101436 -0.034093264 0.0535629 -0.00020492736 0.11991852 -0.25331196 0.020109216
0.4552655 0.32452133 0.16596597 0.70247257 0.23621373 0.19661321 -0.33997428 -0.10225986
-0.17373343 -0.10925159 -0.09647442 -0.07149209 0.12542777 -0.018859161 -0.02570332 -0.10118888
0.086962774 -0.19247414 -0.05298115 -0.14734602 -0.14254281 0.23130992 0.48125345 -0.16454767
-0.02210583 -0.075683124 0.23128098 -0.051503185 -0.36712798 0.029977616 -0.019810341 -0.7801834
-0.3658525 -0.2203333 -0.16732529 -0.32350662 0.34337434 0.021181608 0.24215436 0.05111721
-0.45713708 -0.061274625 -0.19854388 0.014560724 0.20862494 0.0012453778 0.25537932 0.11099985
-0.61950254 0.05051488 -0.24775867 0.0032701893 0.39768928 -0.0575458 0.29321468 -0.46668574
0.04734047 0.16381335 -0.033902436 0.19721025 -0.15970995 0.2073164 0.05927892 -0.17191797
0.61595947 -0.05183929 0.17705838 0.048847582 0.093117274 0.058985 -0.35133165 -0.43963838
-0.11586506 0.22000258 -0.16258976 -0.30987138 -0.49874267 0.026667284 0.18370853 -0.08970116
0.19127208 -0.6516063 -0.007200255 -0.0483324 -0.11862634 0.41427085 0.46589026 -0.061350152
-0.41923502 0.09661943 0.19761765 -0.039469372 -0.76215535 -0.5673367 -0.29291743 -1.0080619
-0.22425388 -0.46717864 0.20691352 -0.13968416 -0.11183663 0.38012928 0.14672445 0.5094201
-0.5379482 -0.2747856 0.06681273 0.15908694 0.19090252 -0.13489561 0.034272145 -0.19349226
-0.47086436 0.5212125 0.32823536 -0.38847762 -0.04261685 -0.43013805 -0.083960526 0.4405543
-0.5588012 -0.2762828 0.11387221 0.30786973 0.39738312 0.24934189 0.25075385 -0.21490166
0.094416425 0.57222605 -0.20432526 -0.07862051 -0.3183448 0.20910652 -0.5944269 0.024227643
-0.29867515 0.37332392 -0.2024213 -0.20180672 -0.3444878 0.22525604 0.18621853 0.24284317
-0.07815655 -0.55848885 -0.32125205 -0.63118625 0.23366399 0.5100076 0.14577274 0.4043394
-0.016210614 -0.26509193 -0.11664016 -0.007382215 0.18994929 0.3276428 -0.13593012 -0.2830932
0.56242186 -0.07882551 -0.5687949 -0.24796554 0.5461001 0.020009361 -0.070866555 0.07092629
-0.102987245 0.18360907 0.32164118 0.24532196 0.41446492 0.06726482 0.2162906 -0.10098754
-0.38309243 0.18437766 -0.13458553 -0.11639116 -0.23481004 -0.6775278 -0.10838169 -0.59240353
-0.4700746 -0.36310998 -0.40011024 0.17880796 0.62158555 0.3654771 0.1104318 0.4957686
-0.019610567 -0.2380281 -0.46194282 0.084471904 -0.4508344 0.324508 -0.0227897 0.20360981
0.012486754 0.17927238 -0.06470086 -0.097614095 -0.10696998 0.17527397 0.30476564 0.47314474
0.40596074 -0.064229645 -0.23557365 -0.46932527 0.03487445 0.024658184 0.43092558 -0.2253955
-0.2418709 -0.10744822 0.25502363 0.46960598 -0.023192469 -0.093804784 -0.551963 -0.8245682
0.12350899 0.2837188 -0.70604676 -0.1803323 0.22383519 -0.052971646 0.5376991 -0.49617118
-0.021599693 -0.026036544 0.12931293 -0.2677023 0.3957214 -0.60103416 0.45925716 -0.18294762
0.032547686 0.028467331 -0.6779229 0.252797 -0.050665263 -0.06457119 -0.20931475 -0.49544668
