Seq2Seq/checkpoints/net.pth (torch, 193509 bytes, 20 tensors)

encoder.embedding.weight f4 [184, 32]
00000000: 23aa 493e 7ce0 183c e51b 543f d527 4fbe
00000010: ddf0 f53e e594 0b3f 4bdb d4bd edc6 b9bf
00000020: a69a ba3e 7314 95be 61f5 e03f acd1 973e
00000030: 3a54 e6be a597 c6be 33e4 1b3f 418e 70be
00000040: 7029 a5bf f7f6 013f e6b6 e4be 7166 bbbf
00000050: 7913 253f e94a cbbf af78 2d3f f6f1 ae3f
00000060: 9317 7a3f a5e7 d43e 6175 1d3f 6f5a ccbf
00000070: ee0d 713f e42c 80bf 3d49 5f3f 7f27 073f
00000080: e22e 043e b372 9abf 72d8 6fbe 4146 6bbf
00000090: e9a2 ad3f 2f90 8f3b fabd fa3f fa30 acbd
000000a0: 0ba8 833e 004a 4d3f c9d6 673e 68c3 cbbf
000000b0: e0b2 683e b93e 13bf 39e6 b03f ea60 aebf
000000c0: feb3 1abf e0a9 f63f e9fd 3c3f f885 913e
000000d0: c2c5 c43e ee1a 093f 34cc cfbc df82 59be
000000e0: 9fec 66bd ac59 88bf e619 a93e 8635 373f
000000f0: 6e48 afbf 7c82 8f3e cd52 02c0 4b4e 753f
00000100: 5106 bc3e 69df e1be c09d 1b3e 6d5d 0f3f
00000110: 46ed 0f3f 553c adbf 5b76 473f 0b29 713f
00000120: 52cc fa3e dd4d febc 9d0d 2cbf 7d44 07bf
00000130: 2504 8bbf 8dc8 bc3d 5ad4 043f 1a61 a93f
00000140: 9453 c63e a862 f8bf 45ce ad3e 6087 d53e
00000150: 1382 e83e b52a ad3b 1259 053f 413c a7be
00000160: 72f4 703e 8d8b bc3e b4ab 93bf 7e33 f83f
00000170: 324b 07be 59f5 d53f aa4f 0740 16eb 0b40
00000180: bc07 c8bd 6e8e 0abd f67a 84bf 6907 3d3f
00000190: 7146 7e3e 8e90 993e 99e5 0d40 2512 8f3f
000001a0: 80c8 633f 8b95 c3bd f88b e63e 580b b7bf
000001b0: 8cf1 29bf 95cc a53f 7ffa a83f 436a c8bf
000001c0: 269f 543e 8353 4540 b30b fabf 317f 503f
000001d0: 320b c03f 1510 66bd e638 79bf c8cd 0ec0
000001e0: e514 5fbd 2147 b8bf fac5 49be a4b4 81be
000001f0: 86db 73bf b6f7 703e cfed 8c3f b2cb 583f
00000200: 52d1 12bf 0a8d 283f 5758 8f3d 395a 07bf
00000210: 6e4d 6dbb af20 b43e 9313 5b3c 877c 4fbf
00000220: ccbd ac3f d949 af3f 681d 03bf baa3 cb3e
00000230: 1e0e 6abf 8c91 eb3e 8687 bc3f 223b 6f3e
00000240: ad4e bb3f 8415 a83f 8e39 883c 7e9f 833f
00000250: 3e8b fbbe 8d97 33bf adfd 1f3e ff13 8abf
00000260: 57c2 893d 5ed9 a6bf f6da 8f3f 1d86 8f3f
00000270: ac49 4e3f 4115 11be 2965 fd3e d8da 0640
00000280: 1461 f83e d23c 373e d291 1a3f 0a96 29bf
00000290: a751 4fbf 90a7 523f d950 c83e 76d8 833f
000002a0: 4209 0a40 2114 0abf 42a8 82bf e7d5 0dbf
000002b0: 2525 35bf f0ba b23f 4b69 e13e da4b cc3e
000002c0: f443 793e a360 32c0 d90a 383f c997 0940
000002d0: df9f 243f 6e45 16be a9b4 3abf 3d5d 263e
000002e0: 8568 6cbc 4148 9a3c 11de 02c0 f4e9 38c0
000002f0: 6825 bd3f afb9 97bf 1858 bcbe 0dbf bfbe
00000300: 895d 05be 842d 843f 3dd5 17be 9cff 2e3f
00000310: 3c62 0f3e 8111 c33f 1cca 11bf 3d2b 2fbf
00000320: 137f 0bc0 afae 1dbf 2370 07c0 ecf3 f23e
00000330: efa9 0dbf ee6e bbbe edb4 f03e 412d a03f
00000340: 4599 62bf d9d6 18bf 36e1 003e 7c38 c83f
00000350: 6dc8 2e3f 353a 223e 3b7d 893e 8b70 acbe
00000360: 6881 0e40 b0bd 283f f7f8 4dbe bdff 2fbf
00000370: bb12 503f 7f37 06bf 023f 7cbe 6379 163f
00000380: 66e4 c23f de82 5b3f de6f 5cc0 8e92 9ebe
00000390: c667 d9be dfec ad3e a842 c9bf 91e0 d93e
000003a0: 67d9 73bf 0f06 063e 10f5 2abe 7f82 1a3e
000003b0: 9194 06bf f83f 29c0 c850 48bb b276 893e
000003c0: 83af 18c0 5c3e ebbf 6c7f 7bbf 36a4 c7bd
000003d0: 01f6 443e ebf1 99bf 45d7 d83f 43e6 16bd
000003e0: 14eb 8f3f 9e2a 31be dc1d 9c3e a9ad 0f3f
000003f0: 9f2a 433f f297 b0be 575c 1740 26c3 3cbe
0.19693808 0.009330865 0.82855064 -0.20230038 0.48035327 0.5452407 -0.10393389 -1.4513832
0.36446112 -0.29117164 1.7574884 0.29652154 -0.44986135 -0.3878757 0.6089508 -0.23491766
-1.2903271 0.50767463 -0.4467079 -1.4640638 0.6448284 -1.5882236 0.67762274 1.3667591
0.9769222 0.4158298 0.6150723 -1.5965098 0.9416188 -1.00137 0.8722113 0.5279464
0.1290851 -1.2066253 -0.23422411 -0.91904074 1.3565341 0.0043812017 1.9589226 -0.08407779
0.25714144 0.8019104 0.22640528 -1.5919008 0.22724485 -0.5751758 1.3820258 -1.3623326
-0.60430896 1.9270592 0.73824936 0.28422523 0.38432127 0.53556716 -0.025365926 -0.2124133
-0.056378003 -1.0652366 0.3302757 0.71566045 -1.3693979 0.2802924 -2.0363038 0.9582259
0.3672357 -0.4411576 0.15196896 0.5600193 0.56221426 -1.3534037 0.7791497 0.9420325
0.4898401 -0.031042987 -0.6720827 -0.5283888 -1.086064 0.092179395 0.5188652 1.3232758
0.3873564 -1.9405107 0.33946434 0.41704845 0.4541174 0.005284632 0.52089036 -0.32663158
0.23530748 0.3682522 -1.1536775 1.9390714 -0.13212278 1.6715499 2.1142373 2.1862235
-0.097671 -0.033827238 -1.0350025 0.7383943 0.24831559 0.299931 2.2171385 1.1177412
0.88977814 -0.095500074 0.45028663 -1.4300337 -0.66384196 1.2953058 1.3201445 -1.5657429
0.20763835 3.0832222 -1.953482 0.8144408 1.5003417 -0.05616768 -0.97352445 -2.23131
-0.054463286 -1.4396707 -0.19704428 -0.2533313 -0.9525684 0.23531994 1.1010073 0.84685814
-0.5735065 0.6584021 0.06999271 -0.52872044 -0.0036209482 0.35181186 0.013371366 -0.8104939
1.3495421 1.3694412 -0.51216745 0.3977335 -0.9142779 0.4600948 1.4728858 0.23362401
1.4633385 1.3131566 0.016629007 1.0283048 -0.4912967 -0.70153123 0.15624113 -1.0787352
0.067265205 -1.3035085 1.1238697 1.1212803 0.80581164 -0.14168264 0.49491242 2.1071072
0.48511565 0.17894295 0.60378754 -0.66244566 -0.80983967 0.8228693 0.39124182 1.0300434
2.156815 -0.53936964 -1.0207598 -0.55404514 -0.70759803 1.3963299 0.44025645 0.3990162
0.24342328 -2.7871482 0.7189155 2.1498892 0.64306444 -0.14674923 -0.72931916 0.16246505
-0.014429216 0.018833281 -2.0448039 -2.8892794 1.477704 -1.1853541 -0.3678596 -0.37450448
-0.13023962 1.032639 -0.14827438 0.6835878 0.14002317 1.5239717 -0.5694902 -0.6842535
-2.179631 -0.6159467 -2.1162193 0.47451723 -0.55337423 -0.3660807 0.47013035 1.251381
-0.8851512 -0.5970283 0.12585911 1.5642238 0.68274575 0.15842517 0.26853356 -0.33679613
2.2266483 0.6591444 -0.20114504 -0.687496 0.8127858 -0.5242843 -0.2463341 0.5877897
1.5225952 0.8574656 -3.4443278 -0.30971187 -0.42461985 0.3396978 -1.5723467 0.42554143
-0.95253605 0.13088249 -0.16695046 0.15088843 -0.52570444 -2.6445293 -0.0030565728 0.2684837
-2.3857124 -1.8378406 -0.98241305 -0.097481176 0.19234468 -1.2026953 1.6940695 -0.03684069
1.1243615 -0.17301413 0.3049153 0.5612436 0.7623691 -0.34490925 2.365011 -0.18433818

encoder.rnn.weight_ih_l0 f4 [96, 32]
00000000: bdce 573e bd89 53be a4e5 64bd 20bc a4be
00000010: ab9d bd3e 2cc3 86be 2100 ef3e 8a8b b8be
00000020: 63f5 253f dcc7 2f3f 6947 e73e 358e 1f3e
00000030: 24bb ffbb c9fb 663e 6a70 1f3e 7667 aa3d
00000040: ae63 babe 3437 313f 5ae5 313c 5c74 1b3e
00000050: a23c 1c3e c381 debd b728 8a3e 2e17 9f3d
00000060: 00fa febe 0008 5ebe cfc1 853e b428 933d
00000070: 8a91 97bb df35 b83d 293a f0bd 8261 3b3c
00000080: ee57 55bf b067 b13e e4d8 98be 6c2a de3d
00000090: a1bf 633e 1e4b c3bd ec0a a33d 4234 adbe
000000a0: 20cb 293f f1c8 6b3d 0104 af3d 6528 cdbe
000000b0: a7d0 4b3e 6ecc 33be 228f 023f 36bf 95be
000000c0: f675 f0be 3721 af3e 3bc5 413e 88d0 143e
000000d0: 0d28 b73d de40 ffbe 6b07 053f 51af 00be
000000e0: a85f c5be 30fa 09bf 6e47 ddbd 6b20 a43e
000000f0: 3122 07bf 148a 093e 92fa f03d 6b2f 1f3f
00000100: 2423 ad3d a79a b23d d4e8 123e d0d2 fdbd
00000110: f7e0 383e 65b1 a93e 88ef 0b3e 0702 223e
00000120: 19ba 52be 486d 1fbe b656 f83e 4317 ebbd
00000130: e085 2cbf 51e2 7e3e 50b0 9b3e d34e 75be
00000140: e0da 4d3e 3aa1 a83e af45 a4be a2f1 7a3e
00000150: 3532 b1be c58f c9be a6e3 a8be c0fa 823d
00000160: 8591 08bf da7e ed3d 363f 00bf f0c7 8e3e
00000170: bb9f 523e 897b 1cbf 246e 49bd cfcf 1ebe
00000180: d99b 77bd cf7a dc3d 1f6f 113e c391 293c
00000190: 7a5b c83e 35bc a83d 9b9c 9f3d 1a68 083c
000001a0: 7ca0 bb3d 0cc9 09be 580f 9fbe 004f 163d
000001b0: aee2 e9be 779b 943e 9514 1c3e e528 1b3f
000001c0: 10d3 6a3d 46ed a9be d6fe c4ba 8498 90bd
000001d0: 154b 3b3d ee31 52bd a703 553d d8d4 c53e
000001e0: cabb de3e 005a 2abe c406 843d 48fb 333e
000001f0: 749c 51be d0f6 9cbd 2c5b 3d3d 9ca8 9a3e
00000200: 4b4b cbbe 1516 b23e c17e 2ebd 783e 043d
00000210: d393 4dbe 8f53 633e 5e29 66be beae 8cbf
00000220: b0c6 043f 3717 743d 67db 68be ed65 0d3f
00000230: 778d 26be bde3 993d 4d7d adbe 0516 acbc
00000240: aca1 143c 809e 27be 2e9a ba3e c1da f83d
00000250: b0c7 ba3d d760 c3be 38b7 c7be 8398 efbc
00000260: 933f 7f3e 3119 fbbe a06c 293f 17a7 0bbe
00000270: ac5d e73e d46f 17be 9eb3 183f fe54 923e
00000280: 7d0e ae3e 3399 4b3f 6b1b f63d 2059 82bd
00000290: 46e5 b03d 146c 903f 83ef eabe 70b5 103e
000002a0: ed4c 973e fdb4 e03e 56be ee3e d3b1 f7bd
000002b0: eae7 6cbf 72c2 f33d 3022 ce3e f07b 793d
000002c0: c593 78bd 5292 993e d6b1 88bf cbfc 08bd
000002d0: cdbe 6ebe ab83 76be 153a 623e 103a cebe
000002e0: 0001 9cbe 08b3 b6be 613f afbe c9e1 e1be
000002f0: 8c57 0e3f 715c 2d3e ccfb 0b3d ac05 db3d
00000300: a3d0 1ebf 7517 143e 87eb 2d3e 8de9 acbd
00000310: c0db 0c3e c13e afbd 8310 73bc 84e4 913e
00000320: 483f d33e 3061 243f 786c 04be 3e35 bf3d
00000330: f416 b73e fdb4 4b3e 2208 8a3f f337 32be
00000340: 68b4 6bbf ed9f 173f 1a0f 2c3f b732 3f3d
00000350: bf59 0dbe 033e b2be ef53 d43e d47a 9ebd
00000360: 64c6 b23c 116e 04bd d74a 2ebf 0ed3 37bf
00000370: fc07 c23e 81c1 35be 03e6 2fbf 2928 1d3f
00000380: 3aa6 bcbe 878e 93bd 1210 d93e f13b 15bf
00000390: 231c 683e d4ba ad3d de26 edbe 6173 a03e
000003a0: b858 02bf 7b27 a0be e094 8a3d 0613 d3be
000003b0: 88a8 d33d 748a 1d3e 6d33 49be 472b 38bd
000003c0: 4858 033d 78ca 3fbe 44e6 06bf 9ac7 99bd
000003d0: 8f2a 08bf ccc9 3dbe f1e6 963e a94d 98be
000003e0: 129b e13e 3b67 883e 246a 5c3d 9410 123f
000003f0: 75e5 463d ff42 7ebe 2f90 99be b0f9 d03d
0.21074958 -0.20658012 -0.055883065 -0.32174778 0.37034354 -0.2632078 0.46679786 -0.3604396
0.64827555 0.68664336 0.4517167 0.15581591 -0.0078042913 0.22556986 0.15570226 0.08320515
-0.36404175 0.6922486 0.010857904 0.15181106 0.15257505 -0.10864594 0.26984188 0.07768093
-0.4980011 -0.2168274 0.26124427 0.07185498 -0.004625504 0.0899465 -0.11729843 0.011436822
-0.83337295 0.3464942 -0.29852974 0.10847935 0.2224107 -0.09535812 0.079610676 -0.33828932
0.6632557 0.05756468 0.085456856 -0.4006988 0.19903813 -0.17558452 0.50999653 -0.29247445
-0.46964997 0.34205028 0.18922894 0.14532673 0.08943186 -0.49854177 0.51964444 -0.12566878
-0.38549542 -0.5389738 -0.1080464 0.32055983 -0.52786547 0.13431579 0.117665425 0.6218173
0.08453968 0.08720904 0.1434663 -0.12393725 0.18054567 0.33143154 0.13665593 0.15821086
-0.20578803 -0.15569031 0.48503655 -0.11479046 -0.6739178 0.2489102 0.30407953 -0.2395585
0.20103025 0.32935506 -0.32084414 0.24506238 -0.34608617 -0.393675 -0.32986182 0.06395483
-0.53347045 0.11596461 -0.5009645 0.27886915 0.20568745 -0.61126 -0.049177304 -0.1550896
-0.060451362 0.107656114 0.14202546 0.010349694 0.3913229 0.08239023 0.07793542 0.008325601
0.09161469 -0.134556 -0.31066394 0.036696434 -0.45680755 0.2902486 0.15242226 0.60609275
0.05733019 -0.33188838 -0.001502956 -0.0706034 0.0457259 -0.051317148 0.052005436 0.3863895
0.43502647 -0.16635895 0.06446603 0.17576325 -0.20469838 -0.07664263 0.046229526 0.30206764
-0.3970588 0.34782472 -0.04260135 0.032286137 -0.20075922 0.22199844 -0.22476718 -1.0990827
0.51865673 0.059592452 -0.22739945 0.5523365 -0.16264902 0.07514141 -0.3388466 -0.021006593
0.009071749 -0.16369057 0.36445755 0.12151099 0.091201186 -0.3815982 -0.39006972 -0.029247528
0.24926595 -0.49042657 0.66181374 -0.13637958 0.45188653 -0.14788753 0.59649074 0.2858047
0.3399543 0.7953064 0.12016948 -0.063646555 0.086374804 1.1282983 -0.45885858 0.14131713
0.29550877 0.43888083 0.4662959 -0.12094464 -0.9254137 0.11902322 0.40260458 0.06090921
-0.0606878 0.29994446 -1.0679271 -0.033444207 -0.23314972 -0.24073665 0.22092469 -0.40278673
-0.30469513 -0.35683465 -0.34228042 -0.44117573 0.55602336 0.16929795 0.03417568 0.10694441
-0.62037104 0.14462073 0.16984378 -0.08442984 0.13755703 -0.08556891 -0.01483548 0.28494656
0.41259217 0.64210796 -0.12932003 0.09336327 0.357597 0.1989326 1.0783732 -0.17404155
-0.92072153 0.592284 0.67210543 0.046679225 -0.13803767 -0.34812936 0.41470286 -0.07738271
0.021823116 -0.03233153 -0.68082947 -0.7180642 0.37896717 -0.17749597 -0.68710345 0.61389405
-0.3684557 -0.07204919 0.42395073 -0.5829459 0.22666983 0.084829 -0.46318716 0.31338027
-0.50916624 -0.3128012 0.06766677 -0.4122545 0.10334879 0.15384847 -0.19648524 -0.044963147
0.032066613 -0.1872958 -0.5269511 -0.07508774 -0.5318994 -0.1853401 0.2947307 -0.2974675
0.44063622 0.2664126 0.05381216 0.57056546 0.04855867 -0.24830244 -0.29992816 0.10203874

encoder.rnn.weight_hh_l0 f4 [96, 32]
00000000: 69ac e43d 90fc 10bf 3403 96be 967e 59bf
00000010: 47ca fbbe f374 4bbe e86c 573e 7a58 023e
00000020: 69e8 33be 377e dfbe 4ed9 27bf cdf5 00be
00000030: a902 65be 41fc 12bf 2a0a 1c3f 7474 5abd
00000040: 0cf6 afbc 2ba7 54be c1ff 81be 9e1a 043d
00000050: f11d 91bd b35f 313d 65c2 4abe 7e23 e03e
00000060: 98c2 7e3d 85c3 233c aaa6 edbe a896 593e
00000070: f66a b9be 5422 18bf 24b4 31bf 370d a63e
00000080: c62c bfbd 3d04 8c3e 90ec bcbe d3ec 503d
00000090: bbf4 d03d 6fc0 a13d 899d 913e 5224 16bf
000000a0: 35dd 38be e39b a3be 0bfd 563d 4084 1f3f
000000b0: c629 7cbe 8c2b f13d 9896 773e 4383 88be
000000c0: 482b 0cbe cea4 0a3b e15d 00be 8d72 07be
000000d0: 1c54 633e 4e23 2b3f cf85 95bd 1a83 da3c
000000e0: 54e3 013e bffd 59bd 800f 373d 6734 113e
000000f0: 3428 193f 4a8b bd3e 505d 2e3f 4701 093e
00000100: 922e 903d f374 9bbe bac9 30be b753 e13e
00000110: c54d 04bf b206 7d3e c92c a4bf cb2e 2bbf
00000120: 4859 563f 5538 f1bc fdd7 2abf def4 0fbf
00000130: 0f50 3abe 20e1 2abf 004f 663e aa2c a53b
00000140: 2973 e93d 20cd b5be 2aff 053d e028 cebe
00000150: 49cc b73c 7fcf 0c3e b29e 883b 4391 4ebe
00000160: 106e 123e 0381 003d 08ba 4b3e 38ca b03e
00000170: 15be a9be 6239 453f dda1 a73e 4d48 1cbf
00000180: 7a66 60be 6b89 46be 1c04 03be 0bd6 c7be
00000190: f173 27bf 2a79 3a3e ea97 29bf 4aec 4f3f
000001a0: 6cf0 2dbf 0f4a 35bd eb81 413c 5600 e9be
000001b0: 4e19 123f 18f9 fa3c f3b0 52be a3f0 7d3e
000001c0: 1d8e 203d ed7d 23bd f223 d4be 7e08 dabc
000001d0: b975 45bf 7bad 7d3f e361 073d 6602 823c
000001e0: 28a0 933e 2679 fabe fdd4 87bd d88a 073d
000001f0: 3dc9 413f 03f4 0a3f 9a1e 11be cc7a 0ebf
00000200: 3a32 0e3e 2660 d23e c759 a2be a42d a53e
00000210: ccbc bcbd a782 0a3d bfb9 cfbd 9896 88bd
00000220: d5da 1a3d 6de6 fcbe ec17 303d 1ad4 a53e
00000230: da4e acbe 6609 dcbe 1b62 c83c 57ff 853e
00000240: 3373 293e 9afc 1bbe 261f b0be 6175 0b3d
00000250: 2150 8d3e 9469 073e 3d74 7ebe 47d8 cdbe
00000260: ace6 d63d ac34 443e a8ba 10bf f7fe 5dbe
00000270: 3b4a bdbe a78c 6abd 623c bbbd da87 023e
00000280: 21fe 823e 3f38 28be 2337 7fbe 789d b23e
00000290: a831 3fbe 9a6f 8dbe 01f2 683e 9c4c 393e
000002a0: 82b4 f23e cd88 d23e ef43 f4be 7209 e0be
000002b0: 8cdb 0ebf 479a 28be 5d54 1a3f 1eb0 54bd
000002c0: a9b3 84be ab74 323e 5373 be3d c543 9e3d
000002d0: 53a8 87bd 17df 8e3e 7402 50bf 4a49 413f
000002e0: 67fb 8bbe b12c 0f3e 0fe1 573d 38a7 e93d
000002f0: c6a5 8a3d e975 c3be 00e0 9dbd f5f2 a03e
00000300: 92b0 9d3e 9410 ed3d 2be8 fbbd 9670 25bf
00000310: 446f 9cbe 5b5d 213e bfeb f3be 7844 6b3d
00000320: e6da 7d3c ceb1 c0be 2f6d 4ebf 0b07 bf3e
00000330: aa45 8dbe 3dee 07bf ffdf 873e e65e 93bd
00000340: 7476 153f 56b4 8a3d 67b3 3c3e c53b 26bf
00000350: b548 1abf fc54 8bbf b901 b8be d441 163d
00000360: 7911 32bf 2443 b53e 4a33 37bd 4d5f 733e
00000370: c160 1d3e 449c 6d3d be3d 7fbe c640 4e3f
00000380: 3971 d63e 7c8b 1fbf 4b38 f13e 20f5 04bf
00000390: 9a67 a03e 857d 953d f031 4abf 898b be3b
000003a0: 5c48 043f 5f5a cbbd 370f 03bd 6f78 33bd
000003b0: 7bd4 803e b60c a33e 7dc6 49be 20aa bdbe
000003c0: 93a2 15bd dfb0 c2bd f8b1 bebd 606b b9bc
000003d0: c112 8fbe d19f 383f 9e45 94be cda7 3f3d
000003e0: 14b3 ab3e 0161 b4be 4fe2 333e 6eec 8c3d
000003f0: c9da 8d3e 0b56 6b3d b541 abbd d4d5 acbe
0.11165697 -0.5663538 -0.2929932 -0.8495878 -0.49177763 -0.19868831 0.21037638 0.12729064
-0.17569126 -0.43650982 -0.65565956 -0.12593766 -0.22364296 -0.5741616 0.6095301 -0.053333715
-0.021479629 -0.20766895 -0.25390437 0.032251947 -0.07085789 0.043304157 -0.19800718 0.43777078
0.062197298 0.009995346 -0.46416217 0.21248877 -0.36214417 -0.5942738 -0.694155 0.32431957
-0.09334712 0.27346984 -0.36899233 0.051007103 0.10202929 0.07898032 0.28440502 -0.5864917
-0.18053134 -0.3195487 0.052487414 0.6231117 -0.2462531 0.11775884 0.2417854 -0.26662645
-0.13688385 0.002115536 -0.12535812 -0.13227291 0.22200054 0.66850746 -0.073009126 0.026673842
0.12684375 -0.053220507 0.044692516 0.14180146 0.5982697 0.37020332 0.68111134 0.13379394
0.070401326 -0.30362663 -0.17264453 0.44009182 -0.51681167 0.24709585 -1.2826167 -0.66868275
0.8372998 -0.029445807 -0.6673582 -0.5623301 -0.18194602 -0.66749763 0.22491074 0.0050407248
0.11398918 -0.3550806 0.032714047 -0.4026556 0.022436278 0.13751028 0.0041693086 -0.201726
0.14299798 0.031373035 0.19895184 0.3452928 -0.33152834 0.77040684 0.3274068 -0.6104782
-0.21914092 -0.19388358 -0.12794536 -0.3903049 -0.6541129 0.18210283 -0.6624743 0.81219923
-0.6794498 -0.04426008 0.01181076 -0.4550807 0.5706986 0.030636355 -0.20575313 0.24798827
0.03919803 -0.039915014 -0.41433674 -0.026615378 -0.77132756 0.99092835 0.033052336 0.015870284
0.28833127 -0.48920554 -0.06632421 0.033091396 0.7569769 0.5427858 -0.1417183 -0.55656123
0.13886347 0.4108898 -0.3170912 0.32261384 -0.09215698 0.033816006 -0.1014285 -0.066693485
0.03780635 -0.4939455 0.042991564 0.32388383 -0.3365391 -0.4297592 0.024460843 0.2617137
0.16547851 -0.15233079 -0.34398764 0.034047488 0.27600196 0.13223869 -0.24849029 -0.4020407
0.10493216 0.19160718 -0.56534815 -0.21679293 -0.36970696 -0.057263043 -0.091423765 0.12747136
0.2558451 -0.16427706 -0.24923377 0.34885764 -0.18671286 -0.27624208 0.22748567 0.1809563
0.47403342 0.41119996 -0.4770808 -0.43757206 -0.5580375 -0.16465102 0.6028498 -0.05192577
-0.2591832 0.17427318 0.0929934 0.0772777 -0.06623902 0.2790458 -0.81253743 0.75502455
-0.27340242 0.13981892 0.052704867 0.114088476 0.067699 -0.38175896 -0.0770874 0.31435362
0.30798775 0.11575428 -0.12300142 -0.6462492 -0.3055364 0.15758269 -0.47640797 0.057438344
0.015494084 -0.37635654 -0.8063535 0.3731006 -0.27592212 -0.530979 0.26538083 -0.07195835
0.5838387 0.067726776 0.18427812 -0.6493495 -0.6026719 -1.088531 -0.35938814 0.036683872
-0.6955791 0.35402787 -0.044726647 0.23766823 0.1536894 0.058010355 -0.24925897 0.80567586
0.41883257 -0.6232221 0.4711326 -0.5193653 0.31329042 0.072993316 -0.7898245 0.0058149737
0.5167291 -0.09929346 -0.031996932 -0.043816026 0.2516211 0.31845635 -0.19704624 -0.37043858
-0.036531996 -0.09506392 -0.093112886 -0.022634208 -0.27943996 0.7211886 -0.28959364 0.046790887
0.33535063 -0.35230258 0.17566799 0.06881033 0.27705982 0.057455104 -0.08362142 -0.33756888

encoder.rnn.bias_ih_l0 f4 [96]
00000000: 1c17 3a3e c06b 893e f61e 3c3f bbed 4a3e
00000010: 4453 2dbe 6e97 42be fc36 823d d23c 9bbe
00000020: 2142 123e adcb e2bd 90bc c93e b18f c03e
00000030: 7b54 2cbc 030c 9e3e eb64 55be f900 ba3d
00000040: 2d84 d0bd 98b9 8cbe 2a06 913e 5dbd c9bc
00000050: 04e3 c0be 1b33 523e 1714 b83d 89a4 1d3f
00000060: 34f3 9a3e cd75 41be 04d7 413e 3cb2 463e
00000070: e898 a43c 6bb2 12bd ac77 d3bd d538 453e
00000080: 4e0f 0e3e ca95 ecbe 02b6 39bd 8e0d 9abe
00000090: fb16 43be dab3 09bf 3861 9dbd 7656 82bc
000000a0: f5c8 8b3d a951 8dbe 8c46 05bf 7ebf 543e
000000b0: 4106 29bf 83e7 ccbc 8572 7bbe 6023 063d
000000c0: 105e 4abe 9d61 a5be 46de d6be f408 0cbf
000000d0: 6eb2 a9be 2b45 ccbb dfee c5be 0cac 30bf
000000e0: e726 afbe 1782 babe 2253 7ebe 11b5 c13d
000000f0: 5597 e93e 0e8a 86be 9568 c8be 6cfe c93c
00000100: 46ab 953d 94fb 203e 7eb5 24be 228e 9bbd
00000110: 7b09 883e 6e73 64bd 6c1f a0bc 4fa3 21be
00000120: 3cec 903d af0b abbd fe96 8cbe 208c 323e
00000130: d9e7 4bbe dfaf c3bd 6435 b93d 5e22 06be
00000140: 10d1 8a3d 149a 7dbe 61dd 083b 4f78 34be
00000150: 3ee5 d1bd 7751 fabd 5808 9bbe 4472 32bd
00000160: 23cf d2bd b80f dc3d b6ea b43d 3feb 11be
00000170: 32a2 04bc 9ad5 3cbc 772b 5fbe 7dee 77bd
0.18172878 0.2684002 0.7348474 0.1981725 -0.16926295 -0.19003078 0.06358144 -0.3031984
0.14283039 -0.11074004 0.39401674 0.37609628 -0.010518189 0.3086854 -0.20839278 0.09082217
-0.101814605 -0.27485347 0.28325015 -0.024626428 -0.376732 0.20527308 0.08988207 0.61579186
0.30263674 -0.18892594 0.18929678 0.19403929 0.020092443 -0.035814684 -0.1032556 0.19259961
0.13873026 -0.4620803 -0.04533959 -0.30088466 -0.19051735 -0.53790057 -0.07684559 -0.015910368
0.06825439 -0.27601364 -0.5206077 0.20776173 -0.6602517 -0.025012737 -0.24555404 0.03274858
-0.19762444 -0.32301036 -0.41966456 -0.5470116 -0.33143944 -0.0062338314 -0.38658807 -0.6901252
-0.34209368 -0.36427376 -0.248364 0.09458364 0.4562327 -0.26277202 -0.3914229 0.02465745
0.073080584 0.1572097 -0.16084859 -0.07595469 0.26569733 -0.055774145 -0.019546233 -0.15784954
0.07076308 -0.08351838 -0.27458948 0.17436266 -0.19912662 -0.09555029 0.090433866 -0.13099048
0.06778157 -0.24765807 0.0020883905 -0.17624019 -0.102488026 -0.122225694 -0.30279803 -0.043566003
-0.102934144 0.107451856 0.0883383 -0.14249896 -0.008095311 -0.011525536 -0.21793924 -0.060530175

encoder.rnn.bias_hh_l0 f4 [96]
00000000: 7d63 803e db81 273d 62e6 733f ef97 efbd
00000010: d5d2 35be b6cb f2bd e203 533d b25d a1be
00000020: b4e2 7d3e a8b7 84bd ce17 933e 8001 663e
00000030: 10d8 bcbc c510 993e a188 8bbd ea76 1f3e
00000040: cffb 49bd 954a bdbd 22f8 cb3d 81b8 1fbe
00000050: 2333 76be 1069 ce3d 897c b6bd b7ea 373f
00000060: 2d87 af3e d267 50be 35b4 413d 5bdd c23e
00000070: 40ba df3c 80a5 303e 409a 9e3c 2bd5 573e
00000080: 0462 f9bd faee 67be 0d21 09be dc30 67be
00000090: 6b34 d2be 1f58 20bf 6eba d4bd 32fa b53c
000000a0: 31db 1ebe 967d 9bbd 9761 dcbe 76b0 6cbd
000000b0: d1cc 6dbf d86e 6b3e 23c1 edbe 01bb 083d
000000c0: 764a 49be 810e 3cbe 0bf7 99be 0df8 d1be
000000d0: f257 7ebe 7aef 85be 04fd d4be fd46 5dbf
000000e0: 0723 cfbe de57 81be b931 89be 4054 8bbb
000000f0: 8512 d53e 10ef dabd b2c7 d4be 0c06 57bd
00000100: dc2a 17be ac3b 74be 687d 48be 7df6 cd3d
00000110: 35fb f83d e7aa 8dbc df4f fcbd 1503 ffbd
00000120: 5c21 5a3e f9d6 693e 235a 88be d44d 983e
00000130: d81b 42ba d61a d53b 232d 34be 3b97 5a3e
00000140: 1e27 2f3e 3403 06bf 3683 5cbe fc9f 743d
00000150: d060 55bd 7494 20be 0382 9cbe ed2e 8cbd
00000160: 856d c8bd b264 e63d ea76 4abe b2de f1bd
00000170: 4bd2 383e de0c 47be 6a3b 24be 8538 6cbe
0.25075904 0.040895324 0.9527341 -0.11698901 -0.17756207 -0.11855261 0.051517375 -0.31516796
0.24793512 -0.06480342 0.287291 0.2246151 -0.023052245 0.29895607 -0.06813169 0.15572706
-0.04931241 -0.09242741 0.09959437 -0.15597726 -0.24042945 0.10078633 -0.08910472 0.7184252
0.34282818 -0.20352104 0.047291 0.38059506 0.02731049 0.17250633 0.019360662 0.21077411
-0.12176898 -0.22649756 -0.13391514 -0.22577232 -0.41055617 -0.6263446 -0.10387121 0.022214029
-0.15513302 -0.07592313 -0.43043205 -0.057785474 -0.9289065 0.22991502 -0.46436414 0.033381466
-0.19657311 -0.18364908 -0.3007129 -0.4100956 -0.24838236 -0.2615927 -0.41599286 -0.86436445
-0.4045641 -0.2526235 -0.26795748 -0.0042519867 0.41615692 -0.10690129 -0.41558605 -0.052496
-0.14762443 -0.23850888 -0.19579089 0.100567795 0.12157289 -0.017293407 -0.12319922 -0.1245176
0.21301788 0.22835912 -0.2663127 0.29746878 -0.0007404662 0.0065034432 -0.17595343 0.21346752
0.17104766 -0.5234864 -0.21534428 0.059722885 -0.05209428 -0.1568163 -0.3056794 -0.06844888
-0.09786514 0.11249675 -0.19771925 -0.11810054 0.1804897 -0.19438502 -0.1603829 -0.23068435

encoder.rnn.weight_ih_l1 f4 [96, 32]
00000000: 481d cebd a46a 20bf 612a 9abe ae86 8dbd
00000010: fdd1 2a3f 31df 0f3f 8ef4 32bf 8ca0 383f
00000020: 14fb cfbc 084c 343f 84a9 993d b00d 2b3e
00000030: ba97 263f a27b 80be 0973 243e 70a4 103f
00000040: 5a9f a23e 83c4 b23d 0619 6f3e d1b0 813c
00000050: 8f04 8d3e 12a0 fe3e 16da d13e 37a0 13bf
00000060: e98e 03bf 6220 90bc 0085 433f b48e 0ebf
00000070: 3fa8 16bf ae3d e63e c15f 12bf 2987 1abf
00000080: 41d3 5cbf e4ad 1ebf ca83 fcbd 9d31 81be
00000090: e16c d63e c5a7 ca3e 8c48 ccbd ebb5 293e
000000a0: 46d0 d43e e0be 0dbe d0a6 26be 86a9 e5be
000000b0: e93b 3cbf db0f e93e ccd0 103f eb74 cf3d
000000c0: 2293 aebc ec9f 4dbf 5937 87be e59a 213e
000000d0: 4ac1 d6bd 40c1 c9be af3b c93e 887b e43e
000000e0: b994 2dbe 6f53 36be 5c56 e7bd 13fd 9abe
000000f0: b929 173d 43e0 55be 69a5 59be b6c5 043f
00000100: 36dd d53e 23cf d0be 494c 76be b715 b23e
00000110: 59e7 a9bd f801 073e 19d3 f3be dd87 6ebe
00000120: bfea c2be ac81 d53e 6623 94bc f0f7 b7be
00000130: 76f1 de3d 5835 1ebe f718 93be 98a0 81bd
00000140: 06ad e33e 2423 c7bc 6cbe c5ba 3400 1fbf
00000150: a221 eb3e e45c 393f 2251 0c3f ce5b ffbe
00000160: cfbb 78be 9a55 803c 8362 e0be 5456 55be
00000170: f882 b33f 2503 a03e e39d fb3d e146 6c3e
00000180: 35fb 23bf e63a 35be 6f1b efbe 52dc f3be
00000190: 27cf adbe 6831 f4bd f33d a2bf f54c c33e
000001a0: cd64 ca3b 75f9 26bc 8297 983e b3e1 cebe
000001b0: a491 a3bd 9ab8 87bd a37f 43bd d6f8 143e
000001c0: 304e a33e 466f 72be 8b17 2fbd 9a1e b43d
000001d0: bef5 9f3e 5f79 c83e 8088 983c 322f 9a3e
000001e0: b526 37bf 6e0b f33d 1869 393c f847 1a3f
000001f0: ff14 1ebf 5f95 c2bc ac4d bf3e eb49 c83e
00000200: 832b c13e 771b 6e3d ff46 c53e c8e2 fabd
00000210: 82de e2bd d2a8 153e 35db bfbe 897a 8cbd
00000220: ad79 0c3e 5115 4a3e ac65 423e fc4c 9fbd
00000230: b624 7dbf d5ac 21be f9a6 29be dc79 6fbf
00000240: 9b25 233f 61c8 b23e dccf 2d3f 065e 63bd
00000250: e2cb e8be 75da bdbd 840e 93be 7c30 be3d
00000260: c904 a33e aa12 0dbf 701a 2bbf 5078 0abe
00000270: 75fe 0f3e 9da9 cb3d 2ac2 95be ee30 0b3f
00000280: b30c 5ebd 51ee d0be 5793 de3d aa56 bf3e
00000290: 2265 5e3e fd9e b43d 55d9 c3be cf30 11be
000002a0: 839f afbe 4929 b6bd 44c4 2cbf ba26 423e
000002b0: e3fc e03e 4c19 13be a4e4 083f aa07 b03d
000002c0: 0df9 8d3e 005a 243f d7ea 9ebe 9cb5 6dbe
000002d0: 41d5 9a3e d728 273f 8248 74be d42e f9be
000002e0: 2a6c 343e 186d 803e 11cb 3f3d 2750 4a3c
000002f0: 30de f53e 79a2 acbe 0765 94be 7776 9b3e
00000300: 5b1e 69be dacc 91be 2a43 503e b1ad d1be
00000310: e3ee 8b3d 4ea8 ea3e 7e99 0e3f f463 68be
00000320: 1606 873e 57f2 49bd c13f c13b edfb 08be
00000330: 0b08 813e 4a27 1dbe 95ac 403e 21b7 8cbf
00000340: 983a a03d 4af6 143f b5fb d7bd 3b9d 48bf
00000350: fbfe 66bf 5ae4 8ebf 4a26 ccbd 2efe 123e
00000360: 2507 62be 7f9f 6abc a40f 9d3e eb5d ab3d
00000370: c520 5e3e c42b 893d b0f8 bd3d 19e8 a43e
00000380: 011c 2fbe e653 713e ddae fabe bc45 cb3e
00000390: f362 cdbc ca73 98bd dd41 a8be 3d80 023e
000003a0: c058 8dbe 2c98 123e a38c bdbc 861f a1be
000003b0: 6ff7 90bc ab09 0abd 091b 1ebd 5b01 a13e
000003c0: 599e b03d 5a07 8c3d f267 8dbd cb34 48be
000003d0: 940f cc3e 9cc4 823f f8d5 03be c1e5 063f
000003e0: a38e 07bf 034e c43e 7a3d a23e d4c6 9fbc
000003f0: 3384 a43d 5531 2a3d 7f66 743e c3a2 133f
-0.10064179 -0.6266272 -0.30110458 -0.06910454 0.66726667 0.5619994 -0.6990441 0.72119975
-0.025388278 0.70428514 0.07503036 0.1670444 0.65075266 -0.25094324 0.16059507 0.5650091
0.317622 0.08728888 0.2334939 0.015831383 0.2754254 0.497315 0.409867 -0.57666343
-0.5138994 -0.017593566 0.76374817 -0.556865 -0.58850473 0.44968933 -0.5717736 -0.6036249
-0.8625985 -0.61984086 -0.12329824 -0.25233164 0.41879943 0.39581123 -0.09974775 0.16573302
0.4156515 -0.13842344 -0.16274571 -0.448559 -0.73528916 0.4551991 0.565686 0.10129722
-0.021310393 -0.80322146 -0.26409414 0.15781744 -0.10486086 -0.3940525 0.39303347 0.44625497
-0.16951264 -0.17805265 -0.112957686 -0.30271205 0.036905024 -0.2088633 -0.21254505 0.5186418
0.41770333 -0.40783033 -0.24052538 0.34782192 -0.08296079 0.13184345 -0.47621992 -0.23294015
-0.38069722 0.41700494 -0.018083286 -0.3593135 0.10885899 -0.15450037 -0.28729984 -0.06329459
0.44467944 -0.024308749 -0.0015086657 -0.62109685 0.45924097 0.72407365 0.548113 -0.4987473
-0.24290393 0.015665818 -0.43825158 -0.20833713 1.4024343 0.312524 0.12285974 0.23073913
-0.64055187 -0.17698249 -0.46700618 -0.4762903 -0.33947107 -0.11923486 -1.2675155 0.3814465
0.006176567 -0.010191311 0.2980309 -0.4040657 -0.07986763 -0.06627007 -0.047729146 0.14548048
0.3189559 -0.2367526 -0.04274706 0.08794899 0.31242174 0.391551 0.018619776 0.30114132
-0.7154344 0.118674144 0.01131656 0.60266066 -0.6175079 -0.023752866 0.37363946 0.39118895
0.3772851 0.05813166 0.38530728 -0.12250286 -0.11077596 0.14615181 -0.3747193 -0.06859309
0.1371829 0.19734694 0.18984097 -0.077783555 -0.9888414 -0.15788586 -0.16567601 -0.9354532
0.63729256 0.34918502 0.67895293 -0.05550959 -0.4546805 -0.09270183 -0.28722012 0.092865914
0.31839588 -0.55106604 -0.66837215 -0.13522458 0.14061911 0.099444605 -0.29249698 0.54371536
-0.05421133 -0.4080682 0.108679466 0.37370807 0.21718267 0.08819387 -0.3825175 -0.14178775
-0.34301385 -0.08894593 -0.6748698 0.18960086 0.43942937 -0.14365119 0.5347388 0.08595212
0.27729073 0.6419983 -0.31038544 -0.2321381 0.30240825 0.6529669 -0.23855785 -0.4866854
0.17619386 0.25083232 0.04682452 0.012348211 0.48021078 -0.33717707 -0.28983328 0.3036382
-0.22765486 -0.28476602 0.20338121 -0.4095283 0.068326734 0.4583153 0.5570296 -0.22694379
0.2637183 -0.04930338 0.0058974926 -0.13377352 0.2520145 -0.15347019 0.18815835 -1.0993387
0.07823676 0.5818831 -0.10546056 -0.78364915 -0.9023282 -1.1163437 -0.099682406 0.14354774
-0.22073038 -0.014320253 0.30675995 0.08367523 0.21692188 0.06697801 0.09275949 0.32208326
-0.17100526 0.23567161 -0.48961535 0.3970164 -0.025071597 -0.0744396 -0.3286275 0.12744232
-0.27606773 0.14315861 -0.02313835 -0.31469363 -0.01769611 -0.033700626 -0.0386 0.31446347
0.086239524 0.0683734 -0.069045916 -0.19551389 0.39855635 1.021625 -0.12874591 0.52694327
-0.5295202 0.38340768 0.31687528 -0.019503988 0.080330275 0.041550953 0.23867224 0.5767023

encoder.rnn.weight_hh_l1 f4 [96, 32]
00000000: e202 d53e cd48 d63e e8f0 933e ca79 05bf
00000010: 9fbe 4e3e dde5 063f 51ce c4bd 3125 433d
00000020: 5716 833e 0a7a 03be 17d9 9fbe ad78 46bf
00000030: aee8 503f 7c4d f7bd 1cfe 47bd 5f62 26bd
00000040: ab64 8ebe ab29 843e 03c1 8a3d 793f 153e
00000050: 0d8e 15bf f77f 3e3f 0d81 783e 8528 303f
00000060: 986e 00bf 6026 e6be a9c7 0e3d c324 753d
00000070: 3747 863e 7513 433e a699 5a3e 21b7 c6bd
00000080: 19de 21be 4986 053d 5b69 cdbe decf 3ebf
00000090: 76d0 35be db23 123f 193c e53d 4dec 9b3e
000000a0: 2e01 c0be c7be 373e 9f8b 0bbf 841e 703e
000000b0: f3bc 99bd f1fe dc3e 1b6b e3be 1799 28be
000000c0: 146b b5be 13bb cd3d dff7 333f 5d7d 5b3f
000000d0: 227a 07be f101 4f3e afee 043c 94ce f43c
000000e0: b16f 97bd 2e9e 3a3e 358c 3d3f 4b2a 873e
000000f0: 9e13 e73e 8b21 1f3e c4db 3ebd 78bf b13e
00000100: 76da 67bf 2a93 4fbe 3b81 483e 3eb6 39bf
00000110: d5b7 7a3f d3bf d5be ba1d 1cbf d203 33be
00000120: d6cc bf3e a04b 2e3e e713 e4be f360 d3bd
00000130: f4c4 04bf dad1 ed3e 19f3 60be 0cfe 05be
00000140: 1101 f6bd a0c5 fd3e bc70 fabd c165 313f
00000150: 9567 91bd 2d54 243f ae22 6d3d af7f 96bd
00000160: 3ab5 1ebe 80f2 24bf 7083 2b3f 84a5 273f
00000170: e572 88bd c890 27be e437 ff3e aa32 9fbe
00000180: c011 3fbf f384 913e fd34 eabe e398 083f
00000190: 3ff9 c0bd 072e ae3c d576 653c 8c34 10be
000001a0: 7fa3 283f 40d1 833e f9c3 8ebe 52b9 e4bd
000001b0: cbe4 0cbf 6ec9 063f a64b 253e d1ba 06bf
000001c0: eb29 3abe 8012 ad3e c122 debe 3975 1bbd
000001d0: eb1f 59bf ceef 5a3d 0e75 eabe 1d82 04bf
000001e0: aa69 c5bd 915b dabd a253 143f f92a ee3e
000001f0: 0ff1 ca3e 70c9 b5be 5fe3 9c3d 2a40 d9bd
00000200: aaec 46bf a875 f33e 90c0 ae3e b62d 1b3e
00000210: 6767 14bf b288 2fbe 3041 1bbb a7fc e0bc
00000220: ff90 a33e 55e5 0cbf a55a cc3e 381a 0fbf
00000230: 3450 233e eeac 453e 93f8 243e 5fcd 423f
00000240: b0e7 6fbe 49e8 453f c09f 85be 3932 133e
00000250: a365 5ebe e8b2 df3e 8114 f8be c04b febd
00000260: 8a93 e6be f662 a3bd 13cc 1c3e fcb1 a8bd
00000270: 964f bbbe a501 ea3d 7555 07be feda 3abe
00000280: 46c4 b83d ce9c 58be 880d 173f d2d4 fcbe
00000290: f9ce 4f3e 3743 b1be a527 053e 900e bfbe
000002a0: 80ba 9cbe 3a2e 743e 499a 9cbc 14b7 9a3e
000002b0: 8eb4 4b3e c405 53be de42 dd3d d438 a13d
000002c0: a70a 913d 29ed 4e3d 669b 5dbd a787 25be
000002d0: 09c0 383d 15ad 003f 64f1 f63e 4d95 fe3e
000002e0: 700f d9be cc9d 12bf f293 0dbf 6e60 a0bf
000002f0: d6c0 0eba 5e6c 26bf 8412 2b3f f8ba f93e
00000300: ab40 0e3f 7399 dfbc e84b f2bd bdd3 e0be
00000310: 33f0 2cbf 0408 d338 6a0f 6a3f f68b 2e3f
00000320: ee31 0ebe bb3f d93e 986d 55bd 17e0 bebe
00000330: ed72 7bbf 24b6 f43d acc3 b4be c631 913e
00000340: 19d3 febd e47e 273e 3eca e8be 9d2f 9f3f
00000350: e105 f83e d62b ec3e 2864 0bbf 00bc 4dbe
00000360: 193d e33d b68e c93e bb71 9f3e 854d f53e
00000370: 08de 24be e516 193f 53ba 9a3d d516 163e
00000380: 5cb3 573c 5c6f 553a 9da3 46be dab5 33bf
00000390: 4f11 66bd a718 1c3e 5dd8 dcbc ba8f c6bf
000003a0: 5091 cfbe 9f5c 063e 32a8 20bf 6431 6a3e
000003b0: a078 333e 23f7 623f d6ac e33d f2c0 80be
000003c0: bd1f 98be 00a5 a5bd 4e70 813e c79a 35bf
000003d0: 2ba9 cbbe 2c07 96be 8a8b 11be 69d4 363d
000003e0: c13c 81be 9f77 003e 10bd 2e3e c877 0b3d
000003f0: 8e09 8f3e b4f8 d13e 0c5a 25bd f693 70be
0.41603762 0.41852418 0.28894734 -0.5213896 0.20189904 0.52694494 -0.09609664 0.04764289
0.2560298 -0.12839523 -0.31220314 -0.77527887 0.8160504 -0.12075326 -0.048826322 -0.040621158
-0.2781118 0.2581304 0.06775095 0.14574994 -0.5841988 0.7441401 0.24267979 0.6881183
-0.5016875 -0.44951153 0.03485838 0.05984951 0.26226208 0.19050391 0.21347675 -0.09702898
-0.1580738 0.032598767 -0.40119442 -0.7453593 -0.17755303 0.5708596 0.11193103 0.3045372
-0.375009 0.1794387 -0.5450992 0.23449141 -0.07506742 0.43163255 -0.44417652 -0.16464649
-0.35433257 0.10045447 0.70300096 0.85738164 -0.13230184 0.20215584 0.008113547 0.02988366
-0.0739435 0.18224403 0.74042064 0.26399454 0.45132154 0.1554014 -0.046596304 0.34716392
-0.9056772 -0.20270982 0.19580548 -0.72543705 0.97936755 -0.41747913 -0.6098286 -0.17481926
0.37460965 0.17021036 -0.44546434 -0.10321226 -0.51863027 0.46449167 -0.21967734 -0.13085192
-0.12011922 0.49564838 -0.122285336 0.6929589 -0.07099835 0.6419094 0.0578944 -0.073485725
-0.1549882 -0.64432526 0.6699743 0.6548693 -0.066625394 -0.16363823 0.4984733 -0.3109334
-0.7463646 0.28421745 -0.45743552 0.53358287 -0.0942254 0.021262182 0.014005383 -0.14082545
0.65874475 0.25745583 -0.2788389 -0.111681595 -0.5503661 0.5265111 0.16142139 -0.5262881
-0.18180053 0.33803177 -0.4338589 -0.03795359 -0.8481433 0.05345135 -0.4579243 -0.5176104
-0.096392944 -0.10661996 0.57940114 0.4651716 0.39637038 -0.35505247 0.07660555 -0.106079414
-0.7770487 0.47550702 0.3413129 0.15154156 -0.5797028 -0.17141989 -0.0023689978 -0.027464224
0.3194656 -0.5503743 0.39912906 -0.5589938 0.15948564 0.19304249 0.16110449 0.7609462
-0.23428226 0.77307564 -0.26098442 0.14374627 -0.21718459 0.43691182 -0.48453143 -0.12416792
-0.45034438 -0.0797786 0.15312223 -0.08237073 -0.36584157 0.11426095 -0.13216193 -0.18247601
0.09021811 -0.21153566 0.5900502 -0.4938112 0.20293798 -0.34621593 0.13003404 -0.37315798
-0.30611038 0.23845759 -0.019116538 0.30217803 0.19893095 -0.20607668 0.108037695 0.07872167
0.0708211 0.050519142 -0.054103278 -0.16165029 0.045105014 0.502641 0.4823104 0.49723282
-0.4239459 -0.5727203 -0.5530387 -1.2529428 -0.0005445605 -0.65009105 0.6682513 0.48775458
0.55567425 -0.02729485 -0.11830884 -0.43911543 -0.67554015 0.00010062757 0.9142977 0.68182313
-0.13886234 0.42431435 -0.05210647 -0.37280342 -0.9822224 0.11948803 -0.35305536 0.28358287
-0.124426074 0.16356999 -0.454668 1.2436405 0.48441985 0.46127194 -0.544497 -0.20091248
0.11095638 0.39366692 0.31141457 0.47910705 -0.16100323 0.5980056 0.0755507 0.14657147
0.013165321 0.0008141899 -0.19398351 -0.7019936 -0.05616885 0.15243779 -0.026958639 -1.5512612
-0.40540552 0.1312127 -0.62756646 0.22870404 0.17526484 0.8865835 0.1111695 -0.25147206
-0.29711714 -0.08088112 0.25280994 -0.70939296 -0.39777502 -0.29302347 -0.14213386 0.044636164
-0.25241664 0.12545632 0.17064309 0.03404978 0.27936977 0.41010058 -0.04036908 -0.23493943

encoder.rnn.bias_ih_l1 f4 [96]
00000000: ac1b dd3e 8fc6 123e e5db 08be 3c85 8fbe
00000010: e997 9e3e 052b 323f a51c 3a3e eeb4 e43e
00000020: 1999 003f 2183 a63e e56f e53e d5de 973c
00000030: c9c2 b93d 2053 43be 20ab d63e 9dd2 3c3e
00000040: 6568 283e 7c98 4e3b 91a9 023f 193c a93e
00000050: 6061 223f 0c34 803e ff01 9fbe 7d3b 6b3e
00000060: 343f b1be c188 243e 05e3 fbbb 5feb a33e
00000070: 3729 c73d f9a1 853e 9a5d 7a3e d5eb 933e
00000080: 1eca 1e3b 733d 4bbe a85e 90be d37e 70be
00000090: 15f8 89be 2d6d dcbe e61b 3f3e d542 f8be
000000a0: 08f6 09bf b9ba 89be 19cf 61be b8fc b2be
000000b0: 88e9 12bf 78fd 9abe 5351 08bf 847a 0fbf
000000c0: b99f 21be 5195 91be 167e 02bf 745a 07bf
000000d0: d462 d3be 069e 8abe 878a 25bf cf6e c1be
000000e0: fa16 c5bd 5b2a a1be 171f 93be e227 56bf
000000f0: 0b42 5abe 0f50 eabd 0293 26bf 7fa5 0dbf
00000100: e52c 4c3e 5134 063b b0d2 fe3d be1d 87be
00000110: 60f8 5abe 7361 30be 7afa 9b3c d1f9 ca3d
00000120: 83f6 8e3e 2f45 c1be f432 a83d b41d 8fbe
00000130: 62fc f63c cb9c 253e 34d7 42be 0d4f 5d3e
00000140: c1fb 4abe f472 c1ba dd6f edbd f0c2 c83d
00000150: be6b cc3c e708 1a3f 3903 a3be 44a1 2c3e
00000160: a2d9 db3e e3b4 803c 63a5 9a3d d53f cd3d
00000170: 0291 d9be a745 3b3e 74b3 dc3e 1c83 3f3f
0.43185174 0.14333557 -0.13365133 -0.28031337 0.30975273 0.6959689 0.1817499 0.44669288
0.5023361 0.32521918 0.4481193 0.018538872 0.090703554 -0.19074678 0.41927433 0.18439718
0.16446073 0.0031523993 0.5103999 0.33053663 0.6342983 0.2503971 -0.3105621 0.22971912
-0.34618533 0.16067792 -0.007686975 0.3201551 0.09724658 0.26100138 0.24449769 0.28890863
0.0024229358 -0.1984766 -0.28197217 -0.2348588 -0.26947084 -0.43052045 0.18662986 -0.4848849
-0.5389104 -0.2690027 -0.22051658 -0.34958434 -0.5738759 -0.30271506 -0.5324909 -0.5604632
-0.15783586 -0.28434232 -0.5097364 -0.52872396 -0.41286337 -0.27073687 -0.646645 -0.37779853
-0.09623523 -0.31477627 -0.28734657 -0.83654606 -0.21314256 -0.11441051 -0.65068066 -0.5533065
0.19939001 0.002047796 0.12442529 -0.2638988 -0.2138381 -0.17224674 0.019040335 0.0991093
0.2792245 -0.37748095 0.082128435 -0.2795235 0.030149642 0.16173093 -0.19027406 0.21612187
-0.19822599 -0.001475899 -0.11593602 0.098028064 0.02495372 0.60169834 -0.31838396 0.16858393
0.42939478 0.015711254 0.07551076 0.100219406 -0.42493445 0.18288289 0.43105662 0.7480943

encoder.rnn.bias_hh_l1 f4 [96]
00000000: 6213 c63e 68c5 983e 5cb8 68bd 9858 90be
00000010: 6819 f23d 3dfe da3e 1734 703d 3713 b43e
00000020: b362 cd3e 6a21 4b3e 7879 173f d582 cf3d
00000030: a127 8b3e 6ebd 2fbd c4ee d93d bafc 363e
00000040: f352 173e 52f4 88bc 6db3 9c3e a86a 2b3f
00000050: 0020 333f e33d 913e 925e cebe e322 cf3c
00000060: f2a7 69be dcfd 09be 2566 acbc fe85 873d
00000070: 3e21 c5bd 9d5a a33e e117 0a3f ba52 853e
00000080: 0a30 7bbe 6369 65be cca4 86be 2e15 35be
00000090: fc46 85be 78b3 03bf ae60 933e 34d9 0cbf
000000a0: 5f6e 10bf b993 dbbe 9246 0bbf e671 4cbe
000000b0: 9607 e4be a285 debe 3829 fdbe 0bb7 3cbf
000000c0: 531f 35be aa28 d4be 3bfd 36bf a506 43bf
000000d0: 993c dcbe 26b7 c9be 298b 09bf 21ab 08bf
000000e0: 5c0b 17be 13f0 f03a 496d 19bf 6c8d 20bf
000000f0: 37d4 c9bd a39b 92be 7430 30bf e96c 09bf
00000100: 4e88 123e 27ae 4a3e 71db 973e d331 a8be
00000110: 429b 80be 13c0 043e a184 913e 8623 de3d
00000120: 43e0 20be 238f 0cbf 88c8 3a3e 4eb2 bfbe
00000130: a85d 923e 7e92 38be e93f 3ebf 0971 1e3f
00000140: 8e0c 65bd 2c07 e7bd 67b7 22bd b1ef 543d
00000150: 161d 03bd a619 4c3e 3846 c33c 420c 33be
00000160: 2252 3a3e e43e 4cbc 7a85 4abe e833 27be
00000170: 3162 91be e8e4 833d 23d8 d13e a753 653f
0.38686663 0.2983811 -0.056816444 -0.28192592 0.11821252 0.42772093 0.058643427 0.3517091
0.40114364 0.19836965 0.5916972 0.10132376 0.27178672 -0.042905264 0.10641244 0.17869845
0.14777736 -0.016718064 0.3060564 0.6695962 0.69970703 0.28367528 -0.40306526 0.02528519
-0.22817972 -0.13475746 -0.0210448 0.06617354 -0.09625481 0.3190507 0.53942686 0.26039678
-0.24530044 -0.22403483 -0.26297605 -0.1768386 -0.2603072 -0.5144572 0.28784698 -0.55018926
-0.5641841 -0.4288614 -0.54404557 -0.19965324 -0.44537038 -0.4346133 -0.4944551 -0.737168
-0.1768773 -0.41437274 -0.7148015 -0.76182014 -0.43014982 -0.39397544 -0.53727967 -0.5338612
-0.14750427 0.0018382095 -0.5993238 -0.6271579 -0.0985493 -0.28634366 -0.68823934 -0.5368181
0.14309809 0.19792996 0.29659608 -0.32850513 -0.25118452 0.12963895 0.284215 0.10846619
-0.15710549 -0.5490591 0.18240559 -0.37440723 0.2858708 -0.18024632 -0.7431627 0.6189123
-0.055920176 -0.11280665 -0.039725687 0.0519864 -0.03201016 0.19931659 0.023837194 -0.17485145
0.18195394 -0.012466166 -0.1977748 -0.16328394 -0.28395227 0.06440145 0.40985212 0.8958077

decoder.embedding.weight f4 [201, 32]
00000000: f71a 27bf a666 a13e c753 0bbf bdb9 7bbe
00000010: ae36 1c40 8c09 1b3e 7eff 23bf 7380 313f
00000020: 6db1 123f 97d2 46bc 764e 713f bcae af3e
00000030: 97d3 763e cce1 143f 2448 473f a3a1 d6be
00000040: 09dc 8dbf 4803 bebf 6a96 1140 a78a 8fbe
00000050: e0f9 0a3e 8318 663e 41cc 86be 7ebe 88bf
00000060: d331 973f 8c6b c3bf 7d02 7bbf eb69 b9bf
00000070: ed6b c7bf 56fa 363f f70a fabe ebac cabe
00000080: 759f 9ebc 1ca9 793f f0c6 8fbf 656c 593f
00000090: f447 15c0 e580 bcbf f433 a93f fd9c 293f
000000a0: 7356 9e3f 66ff af3f 37ca 77bf 4172 d33e
000000b0: d72e 95bf ec77 c4bf 8929 fdbe 44c5 d7be
000000c0: 109f 9bbe 7b31 f1bf 236c 76bf 0543 313f
000000d0: 88de a6bf 0582 0dbd 8f33 ef3f 2b3e 15bf
000000e0: aa3a e73e 94e6 26bf 0a0d bdbf 0e26 60bf
000000f0: ab70 b33e 5af4 13bf 55ae 4e3f 5d90 803f
00000100: afd3 05be 7fd7 f93e 7813 fc3e a1fb 5c3f
00000110: 8aa8 45bf 72ca 0bbf 3ec0 de3d 089c 97be
00000120: df9c d2bd 6c7c 193f 2d26 3ebf 1c81 fa3d
00000130: 6cca 07bb 2944 f5bf c8f3 d23f b648 653f
00000140: 42ea 6e3e 1ac0 81be c69f 873e b353 983f
00000150: 1548 273f aec4 e1be f763 533f 5b1d 7bbe
00000160: bc4c 5bbf a4f3 89bf 4251 8cbf 1c84 153e
00000170: c372 783f b8bd 343e 562f 17be 1214 1abf
00000180: 0c81 9bbe 657f ed3d 29d8 97be f0bc abbe
00000190: 0278 993e 9193 1bbe 827d 093f e3fa 1dbf
000001a0: 5984 b83f 9bc1 f63f 8ed0 e63d 0b00 a4be
000001b0: 7020 32bf 49a2 e13f 7559 55bf 17a8 cebf
000001c0: 3604 12c0 5fa7 9a3f cf8a b6bf 3786 97be
000001d0: 42b1 45bf 3a4b 23bf 76ac 49c0 7f3b 833e
000001e0: 64d8 9cbf dc5d 253f 4db8 423e e657 aebf
000001f0: f7d7 4bc0 819e 2340 aa99 b4be 3dc2 0540
00000200: 66b4 503f 4075 cebe cc8f c43f 4d7f e4bf
00000210: 29b5 bfbf 6188 f8bf 88b8 6cbf 7f9e 1440
00000220: af9f 9cbf ca92 f83f 91ef 7d3f c73d 00c0
00000230: 1fc0 223d 1e3a 2240 9802 b53e 9265 a83f
00000240: 9fbb 2f3f d3b5 a2bf ba38 9ebf c687 f83e
00000250: ce89 acbe e45d 04c0 3fd2 7dbf da3c 663f
00000260: ed8f b83f 4b28 803d ccfd f53e 469f f83e
00000270: 899d 1440 6637 6dbf 6b90 ed3e d249 9d3f
00000280: e987 a43e 4d06 0b3f d063 0d3e 0191 a8bf
00000290: f34e e7bf d596 9dbf d2de 02bf 6ee1 153f
000002a0: 1817 11bf 5a9f c4be b968 b73e 57d7 bd3e
000002b0: bd7d cabf 5510 afbf 538c df3f da1e 65bf
000002c0: ef8d 7f3f 036b 323e 5cb6 d33e 4aaf 31bf
000002d0: 72df 293f af09 b0bf 63b4 993f a195 8a3f
000002e0: 5e50 2040 722d c83d f2d5 b03f 1f81 463f
000002f0: 32f6 f23e ebf0 f3bf 52a9 a5bf 8b94 023f
00000300: c850 74be f7ef 0940 33b2 303f d598 fabe
00000310: 1117 9bbe b909 5340 f6d9 543f c905 aa3e
00000320: 8ea7 ae3f 5b93 17bf a7b8 4240 bb6f 0f3f
00000330: e1ee 5dbf 5398 c1bf 7299 a4bd 3f22 9a3f
00000340: 822d 213f b718 26bf 22ec f4bd abaa 293f
00000350: 2ecd 313f 9164 b1be 1bd4 a93f f118 413e
00000360: efcc 5d3f 6995 eabf 44db 9fbf 8c3a cd3e
00000370: f6b1 843f 64cb 17bf b0a7 ab3f 1e07 2fbe
00000380: 97f9 49bf 2179 463f 255d 23bf f9b0 7ebf
00000390: 35f5 e73e 796c acbf 6cc7 08bf 2b97 0b3e
000003a0: ebb0 fa3f cfa6 14bf 6b41 53bf 4108 613f
000003b0: 19f2 c43e 2cad c73e 0c4c 0740 3ec1 e73f
000003c0: 5eb4 e23d 9619 8ebe 82cf 993c ef78 09bf
000003d0: f5cf 8e3f 6199 e53f 269e b8be a046 34bf
000003e0: 1ad7 a83e d98a 9cbf f92a ba3f c193 b53e
000003f0: 1f87 d6be ec5e 9c3c 7722 06bf 3c8c 163f
-0.6527552 0.31523627 -0.5442471 -0.24582572 2.4408374 0.1514036 -0.64061725 0.6933662
0.5730198 -0.0121351695 0.94260347 0.34313 0.24104153 0.5815704 0.7784445 -0.41920194
-1.1082774 -1.4844751 2.2748055 -0.2803547 0.13571882 0.22470288 -0.26327708 -1.0683134
1.181208 -1.5267196 -0.9805067 -1.4485449 -1.5579811 0.7147573 -0.4883649 -0.3958505
-0.019363144 0.97523665 -1.1232586 0.8493102 -2.3325167 -1.4726835 1.321898 0.6625517
1.2370132 1.3749816 -0.9679293 0.41298106 -1.1654919 -1.5349097 -0.4944575 -0.4214269
-0.30394793 -1.8843225 -0.96258754 0.6924289 -1.3036661 -0.034547824 1.868761 -0.58297986
0.45161945 -0.65195584 -1.4769604 -0.87558067 0.35046896 -0.57794726 0.8073476 1.0044056
-0.13069032 0.48797223 0.49233603 0.86321455 -0.77210295 -0.5460578 0.10876511 -0.2961123
-0.10283827 0.5995548 -0.74277 0.12231657 -0.0020720018 -1.9161426 1.6480646 0.89564073
0.2333155 -0.25341874 0.26489085 1.1900543 0.65344363 -0.44095367 0.8257441 -0.24522917
-0.8566396 -1.0777478 -1.0962298 0.14601177 0.9705011 0.17650497 -0.14764151 -0.60186875
-0.30371892 0.11596564 -0.29657105 -0.33542585 0.2997437 -0.15193011 0.53707135 -0.6171095
1.4415389 1.9277834 0.112702474 -0.32031283 -0.69580746 1.762765 -0.83339626 -1.6145047
-2.281507 1.2082328 -1.4261111 -0.29594585 -0.772236 -0.6378666 -3.1511512 0.2563133
-1.2253537 0.64596343 0.19015618 -1.3620574 -3.1850564 2.5565493 -0.35273486 2.0899804
0.81525266 -0.4032383 1.5356383 -1.7851349 -1.4977161 -1.941662 -0.9246907 2.3221738
-1.2236232 1.9419796 0.99193674 -2.0037706 0.039734002 2.5347972 0.3535354 1.3155997
0.6864566 -1.2711738 -1.2361062 0.48541087 -0.33698887 -2.0682306 -0.99148935 0.899366
1.4418923 0.06257685 0.48045194 0.48559016 2.3221152 -0.92662656 0.46399245 1.2288153
0.3213494 0.5430649 0.13807607 -1.3169252 -1.8070968 -1.2311655 -0.51121247 0.58547103
-0.56675863 -0.38402826 0.35822085 0.37078354 -1.5819622 -1.3676859 1.7464699 -0.895002
0.9982595 0.17423634 0.41350067 -0.69408095 0.66356575 -1.3752955 1.2008175 1.0826913
2.5049052 0.09774293 1.3815291 0.77540773 0.47453457 -1.9057897 -1.2942297 0.5100791
-0.2385894 2.1552713 0.6902191 -0.48944727 -0.30291036 3.2974684 0.8314508 0.3320754
1.3644884 -0.5920922 3.0425203 0.5602986 -0.86692625 -1.5124611 -0.0803708 1.2041701
0.62960064 -0.6488146 -0.11959101 0.66276044 0.69453704 -0.3464704 1.3267854 0.1885717
0.8664083 -1.8326846 -1.248879 0.4008373 1.0366809 -0.59294724 1.3410549 -0.17092559
-0.7889647 0.7752858 -0.63814 -0.9948879 0.45304266 -1.3470603 -0.53429294 0.13631885
1.9585241 -0.5806703 -0.82521695 0.8790322 0.38465956 0.38999307 2.1140165 1.8105848
0.110695586 -0.27753896 0.018775705 -0.53700155 1.1157213 1.7937433 -0.36058158 -0.70420265
0.3297661 -1.2229873 1.4544364 0.3546429 -0.41899964 0.019088231 -0.5239634 0.5880773
