Seq2Seq/checkpoints/net.pth (torch, 193509 bytes, 20 tensors)

encoder.embedding.weight f4 [184, 32]
00000000: 0bdf 87bf d665 38bf 5594 88bf 4c70 18bf
00000010: 940f 5dbf f880 74be 2f58 37bf eded 9b3f
00000020: 675c 5dbf 92e1 1c40 cac5 3d3f b585 0340
00000030: 2b0f 0bc0 7916 443f a82e 7b3e dccf a73f
00000040: 6263 553f 013b b03e 722b 58bf d678 923d
00000050: d283 45bf bc1e 8fbf 53c4 21be 670d 0d40
00000060: 2586 adbe a33f 7b3d 146a a93f 8e7f 31c0
00000070: 4d3d edbe 191c 4740 014e 5ebf 280b 0a40
00000080: eeb4 97be 8c2d d83e d9d6 47bf ebb3 963f
00000090: 914b 3d3e 85cd 2e3f 7e4d 943f 40c3 ba3e
000000a0: f1b1 753f 3212 2bbe 9e49 0fbf ac00 a43f
000000b0: 588c 273f 6d92 e43e be43 21bf 4da8 95bd
000000c0: e9c4 bc3f cbba 043f 5b47 e03e 303b ba3f
000000d0: 30a6 dabf 3255 9d3e 3606 223f 67c7 2bbf
000000e0: b7cd 133f df86 563e ba5e b83f e634 6b3d
000000f0: 7d2b f93e b512 183d 07ce 5cbf e7cc 0a3f
00000100: f58b b13f 13a6 aebe f400 92be 0f97 47bf
00000110: a974 2d3e 7908 623f c086 f4bf c050 22be
00000120: 4bff 103e 1610 cdbd cec6 5fbb 3483 03c0
00000130: d7ab d33e b896 243f 9e40 57bd 1405 853f
00000140: 163e a1be 3cf1 28be 23c4 99bf e2c3 6dbf
00000150: b0d9 1fbf 5c65 e8be 3ed1 113e 59fd a73f
00000160: 9474 ce3f eff7 be3f 7375 573f bf68 063f
00000170: 7462 df3f c0ba 6dbf 6c7c 82bf 16c3 5cbf
00000180: 3cc3 cdbf b0f5 b53d 8283 9cbd 5b93 91be
00000190: b062 ff3e 7503 363e 9c42 a63f 8c9a 18bf
000001a0: e5cb 05c0 83ad 093f 9e94 dfbf 065a 13bf
000001b0: af0b c3bf 1d4b 8dbf 73bd 053e a410 363f
000001c0: 9cbb e73e 13fe 8ebe 7d3e a83f 9383 013e
000001d0: 3900 a83f 264c c63d 964d 21bf c136 6bbe
000001e0: 8563 4a3f b635 6f3e afcf ad3f 9a98 8f3f
000001f0: 4d41 c9bf 868d 8a3e 841f 043f 6f24 883e
00000200: 835f 6e3c b844 f4bf ad57 75bf c295 5dbe
00000210: 4e88 953e b722 093f 0303 073e 35ae 54be
00000220: 073b 9fbf c465 2cbf fc41 693e 78f4 c93e
00000230: 1038 0c3f 28ae 68bf 8004 7bbf 5174 e03e
00000240: 6bbd f23f 699e 85be 73bb d43f 58df d9be
00000250: 9cdd d2be a859 3ebf 3f5d f93e 32e5 0fbf
00000260: 0c72 723f 282f f93f f636 053e 361d 02be
00000270: b877 be3e 9f9f 893d 4990 2ebf d983 303f
00000280: c2e3 8f3f 94b4 cabe 7ac4 d9bd 015d d13c
00000290: 5b2e 13bf 163a 023f d6cf 2440 c0d0 05be
000002a0: a447 61be 4a4b 8f3f e782 c63f f25d 4cbf
000002b0: 9bd6 9fbe 9275 fabe 78fe f83f 722f 093f
000002c0: dbfd 2fbf d98d 1a3f 9e35 953e 46e5 d7bf
000002d0: 8a42 cc3f d17d a03a 55c0 9ebc 0113 84bf
000002e0: 9c8c bcbe 7290 73bf 9983 c6be 8469 95bf
000002f0: 4984 6ebe 732a 66bf f39e 783e 0109 1a3e
00000300: 3691 1d40 852a fcbf 2a8e cf3f 4d38 adbd
00000310: 377c 4cbf ea94 1e3f 7004 b13f 66df 4abe
00000320: 794c 8b3f 6367 be3f 11a4 06c0 a840 f93c
00000330: a858 c63f f47b 68bf a7a6 823f 40a4 92bf
00000340: bfd2 073f a709 3bbe c2f7 19bf bb9d 27bf
00000350: b27c 0b3f 1ef5 56bf 13a2 753f 30ac 4abf
00000360: 8e2d 053f e856 713e a3c9 c93f 3230 443f
00000370: cc12 3c3e 3b6f d6bf 8ad9 573f 3705 0840
00000380: 23fa bbbe ef29 08bd 76df 34bf 82cf 58be
00000390: ebab b3bf 5bd1 813f 51b7 91bf d33a e7bf
000003a0: 6483 703f cb0b 183e 5de6 95bf 948f debf
000003b0: dba6 1040 f2d2 5d40 97ba 0d3f ad96 193e
000003c0: bd6e 733f 810a 87bc 1ccf d83e 2da4 a53e
000003d0: 6e4f 013e d8fa c93e b510 c7be 896d 843f
000003e0: c22e 513c f6f9 023f cce7 d5bf 7ca8 83bf
000003f0: 8cfd 0540 23bd 16c0 3458 073c 651d 84bf
-1.0614942 -0.7203039 -1.0670267 -0.5954635 -0.86351895 -0.23877323 -0.7161893 1.2181984
-0.8646912 2.4512677 0.7412993 2.0550358 -2.1728008 0.7659679 0.24529517 1.3110309
0.8335477 0.34420016 -0.8444129 0.07151954 -0.77154267 -1.1181254 -0.15797548 2.203943
-0.33891407 0.061339986 1.3235497 -2.7734103 -0.4633583 3.11109 -0.86837775 2.156931
-0.29630226 0.4222225 -0.78062207 1.1773657 0.18485858 0.6828235 1.1586149 0.3647709
0.9597464 -0.1670616 -0.55971706 1.2812705 0.6544852 0.44642964 -0.6299399 -0.073074915
1.4747592 0.51847523 0.4380444 1.4549313 -1.7081966 0.3072906 0.6329073 -0.6710114
0.5773577 0.20949887 1.4403908 0.057423495 0.4866599 0.037127215 -0.8625187 0.54218906
1.3870836 -0.3411108 -0.28516352 -0.7796487 0.16939034 0.8829418 -1.9103622 -0.15851116
0.14159887 -0.10012834 -0.0034145596 -2.054883 0.4134204 0.6429248 -0.052551858 1.0392175
-0.3149268 -0.16498274 -1.2012981 -0.9287702 -0.6244154 -0.4538983 0.14239976 1.312419
1.6129327 1.4919413 0.8416359 0.5250358 1.745192 -0.9286308 -1.019422 -0.8623518
-1.6075206 0.08884752 -0.076422706 -0.28432736 0.4987998 0.17774756 1.2989078 -0.5961082
-2.0905697 0.5378038 -1.7467229 -0.5755924 -1.523794 -1.1038548 0.1306055 0.7111914
0.45260322 -0.27928218 1.314407 0.12647848 1.3125068 0.09682493 -0.6300901 -0.22970106
0.79058105 0.23360333 1.3579005 1.1218445 -1.5723053 0.270611 0.5161059 0.26590297
0.014549139 -1.9083471 -0.9583691 -0.2163916 0.29205555 0.53568596 0.13184743 -0.2076958
-1.2439889 -0.6734278 0.22779077 0.39444327 0.54773045 -0.9089074 -0.9805374 0.43838742
1.8964056 -0.2609742 1.6619705 -0.4255321 -0.411847 -0.74355555 0.48703954 -0.562091
0.9470527 1.9467516 0.13009247 -0.12706456 0.37200713 0.067198984 -0.6818891 0.68951184
1.1241381 -0.39590895 -0.10633178 0.025557043 -0.5749261 0.5086988 2.5751853 -0.13067913
-0.21999985 1.1194851 1.5508698 -0.7983085 -0.31218418 -0.48917824 1.9452658 0.5358802
-0.6874673 0.6037269 0.2914247 -1.6866844 1.5957806 0.0012244527 -0.01937882 -1.03183
-0.36826026 -0.9514228 -0.38772276 -1.1672826 -0.2329265 -0.8990852 0.24279384 0.15042497
2.461988 -1.9700476 1.621526 -0.08458004 -0.79877037 0.61945975 1.3829479 -0.19811782
1.0882713 1.4875301 -2.1037638 0.030426338 1.5495806 -0.9081414 1.0207108 -1.1456375
0.5305595 -0.18265401 -0.60143673 -0.6547505 0.54487145 -0.8396777 0.9595043 -0.7916899
0.52022636 0.23568308 1.576466 0.7663604 0.18366545 -1.6752695 0.84316313 2.1253183
-0.36714277 -0.033243116 -0.70653474 -0.21172908 -1.403684 1.0142015 -1.1384069 -1.8064827
0.93950486 0.14848249 -1.1710926 -1.7387567 2.260184 3.466 0.5536284 0.14998884
0.9509085 -0.0164845 0.42345512 0.3235182 0.12627956 0.3944919 -0.38879934 1.0345927
0.012767496 0.5116266 -1.6711364 -1.0285792 2.0936003 -2.355294 0.008260775 -1.032147

encoder.rnn.weight_ih_l0 f4 [96, 32]
00000000: 67c3 93bd 72c2 f8be d457 90bd 413f 91bd
00000010: 6266 693e 0a63 433f 3cbd 3a3e cfbd eebc
00000020: 0e03 8cbe 7305 f2be d35f b13d 78b9 603f
00000030: 0ac2 233e d8e5 0dbe d9c9 fabd 97d9 f33e
00000040: 1f8e 2e3f 48bf 3d3e 6908 ef3d 903a cb3e
00000050: 0b94 893d 5cf9 e6bc ccf0 253f 4f8b 47be
00000060: a2fc 9e3e cc21 a4be 5734 283e 0da4 7f3d
00000070: 1a8d ac3e c8eb eb3e b69c ddbd 0b41 003f
00000080: 87e6 b4be 12b3 bd3d ff40 833d 5bb4 59be
00000090: 19c8 22bf 1cc2 023e 6f49 503e 3927 46be
000000a0: 7d4b d53d 2036 233f ce4d f8bd d838 a23d
000000b0: 3ccc e8bd 56f1 a5be 33a8 e9be d0df 9b3e
000000c0: 8eb6 e5bd a5bd 82be 5e64 aebe d477 7bbe
000000d0: fee4 10bf 3f6a d8be 2060 f53e 1262 b3bd
000000e0: 56da 4bbe eee3 bdbd c033 933e e928 383e
000000f0: 5338 93bf 2c9c 34bf beca edbe 1419 6c3f
00000100: df1c 44be 3b77 883f a32b 60bf 4044 3f3e
00000110: f849 62bc beae 6fbe 263c f4be 104e 8ebf
00000120: 51f7 43bf 8eb0 87be 5cc0 50bd 1c7f 303f
00000130: 4add cebe a966 a83e 7cf7 603e f490 debc
00000140: b25f 1cbe 94ba 93be ce10 99be d755 6cbe
00000150: 50af e3bd 9d25 b5bd 6792 223f b9d5 7fbe
00000160: 77e2 95be 5014 f83d 35c7 aabd 6b0a dabd
00000170: d22b c93e 809a ddbd 48a5 86be 7781 873e
00000180: 1996 06bf e011 52bf 21ac d23e d3c5 f0be
00000190: 7bbd 7e3f e45c 383f e8b2 cd3e 485f 1f3e
000001a0: a7ad 33be 3bda 80be 4957 55bf e93d ff3d
000001b0: ccee d0be 3bd7 7bbe 0c8c 733e abac a33e
000001c0: 5597 d13e db49 c4be 8b29 333d e752 1d3f
000001d0: 0209 943e 52f5 abbe df48 2f3d 6e78 7b3e
000001e0: 04ea 553e b54a a83e b9b3 123f 03b7 0d3f
000001f0: 3bc0 31be 2e6d 633e 2b5f 82be 08f1 7e3e
00000200: de6e eebd 2b5b d5be 2539 83be 81c6 d13d
00000210: 5cad e23e dd82 49bf 876c ee3d d463 e53e
00000220: b939 05bf fe78 3abf 07c9 42be 7515 e33d
00000230: 9c99 043d eed7 873d 995e 0a3e 7e64 ae3d
00000240: a1ac ad3d 8fee 933d 7ddc 483f 15bf 763d
00000250: ee06 1c3d ba15 1cbf f774 c73e 5543 e6be
00000260: a82e b03e e916 093f 57ba c33e b76b 0bbe
00000270: cfd2 213f 9137 333f 6617 4e3d 8708 c5be
00000280: f9d4 df3d 4391 14bd c0c2 b4bd ba05 e83e
00000290: 1b29 853e 9f79 163f 441d 523d d283 3ebe
000002a0: 77ef 58be 26e3 2ebf 5419 47be 420b 7abe
000002b0: 9466 9c3d 23ca 00bc 6a27 cabd 5797 4d3d
000002c0: a825 673e 5cba 5f3e 3103 103f 0774 0a3e
000002d0: 1ede b53d 116c 3c3d adcd 883e 94f2 2e3d
000002e0: 40ac 7a3d fbdb 2a3f a1a8 273e 501e 933e
000002f0: de07 8e3e 6dfd 81be 8f37 213f 375b c73e
00000300: eb80 a5be 7603 343f e600 b0bc 0d80 dfbe
00000310: 462d 823e 7ec8 5e3f 52f4 dd3e 9438 f2be
00000320: 5064 b7bd 4fdc b63e 66b7 18bf d9e6 013f
00000330: ce67 a8be 5d18 a73e 6330 f23e 31f0 9e3e
00000340: 2747 27bf 5a84 fbbd d664 a53e ca65 1d3e
00000350: b974 c43e 3fce 0c3f 899b 203e 1c2d 7cbf
00000360: 2e3f cc3e 2135 41be 5109 203e e1f3 073e
00000370: 7a1c 97be d3c4 02be 0827 cf3e f08f a9be
00000380: 8a26 5f3d 096d 333e 2e9e 64be b486 e53e
00000390: b38e c93e fa9c c8be d6c4 6e3e 5c43 ee3c
000003a0: b55d a8bc cdc8 32be 828f 08bf 7f18 073f
000003b0: 35fa e53c 5ade 2fbf bb88 c3be ee56 353f
000003c0: b3d3 be3e 63a9 90be 2b5e 8f3e 2cef 27be
000003d0: dda8 5abf 84d3 94be e83c 8e3e 637b 913d
000003e0: 1732 863e 75ec f6bb e67a 063f 1325 a03d
000003f0: 66f0 3ebf 2c3d 29bf 2596 dcbe 3603 8e3e
-0.072150044 -0.4858585 -0.07048002 -0.07092143 0.22792962 0.76322997 0.1823625 -0.029143242
-0.2734608 -0.47269782 0.08660855 0.87783 0.15991989 -0.1385721 -0.12245531 0.47626945
0.6818561 0.1853 0.11671526 0.39693117 0.0671769 -0.028195076 0.6482055 -0.19486736
0.3105212 -0.32057035 0.16426216 0.06241231 0.33701402 0.46078324 -0.10820906 0.5009925
-0.35332128 0.092626706 0.064088814 -0.21260206 -0.63586575 0.1276936 0.20340513 -0.193509
0.10414789 0.63754463 -0.12124215 0.07920998 -0.113670796 -0.32410687 -0.45636138 0.30444193
-0.1121646 -0.25535312 -0.3406095 -0.2455743 -0.56599414 -0.4226856 0.479249 -0.0875894
-0.19907507 -0.0927199 0.2875042 0.17984356 -1.1501564 -0.705508 -0.46443743 0.92225766
-0.19151638 1.0661386 -0.87566584 0.18678379 -0.013811581 -0.23406503 -0.4770214 -1.1117573
-0.7654925 -0.26501888 -0.0509647 0.68943954 -0.40403205 0.32890823 0.21969408 -0.027168728
-0.1527088 -0.28853285 -0.29895633 -0.2307962 -0.111174226 -0.08845065 0.6350464 -0.24983872
-0.2927434 0.12113249 -0.08338777 -0.10646518 0.39291245 -0.10820484 -0.26297975 0.2646596
-0.5257278 -0.82058525 0.4114695 -0.47025928 0.99507874 0.7201674 0.40175557 0.1556369
-0.17546712 -0.25166497 -0.8333631 0.1246298 -0.40807188 -0.24593823 0.23783892 0.31967673
0.4093577 -0.38337597 0.04374079 0.61454624 0.28913122 -0.33585602 0.042794105 0.24557659
0.20890051 0.32869497 0.57305485 0.5535738 -0.17358486 0.22209617 -0.25463232 0.24896634
-0.1164224 -0.41671118 -0.25629535 0.1024294 0.44272888 -0.78715307 0.11641794 0.44802725
-0.520412 -0.7284087 -0.19021998 0.11088077 0.032373056 0.06632982 0.13512649 0.08515261
0.08480192 0.07223236 0.7846144 0.060240824 0.038092546 -0.6097065 0.38956425 -0.44973245
0.34410596 0.53550583 0.38228104 -0.13615309 0.63212293 0.7000666 0.050315283 -0.38483068
0.10929293 -0.036271345 -0.08826208 0.4531687 0.26007923 0.5877933 0.05129744 -0.18604973
-0.21185099 -0.6831535 -0.19443256 -0.24418357 0.07636753 -0.007860693 -0.09870799 0.050193157
0.22572958 0.21848434 0.5625487 0.13520823 0.08880256 0.046001498 0.26719418 0.04271181
0.061199427 0.66741914 0.1637292 0.28734064 0.27740377 -0.2538866 0.629754 0.3893678
-0.3232492 0.7031778 -0.021484803 -0.43652382 0.25425166 0.87024677 0.43350464 -0.4730879
-0.0895468 0.35714957 -0.59654844 0.5074287 -0.32891697 0.32635775 0.4730254 0.31042627
-0.65342945 -0.122811034 0.32303494 0.1537086 0.38370302 0.55002207 0.15684332 -0.9850633
0.39891952 -0.18867923 0.15628554 0.13276626 -0.29513913 -0.12770395 0.40459466 -0.33117628
0.054480113 0.17522062 -0.22325966 0.44829333 0.39366683 -0.39182264 0.23317274 0.029084854
-0.020552495 -0.17459412 -0.53343976 0.52771753 0.02807341 -0.68698657 -0.38190255 0.7083577
0.3727089 -0.28254232 0.28001532 -0.1639983 -0.85413915 -0.29067624 0.27780843 0.07103612
0.2621009 -0.007535512 0.5253128 0.07819571 -0.7458557 -0.66108966 -0.430833 0.27736825

encoder.rnn.weight_hh_l0 f4 [96, 32]
00000000: e618 973e 67e6 573e a51c 343e 0de0 413d
00000010: 2a4a 83bd 1641 973e 5d26 bb3e 2720 1c3f
00000020: 41a1 32bb e76e edbd e4bb abbd 18c9 0e3e
00000030: 3298 2e3d f93a 4cbf c579 19be 0fa9 823b
00000040: c615 463f 3ded 873f cc40 94be c628 a7bd
00000050: e0cc b83d 471f 643f 88c2 5abe da39 8b3c
00000060: 3244 51be 7f30 77be 260c bebe 02bf 8ebe
00000070: ca21 98be 25b3 a3be b9ca 953d 8bc5 fdbc
00000080: 17ca e2bd b74f f03e 59b2 5fbe 52bd aabd
00000090: 8b03 84bf 6872 373e e87d 75bf cdd7 aa3e
000000a0: dbaf e43e 8a90 41be 1162 37bf 185a acbe
000000b0: 282b 11be d490 703e 79a6 0a3f a243 e3be
000000c0: 9311 dd3d 42c9 15bf cd0c 21bf 2b2d 843e
000000d0: 73fe df3c 289a 373e efcc 2bbc 23aa 18bc
000000e0: 0811 063c a9a1 843f 2321 aabe 762e 41bd
000000f0: 3f80 e0be 1793 6d3e 1082 38be bc49 543e
00000100: 553b 853d 25a0 8f3e 7f60 e8be 4963 c6bd
00000110: f3a9 a73e c1df 8e3d 704e 463f 5e7b 71be
00000120: 90b0 d1be 87b5 9dbe 3bfd ea3c f6d1 9cbd
00000130: cf26 03bf 4db4 1b3f 81d4 063e aae6 b83e
00000140: ecce cebd b9d1 013d f864 c7be 23cf 153e
00000150: 13fd 563f 81d3 4f3f 65c7 56be 8658 3abe
00000160: dc44 6ebe 8ffe 273d c761 b8be 3239 0f3f
00000170: 8b52 193f 5263 29be 5beb bfbe afba 16bd
00000180: f011 6dbe ec42 1bbe 1aa6 143f 3a23 1c3c
00000190: 2d33 433e b541 1b3e 4efc 1d3f a19e be3d
000001a0: fb57 c03e f3de c53e a1ea 943e 3ef0 e5be
000001b0: 3eb7 91bc 783a ab3d 4a49 5abe e383 77be
000001c0: 2f8c afbe 0b2e 90be 4e19 e63d d0bc 223f
000001d0: 52b1 483f 4380 913e 561a 113d 8d9a d53e
000001e0: 24ed 10be 463d a03e cb1d a7be 020b cd3d
000001f0: 7e58 14bf 0677 f2be 76b9 063e b532 f73d
00000200: bd88 ef3d 2774 15be 4016 19bf 465b 12bf
00000210: f251 5b3e 973a 813e 3097 9cbe b108 1b3f
00000220: 7894 ccbc 26c7 183f d06f 0ebe 4578 283e
00000230: a731 cabe fac2 a83e 92bb 5b3f 3077 2dbf
00000240: 3170 07bf 92e9 85be 9e9e 783e 00d0 263e
00000250: 2110 74be a883 983e b27c 39bf 8db2 203e
00000260: 9f3c bdbc def7 81be 6eed 153f 1d4f 113f
00000270: 5c39 843e a886 13bb 9f0d 68bf fd5c bdbe
00000280: efd1 c43d 7cb0 063e 0006 313e 5cc3 663f
00000290: 0188 8cbd 3c4c f73d b145 a8be 6899 86be
000002a0: 5262 cd3e 4200 c83d 968a 253e 1b2c 593e
000002b0: 0d63 bebe 0a8d edbe dd23 45be 6763 9fbd
000002c0: 5829 5a3e 809e 36be fe45 2bbf 36c4 373e
000002d0: 066d 903e 9055 71bd cf7c a7bd 4289 093f
000002e0: 3d51 a63e adbb a1be 342d 023f f690 10be
000002f0: 890c 11bd c79c 4a3f acb7 49be 0b6d 0b3e
00000300: c86c 9a3d a93c 08bf a72b 7bbd 9553 873d
00000310: 50e8 af3e 0e39 23bd 3f4b b43e e254 213e
00000320: c0ca c23e 16fc 413e 5ab9 f23d f102 353e
00000330: 0037 a9be 5b2f 3a3d c16a 1b3e eba8 27be
00000340: 241d be3d 1610 233e c2b3 fdbd 91e3 b13d
00000350: d6ea 8f3e 5a15 573e 2f8b 823e 04e9 f2be
00000360: 54c7 1fbe 17cc 10bd 57b8 16bd 7743 b33d
00000370: f339 263e 0502 813e 3240 8d3e 39a6 133c
00000380: 92a2 1e3f 2bc3 303d d191 28be 3fff 94bd
00000390: e4e7 b63e f378 a1bd 4fe2 873e 352a 453e
000003a0: cf10 7bbd 038f eabe 0efa fe3d 6e3b 6b3e
000003b0: c9aa 37bf cfde 8a3b a06a e2bd dfb6 6bbe
000003c0: b79b 383e 55ce e93e be16 e3be 050e 6abd
000003d0: 4913 963e 5566 8dbe ec37 d9bd b20b 64be
000003e0: fb0a da3d e614 473e 8311 be3e 0646 e93d
000003f0: f75b 003f 4a57 be3c 2c9c e5be c807 65bc
0.29511184 0.21083985 0.17589052 0.047332812 -0.0641063 0.29541844 0.36552706 0.6098656
-0.002725676 -0.115934186 -0.08385447 0.13943899 0.042625614 -0.79777485 -0.14987858 0.0039874385
0.77376974 1.0619274 -0.28955686 -0.08162074 0.09023452 0.89110225 -0.2136327 0.01699536
-0.2043617 -0.24139594 -0.37118644 -0.27880102 -0.2971328 -0.31972614 0.07314057 -0.030977985
-0.11073702 0.46935818 -0.21845378 -0.08336891 -1.0313581 0.17914736 -0.9589524 0.33367768
0.44665417 -0.18902794 -0.7163401 -0.33662486 -0.14176619 0.23492748 0.5416027 -0.44387537
0.10794368 -0.5851022 -0.6291016 0.2581571 0.02734301 0.179299 -0.010485872 -0.0093179075
0.0081827715 1.0361835 -0.33228406 -0.04716345 -0.43847844 0.23200642 -0.18018365 0.20731252
0.06505457 0.28051868 -0.4538612 -0.09686906 0.32746848 0.069762714 0.77463436 -0.23582217
-0.4095502 -0.30802557 0.028685203 -0.07657234 -0.5123109 0.6082199 0.13167001 0.36113483
-0.10098061 0.031694148 -0.3894422 0.14629798 0.8397991 0.81182104 -0.209745 -0.18197832
-0.23268455 0.04101425 -0.36012098 0.5594665 0.59891576 -0.16541794 -0.3748425 -0.03679913
-0.23151374 -0.15162247 0.5806595 0.009529883 0.19062491 0.15161784 0.6171311 0.093076
0.37567124 0.3864666 0.29085258 -0.44909853 -0.017787572 0.083607614 -0.2131702 -0.24171405
-0.3428664 -0.28160128 0.11235295 0.63569355 0.7839557 0.28418168 0.035425507 0.41719475
-0.14152962 0.31296748 -0.32639918 0.10011865 -0.5794753 -0.47356433 0.13156685 0.120702185
0.11696003 -0.1459509 -0.59799576 -0.5717052 0.21417978 0.25240013 -0.30584097 0.6056014
-0.02497314 0.59678876 -0.1390984 0.16452129 -0.39491007 0.32961255 0.85833085 -0.6775999
-0.52905566 -0.26154763 0.24279258 0.16290283 -0.23834278 0.29787946 -0.72455895 0.15693112
-0.023100195 -0.2538442 0.58565414 0.5676134 0.25825012 -0.0022510681 -0.90645784 -0.36985007
0.09610354 0.13153261 0.17287445 0.90141845 -0.06861878 0.120750874 -0.3286567 -0.26288915
0.40114075 0.09765674 0.16166148 0.21208231 -0.37184945 -0.46396667 -0.19251962 -0.07782631
0.21304834 -0.178339 -0.66903675 0.17945942 0.28208178 -0.05891949 -0.08178102 0.53725064
0.32483855 -0.31588498 0.50850224 -0.14117798 -0.035412345 0.79145473 -0.19698972 0.13615815
0.075402796 -0.5321756 -0.061320927 0.06607739 0.34356928 -0.039849333 0.35213658 0.15755036
0.3804531 0.1894382 0.11851759 0.17676903 -0.33049774 0.045455318 0.15177442 -0.16373031
0.09282902 0.15924105 -0.12387802 0.08685983 0.28108853 0.21004239 0.25496814 -0.47443402
-0.15603381 -0.035350885 -0.036796894 0.08753102 0.16233043 0.25196853 0.2758804 0.009011799
0.6196681 0.043154877 -0.16461875 -0.07275247 0.35723794 -0.07884397 0.26539847 0.19254382
-0.061295327 -0.45812234 0.12450038 0.2297189 -0.7174497 0.0042379866 -0.11055493 -0.23018979
0.1802815 0.4566523 -0.44353288 -0.057142276 0.29311588 -0.27617136 -0.106063694 -0.22270086
0.106466256 0.19441566 0.37122735 0.11390309 0.5014033 0.023234982 -0.44845712 -0.013978906

encoder.rnn.bias_ih_l0 f4 [96]
00000000: 0424 2f3b db5a b9bc 8a3c 013e c57c 8bbc
00000010: 6eeb b13d 72df 033c 1bf0 02be 4599 1c3e
00000020: f48b 0a3b cfc9 b1be 1d9c 6c3e 5d9f ef3e
00000030: e5a8 5f3e 18e2 87be a876 a33e 7d5a 47be
00000040: 07ed 9ebe d100 e93e 5aed 38be a083 20be
00000050: 5797 47be 8276 30bd da46 4c3e 9e42 4e3e
00000060: eca1 45be 9ed6 6f3c 3d13 b53e 5cd8 5bbc
00000070: f33a 933e fe25 273e 2537 3d3e 0089 f53d
00000080: 9e1a 1fbf 6fbd 9cbe 12ac 0b3e 72d7 a4bd
00000090: ce23 14be c338 ac3e 6f28 ac3c 6afc 94be
000000a0: c3f3 583e ba46 b8bd 529e c8bd 504f 13be
000000b0: 8f7f 9bbe 6d06 0dbe 5485 1bbf 57c5 2d3d
000000c0: 5a4e 19bf 5b42 adbe af8f 6bbe 792f bfbd
000000d0: 2624 8fbe f7f0 39be 44a0 b8be f431 d4be
000000e0: 6ce6 c43d ba68 d1bd 0bb0 c9bd cb7c cfbe
000000f0: 16db 0abf ebe4 a1be ee3f 33be 025f ebbe
00000100: bcb8 37be 7ee7 2f3e f9de a03e c947 5c3d
00000110: a27f f53d cfda 26bc 4e4d 73be 3eac 3abe
00000120: 9067 da3c 6e0f 113d 31c9 5ebd a6d2 323c
00000130: b184 febd 4c29 20be 2b07 ee3d f923 043e
00000140: 642b 9fbd 8fcc 703d d5b0 9a3d 9093 413e
00000150: 4106 a03d 7bea 8c3d 37bb b33e cdfb 7a3d
00000160: 43de a73d 38c1 513d cecf 43bb 695d 91bd
00000170: 05db cabd 2bf6 debc 2682 db3d 32de 6e3e
0.0026724348 -0.022626331 0.1262075 -0.017027268 0.08687483 0.008048879 -0.12786905 0.15292843
0.0021140547 -0.3472428 0.23106427 0.46801272 0.21841772 -0.26539683 0.31926465 -0.19468112
-0.31040213 0.45508435 -0.18059292 -0.15675211 -0.19491325 -0.043081768 0.19948903 0.201426
-0.1930005 0.014638571 0.3536624 -0.013418283 0.28755912 0.16323087 0.18478067 0.11989021
-0.6214999 -0.30613276 0.13639858 -0.080489054 -0.14466783 0.33637056 0.021015374 -0.29098827
0.21186738 -0.08997865 -0.09795822 -0.14385724 -0.30370757 -0.13771982 -0.6075032 0.042424526
-0.5988518 -0.33839688 -0.2300403 -0.093352266 -0.27957267 -0.18158327 -0.36059773 -0.4144436
0.09614262 -0.10225053 -0.09848031 -0.40524897 -0.5424055 -0.31619963 -0.17504856 -0.45970923
-0.17941564 0.17178151 0.31420115 0.053779397 0.11987235 -0.010184004 -0.23759958 -0.18229768
0.02666071 0.035415106 -0.05439109 0.01091448 -0.124276526 -0.15640754 0.11622461 0.12904347
-0.07771948 0.058788832 0.07553259 0.18903947 0.07813693 0.06880661 0.3510377 0.061275292
0.0819669 0.05120966 -0.00298785 -0.07097895 -0.09905056 -0.027216991 0.10718183 0.23326948

encoder.rnn.bias_hh_l0 f4 [96]
00000000: 7031 183e dba3 e63d 78eb 9f3e 470b 06be
00000010: b55d babd 2b1e 8bbe 981d 81bd 1bf8 553e
00000020: 6c0b 1fbe 5160 fbbe 08c9 153d e09a fd3e
00000030: 87e3 903d a65d 46be eca4 893e 34a7 7b3c
00000040: 5c91 68be a704 0b3f e6cc d3bd a772 fa3d
00000050: 37bf 01be ff7a 743e e87d 213e 5854 9e3e
00000060: 1413 0ebe 80db a0bd e85e fe3e b457 9dbd
00000070: a46d f43e 913d b13d 8e45 723d 8b37 d93d
00000080: b792 28bf 7395 9cbe a73e 473e 38bf 61bc
00000090: 04ab 43be 9632 583d 2ac2 953c 3a1b dcbd
000000a0: bb56 89bd 7888 8b3d 5d7b 173e d254 debd
000000b0: 4251 c8bd c047 07be 5dac cebe cefb e3bd
000000c0: 7431 23bf 505a 6cbe 3fac e0bd 94b9 afbe
000000d0: eefd cabd 1ff8 12be 94c2 f4be ccc6 14bf
000000e0: e59f 943d 51b1 65be c5e7 36be 1357 c0be
000000f0: cfc7 94be c5c0 03be 31fa 04bd 50fd afbe
00000100: 54fb 083e 0e3e dc3d c877 9e3e 07d3 9abe
00000110: 47ac 5a3d fdac 47be d18e 93bc 71b5 e43d
00000120: a052 de3d e602 4d3d b9dd 77bd f63d e73d
00000130: 66bd 49bd 5216 86be bbfb c03e c6d3 463e
00000140: 169a 85be 14db e53d 5d4f 85be 975c 103e
00000150: 8606 ee3c ed24 62bd a885 3e3d 0e4a 5dbc
00000160: 2ce6 b53e 76c1 a43e 440c de3d 4157 6ebe
00000170: 8d0f 1ebe d7f0 86bd 61ce bcbd 6ff6 6d3e
0.14862609 0.11261722 0.31234336 -0.1309024 -0.090999044 -0.27171454 -0.06304473 0.20895426
-0.15531701 -0.4909692 0.03656867 0.49532223 0.070746474 -0.19371662 0.26883638 0.015359689
-0.227117 0.54303974 -0.10341816 0.122288994 -0.12670599 0.23875044 0.15770686 0.30923724
-0.13874465 -0.07854366 0.49681783 -0.07682744 0.477399 0.08654321 0.059148364 0.10606297
-0.6584887 -0.3058277 0.19457494 -0.0137785 -0.19108206 0.052782618 0.018281061 -0.107473806
-0.06705996 0.06813139 0.14793153 -0.10856022 -0.09781124 -0.13210964 -0.40365878 -0.11132012
-0.63747334 -0.23081326 -0.10970353 -0.34321272 -0.099117145 -0.14352463 -0.478047 -0.5811584
0.0725706 -0.22430922 -0.1786185 -0.37566432 -0.29058692 -0.12866504 -0.032465164 -0.3437295
0.13377124 0.107540235 0.3095076 -0.30239126 0.053386953 -0.19499584 -0.018012436 0.1116742
0.10855603 0.050051592 -0.060514186 0.11291115 -0.04925289 -0.26188904 0.37692055 0.19416723
-0.2609412 0.112234265 -0.26037112 0.1409782 0.029055845 -0.055210996 0.046514183 -0.013506426
0.3552717 0.3217885 0.10842183 -0.23275472 -0.1543562 -0.06588905 -0.09219051 0.23238538

encoder.rnn.weight_ih_l1 f4 [96, 32]
00000000: 539c 9e3e 2eec 01bf 5811 0ebe 9ee1 053c
00000010: 12f5 5dbe a62c db3e ea11 2b3e 6a9e e0be
00000020: 308d 953d b019 edbe d46f 86be c626 c13e
00000030: 7612 573e 7893 533f 5b57 f6be f3fc 4dbf
00000040: 37d6 3c3f d739 113f f00d 3ebe 6866 093f
00000050: c1da 653e 64b5 9b3e b8a6 353e e4d8 ccbe
00000060: e070 f4bd 80df 943e 4a14 c6be a52b f8be
00000070: 074b 103f 805f b93e 0613 4f3f 78db 0ebe
00000080: c1eb 25be 96ce aebe aeaf 873d 9bea e73d
00000090: f964 56be 97bd 92bd bd60 c9bf 17b8 063f
000000a0: 56f8 783e d5f2 913e c269 9b3e 480c 9abe
000000b0: 4835 52bf 3524 9cbe 7ed8 e33d 05c6 393e
000000c0: e1e5 a0be 4e6e 77bc e747 c5be 57e0 fbbe
000000d0: 65f4 cbbe d7eb 42be 00e1 1bbf f512 ca3e
000000e0: 45d9 d03d 0250 34bc f271 5f3e bb9c 4bbe
000000f0: cbd4 293e 7ae9 f9be 74aa fabd 31bd bc3d
00000100: 099d 653f 1bc0 15bf 72db b5be 6343 3e3d
00000110: f041 08bc bf54 65bd 622a 9abe aab8 823f
00000120: 1fdb e1be 0803 10be 7cac e53d 3989 70be
00000130: d0ae e43e 6b81 0abf 5617 253f be20 a43e
00000140: fff8 8d3c ea61 eb3e d6a1 11be b421 9cbe
00000150: 82ce 4dbe 464c 023f c73c 02bf 1c0a 8e3d
00000160: b366 b8be 411f 833e dba5 16bf 4166 e5be
00000170: b2f5 02bf dd2d 21be b99f d8be 10d3 113e
00000180: 4a59 4cbe 155c 41bd 8f23 23be 2839 48bf
00000190: 9eeb 4fbd 3109 643e b380 393c 854f 16be
000001a0: 6b82 2dbe d37b d73d f1ac 3cbf 99a8 1ebd
000001b0: a8c0 88bd dcd2 02be 1db4 043f ed99 083f
000001c0: 8bb8 593e 080a a33e 598e c63c 1ca1 8bbb
000001d0: f965 97bf 6068 02bd 8a30 a43d 7458 cabd
000001e0: 0acb 253e 47be ee3e e614 83be d04c 8b3e
000001f0: 3fc1 133f b26d ecbe 5b35 643f 2d60 db3e
00000200: 0b07 0b3f 8287 29be a065 663f b21f 183e
00000210: d48e cf3d 0e69 773f a70f babc 045c b5be
00000220: 731d 303e 030c 96be a218 a6bd b9b3 7bbe
00000230: 475c 40be 1f1e 64bf e1f9 023f 9f18 1ebf
00000240: 4559 9c3e c927 463f d44d 85bc 38e1 473e
00000250: 3a24 aa3f d16d 1cbf 4e29 52be 8f55 c23d
00000260: ad03 d53c 43ac 1b3b 0ddf d63b 78ce 9e3e
00000270: 36e8 e8bd 2eae f9be 90e7 093f 6357 5bbe
00000280: 84d2 8dbd cd9c f5be 375e 52bb b400 1ebf
00000290: 04ae d6be 6874 4cbd 5ebe 8fbe 40ca 343f
000002a0: d8b3 b53d 1fba a3bd 7c62 4dbd 47ff b7bd
000002b0: eade 7b3f d21e 03be 4cb7 a9bd 26da ed3d
000002c0: bc82 23bf 8d3a 01bf 2f35 853c ab3a 12bf
000002d0: c5b7 87be 8bf3 40bf 815e bbbe 12d0 353f
000002e0: 8273 06bf 333c 04be fba2 e43e 0f29 263e
000002f0: 4700 0fbf e763 2abe 6332 16bf df72 423e
00000300: aacd 833d b34a cf3e 5d39 5abe fadf 683e
00000310: 34ff 13bf 313e ba3d f48f 1e3f 73e3 c8be
00000320: c381 82be 5f71 67bd 73f0 77be f45b 4bbe
00000330: 3228 cd3c a23b 0fbe 78e1 5ebd 3365 1e3f
00000340: 2ca8 87be 971a f8be 0eff ff3d 2536 3bbe
00000350: cae8 4e3e 287f 08bf cf87 38be 1ea9 d23e
00000360: 476d 5cbf f505 af3c 91b7 003f de9d 3e3d
00000370: 24d9 6c3e b6b2 0dbf 2ab7 5e3f 7313 cabe
00000380: d32f 6c3e 50f4 c3bd a43f d4be bf06 aabe
00000390: af7c b0bc e845 04bf 3c95 153e d6af 1dbe
000003a0: 0561 04be 43bb 1c3e 6f40 903c c297 6cbd
000003b0: c0a0 863e 9106 3b3e c7b6 1bbe 27e5 453e
000003c0: 186e c43d 28a6 813e 0b51 b93e f683 713e
000003d0: ed01 0cbe 60a9 07be e093 f63e 2a08 4c3f
000003e0: 85d0 153e 9c7e 8d3e ddb5 55be bc8b 03be
000003f0: 83b3 703e adc4 70bd 4ae2 2d3f fdd5 933d
0.3097864 -0.50751007 -0.13873804 0.008171467 -0.21675518 0.42807502 0.16706052 -0.4387086
0.0730232 -0.4630866 -0.26257193 0.37724894 0.21003136 0.82646894 -0.48113522 -0.80464095
0.73764366 0.5672888 -0.18560004 0.53671885 0.22446729 0.30411828 0.1773938 -0.40009224
-0.11935592 0.29076767 -0.38687354 -0.48470798 0.5636448 0.36205673 0.808884 -0.13950908
-0.16203214 -0.34141988 0.06625305 0.11324044 -0.20936956 -0.07165068 -1.5732647 0.5262465
0.24313483 0.2850558 0.30354124 -0.30087495 -0.8211255 -0.30496374 0.11125277 0.18141945
-0.31425384 -0.015101982 -0.3853142 -0.49194595 -0.39834896 -0.19035278 -0.608902 0.39467588
0.10197691 -0.0110054035 0.2182081 -0.19884007 0.1658508 -0.4881094 -0.122395426 0.09215773
0.8969274 -0.58496255 -0.35518986 0.046450984 -0.008316502 -0.055989023 -0.3011046 1.0212605
-0.4411249 -0.14063656 0.112145394 -0.23489846 0.4466462 -0.54103726 0.6448873 0.3205623
0.017330645 0.4597314 -0.14221892 -0.30494463 -0.20098308 0.50897634 -0.5087399 0.06935522
-0.36015853 0.25609782 -0.58846825 -0.44804576 -0.5115615 -0.15740152 -0.4230936 0.1424067
-0.19955936 -0.047206957 -0.15931533 -0.78212214 -0.05076181 0.22269131 0.011322188 -0.14678772
-0.16944282 0.105216645 -0.7370139 -0.038735006 -0.06677371 -0.12775749 0.5183733 0.5335987
0.21261804 0.3184359 0.024237799 -0.004261149 -1.1827995 -0.03183782 0.080170706 -0.09880152
0.16190735 0.46629545 -0.25601882 0.2720704 0.57716745 -0.4617744 0.89143914 0.42846814
0.5430762 -0.16555598 0.8999882 0.14855841 0.10134664 0.96644676 -0.022712542 -0.35421765
0.17198734 -0.2930604 -0.08110167 -0.24580278 -0.18785201 -0.8910846 0.51162535 -0.6175632
0.30536857 0.7740446 -0.016272463 0.19519508 1.3292305 -0.61105067 -0.20523569 0.09488975
0.02600273 0.00237538 0.0065573514 0.31016898 -0.11372416 -0.487657 0.5386896 -0.21420054
-0.06924918 -0.47971192 -0.0032099613 -0.6171982 -0.41929638 -0.0499157 -0.28074926 0.7062111
0.08872193 -0.07994484 -0.05014275 -0.08984237 0.98387015 -0.12804726 -0.08286914 0.11613874
-0.6387136 -0.50479966 0.016260711 -0.5712077 -0.26507393 -0.7537162 -0.36595538 0.71020615
-0.5252 -0.12913589 0.44655594 0.162266 -0.558598 -0.16639672 -0.58670634 0.18989132
0.06435712 0.40486678 -0.21310945 0.2274169 -0.57811284 0.09093893 0.61938405 -0.3923603
-0.25489625 -0.056504603 -0.24212818 -0.19859296 0.02504358 -0.13987592 -0.054414243 0.6187317
-0.26495492 -0.48457786 0.1249982 -0.18282373 0.2020599 -0.53319025 -0.18020557 0.4114465
-0.86104244 0.021365145 0.502801 0.046537273 0.23129708 -0.55350816 0.86998236 -0.39467964
0.23065118 -0.09568083 -0.41454804 -0.33208272 -0.021543829 -0.5166917 0.1460771 -0.15399107
-0.12927635 0.1530581 0.01760885 -0.057761915 0.26294518 0.18264224 -0.15206443 0.19325696
0.09591311 0.2532208 0.36194643 0.23585495 -0.1367261 -0.13248205 0.48159695 0.7969996
0.14630325 0.27635658 -0.20870157 -0.12846273 0.23505978 -0.058781315 0.67923415 0.072185494

encoder.rnn.weight_hh_l1 f4 [96, 32]
00000000: 31c0 9dbe 3d39 6abe 5800 62be a5fe 223d
00000010: 5320 8d3f 74f2 73bf 0a80 58bf 68b3 37bd
00000020: 92c4 5f3f 540d f73c 3efd d43e de34 dcbc
00000030: 933f 6ebf 1cdd 2a3f 1ae3 a13e 8ab1 de3e
00000040: f8da 02be db2b 5fbe 3422 42be 78e9 41bd
00000050: b193 f13e ff5f 023d dfa3 ebbe f2c1 f83e
00000060: 3b9c 35be 780a 18bf 0a6c 0cbf d7c2 363f
00000070: dbfe 30bd afaf c43e dff9 7c3d cd69 10bf
00000080: d28f 9b3e d995 1fbe 6bc1 ae3e 05fa 2cbf
00000090: a289 b7bb 9505 ae3e 3601 6e3e d733 383e
000000a0: 4970 d1be 5e74 febc 5a7f 183e 0745 84be
000000b0: b4cf 2c3f 7950 b13e a0c0 2fbe 03b5 0a3f
000000c0: b93e 823d 5cae b73e 8813 b63e 9243 083f
000000d0: e0ab a0be 247d 83be 87d7 80be 391d d93d
000000e0: 8aa5 0c3e 1daf 143f 2393 5d3e 264f f6be
000000f0: 4766 ba3e edb4 85be cce1 02bf 019e f63d
00000100: 7eeb 073e 363c 17bf 2edd 143f 2824 2fbf
00000110: c51f 0e3e b710 ffbe 047f 0cbf 7f15 d43d
00000120: c00e d03e 87c3 07bf e46a 3fbe 9ae9 173f
00000130: 13ca e4bd e14e 4f3f 8f43 743e 157e d93e
00000140: 9a1d bc3c a3b2 f2be aa95 263f 81a5 08be
00000150: 3b32 593c a8fd 3bbf 0cfc 31be aa18 163e
00000160: 1ba5 053e e7c5 be3c c606 39be 02da e0bd
00000170: a2e0 01bf a432 b5bd 0949 8bbe bbdc ff3a
00000180: 5a4e 9abe 00ff e5be 1be1 463f e9ae 24bf
00000190: 921e 373f 226a 3cbe 0285 983e 8cf4 223d
000001a0: 278b a4be 3c3c ddbe 41d8 3f3f f39f 00be
000001b0: 9d3a 12bf e2b7 bdbe b0a4 2fbe 50c4 b13e
000001c0: 34c7 213e d3cd 103f 8cf8 d4be 2be5 8b3e
000001d0: 7da3 623f 1a26 b63d 8572 eebe 931d b2bd
000001e0: 566a efbe b715 e03e b638 993e 6642 bc3e
000001f0: e730 bc3e 07b9 153f b635 123f be60 e93d
00000200: 3ca7 393f deff c13d 8bc1 0d3e 133d 51be
00000210: bcbc d8be a1a5 613d 3d31 9abe 0504 353f
00000220: aeb2 1ebe 8862 c9be 6e0c fdbe aba7 e03d
00000230: 3e1a ae3e 5a39 2cbe c230 c53e 8dad 373f
00000240: ff63 83be 62c7 903e 13fd ffbe d70c 28be
00000250: 130a 1dbf 1134 9c3d 67ba 9abd dcfe acbe
00000260: 25a6 e63e db48 f03c 817c 84be 2fa2 8c3d
00000270: 849d 773e 0e09 97be 4603 c1be 5ccb 2cbe
00000280: 0bda b23e 59cc 1d3e 863a a83e 7001 d6bd
00000290: 11f0 203d ff12 9a3e 81d5 1abf 9303 b13e
000002a0: 5d58 6dbf d664 14bd c7ca b63e 9c08 b33e
000002b0: ebd4 7b3e 649a 4e3f 4337 25bf 8a80 45bf
000002c0: 1df1 c73d 4d87 0fbf 80ec 02bf 221c 59bf
000002d0: 63a5 b4be 8cb1 a8be a76a 303e bd15 da3e
000002e0: 5e80 4a3f d656 623e 051a 123e c5e2 c83d
000002f0: 95f2 bc3e 7363 1d3d 0eeb 173e c042 e83e
00000300: 0606 bfbd c3ed 38bd bb64 833e 6ed6 453f
00000310: b0c7 863e d13c f4be f67a 4abd 3077 84bf
00000320: ede3 a53e d4b9 1fbd ff24 bcbd 086c f6bc
00000330: 8a69 14bf 3261 1dbd ae93 ea3e 47b6 4e3d
00000340: 8066 c6be e54a fe3d 7b07 8cbe c852 0e3f
00000350: 2359 003f 046a f4be 2bfe 133f 3541 373e
00000360: 3375 e93d a101 fbbe 4ecd 493e 953c 05be
00000370: 2f9e 133f e9d5 d73e 1dca 073f df29 8abd
00000380: 7e0b 10bf b949 e23d b7a6 12bf 8de9 253e
00000390: ad0c 983e 2ff7 8b3d 900a 743e 76d5 86bf
000003a0: 1ade e73e 9694 a0bf 229c 06bf 418d bb3d
000003b0: 66b3 09bd ab22 d9bd 686a f43d eab0 44bc
000003c0: 3863 d93e 0192 133d e566 943e 6815 0bbf
000003d0: d62d 4b3d 7f88 ec3d 9396 2a3e 6393 ca3d
000003e0: f5ed c03e c532 a93d 25b1 68bf cac3 0d3e
000003f0: 8696 89bf a1db 1a3e 7b82 773e bfb7 fcbe
-0.30810693 -0.22873397 -0.22070444 0.03979363 1.102549 -0.9529183 -0.8457037 -0.04484883
0.8740932 0.030157723 0.41599458 -0.026880678 -0.93065757 0.66743636 0.31618577 0.43494827
-0.12778842 -0.21794073 -0.1895836 -0.047341794 0.47182992 0.03182983 -0.4602346 0.4858547
-0.17735378 -0.59390974 -0.54852355 0.7139105 -0.0432118 0.38415286 0.061761733 -0.5641144
0.30383164 -0.15584506 0.3413194 -0.67569 -0.005601124 0.33988634 0.2324265 0.17988525
-0.4090598 -0.031061348 0.14892331 -0.25833914 0.6750443 0.34631708 -0.17163324 0.5418245
0.0635962 0.35875213 0.35561776 0.53228104 -0.3138113 -0.25681412 -0.25164434 0.10601277
0.13735023 0.580797 0.2163816 -0.4810726 0.36406156 -0.26114598 -0.5112579 0.120418556
0.13273427 -0.5907625 0.58149993 -0.68414545 0.13879307 -0.4981744 -0.5488131 0.103556626
0.40636253 -0.53032726 -0.1869312 0.5934082 -0.11171355 0.80979735 0.23853897 0.42479005
0.022963334 -0.47401914 0.6507212 -0.13344385 0.013256605 -0.73433924 -0.17381305 0.14657846
0.13051264 0.023287727 -0.1806899 -0.10979082 -0.5073339 -0.088475496 -0.2720416 0.0019520739
-0.30137902 -0.44921112 0.77687234 -0.6432939 0.7153102 -0.18399861 0.29788977 0.039784
-0.32137415 -0.43210018 0.7493935 -0.12561016 -0.57120687 -0.37054354 -0.17152667 0.34720087
0.15798646 0.5656406 -0.41595876 0.2732328 0.88530713 0.08893986 -0.46571746 -0.08697047
-0.46760815 0.43766567 0.2992608 0.36769408 0.3675606 0.58485454 0.57113206 0.11395405
0.72520804 0.09472631 0.13843362 -0.20433454 -0.42331493 0.055089597 -0.3011569 0.7070926
-0.15497848 -0.39332986 -0.49423546 0.1096948 0.34004396 -0.16818753 0.38513762 0.7174919
-0.25662228 0.28277117 -0.49997768 -0.16411148 -0.613435 0.076271184 -0.07555085 -0.33788192
0.45048633 0.029331615 -0.2587624 0.068668716 0.24181181 -0.29499096 -0.3769781 -0.1687445
0.3493198 0.15409984 0.3285715 -0.10449493 0.039291445 0.30092618 -0.6048203 0.3457304
-0.92712957 -0.036228977 0.35701582 0.34967506 0.2459294 0.8070433 -0.6453745 -0.7714926
0.097627856 -0.5606583 -0.5114212 -0.8480855 -0.3528243 -0.32947958 0.17228185 0.4259471
0.7910212 0.22103438 0.14267738 0.09808878 0.36903825 0.03842492 0.1483576 0.45363426
-0.09327321 -0.045148622 0.2566279 0.7728032 0.26324224 -0.4770265 -0.04943367 -1.0348873
0.32400456 -0.03899558 -0.09186744 -0.03008081 -0.5797354 -0.03842277 0.45815796 0.050466802
-0.38750076 0.12416629 -0.27349457 0.55595064 0.5013601 -0.47737134 0.57809705 0.17895968
0.11399307 -0.4902468 0.19707224 -0.13011391 0.57663244 0.42155388 0.53042775 -0.067462675
-0.56267536 0.11049218 -0.57285637 0.16202374 0.2969717 0.06834256 0.23832154 -1.0533893
0.45286638 -1.2545345 -0.5258199 0.091578014 -0.033618353 -0.106023155 0.11934358 -0.01200507
0.4245851 0.036027912 0.28984752 -0.5432954 0.04960426 0.11549472 0.16659002 0.09891393
0.37681547 0.08261637 -0.908953 0.13844219 -1.0749061 0.15122844 0.24170868 -0.49358937

encoder.rnn.bias_ih_l1 f4 [96]
00000000: 8d7e 1fbd 52f3 36be fdc9 c63e 0905 a83e
00000010: 0fed 20be 23cf be3e d8c4 a33c 20fa 6e3e
00000020: 0e75 f13d 065b c43e b8f5 743e ac2d 98bd
00000030: d99d e43d 5e69 073e 7191 1bbf 4df8 f63e
00000040: aca4 3e3f 2ab8 853e f5da 233e 7d6c 7e3e
00000050: a585 453e 3370 d23d 2d8b 173f 4d7f 963e
00000060: aa97 013f 669e 8a3e 0477 12be 1fb7 ea3e
00000070: 007a 9a3e 1eef 65bd c69a e6bc 413e d03e
00000080: 3b8b 1fbf 1451 a8be cae4 bcbe 88dc 87be
00000090: a713 e5be eed7 3bbf d1f8 9cbe c516 1cbf
000000a0: 6810 08bf 4096 c23c e72f aebe 2067 d4be
000000b0: 13f6 06bf 7377 bbbe f4d6 99bd afe3 45bf
000000c0: b359 11bf e2e8 11be 22de 00bf 1c56 12bf
000000d0: 11b9 00bf 344a 26bd 9e65 ffbe 3bb8 e2bd
000000e0: 8b76 e5be 8090 0dbf 3043 bfbe 4c09 06bf
000000f0: ddba fbbe 00e7 41bf 2faf a3be 4526 133e
00000100: 8c5d 913e 17b9 e53e 66d5 21be 5ce6 9b3d
00000110: 4301 bd3e d4ae e3be af1e f0bc 81f0 333e
00000120: 7034 533e 273f cabe 6ed3 74bd f8ef 453e
00000130: a267 d13b 03c0 31bd 4947 c03e 4c77 4ebe
00000140: 2959 ac3e e36a ffbb 4117 b83e 92be f3bd
00000150: 3ccd 713e b523 8b3d 429f b33e 19e5 8fbe
00000160: 4f88 db3e 2560 373e da5e 4fbe 2c19 e1bd
00000170: 5130 b5bd 38ca 53be c87e d83e b26e 9bbd
-0.038939048 -0.17866257 0.3882598 0.32816342 -0.1571543 0.37267408 0.019991323 0.23337603
0.117899045 0.38350695 0.2392186 -0.07430586 0.111629196 0.13223788 -0.607688 0.48236313
0.7447002 0.2611707 0.16001494 0.24846072 0.19289263 0.102753066 0.5919674 0.29393998
0.50622046 0.27073973 -0.14303213 0.45842835 0.30171204 -0.056136243 -0.028149974 0.40672496
-0.62321824 -0.32874358 -0.36893302 -0.2653544 -0.44741556 -0.7337636 -0.30658582 -0.60972244
-0.53150034 0.023753285 -0.34020922 -0.41484928 -0.5271923 -0.3661457 -0.07511702 -0.7730054
-0.56777495 -0.14248994 -0.5033895 -0.5716264 -0.5028239 -0.04059811 -0.49882215 -0.110702954
-0.44817004 -0.55298615 -0.37355947 -0.52357936 -0.49166003 -0.75743103 -0.31969592 0.14370067
0.28391683 0.44867775 -0.15804061 0.07612297 0.36915025 -0.4446932 -0.029311506 0.17572214
0.20625472 -0.39501306 -0.059771948 0.19329822 0.006390528 -0.043396007 0.37554386 -0.20162696
0.33661774 -0.0077947243 0.3595524 -0.11901583 0.23613447 0.0679392 0.35082442 -0.28104475
0.42877433 0.1790777 -0.20251027 -0.10991129 -0.08847106 -0.20682609 0.42284226 -0.07589473

encoder.rnn.bias_hh_l1 f4 [96]
00000000: 5131 f3bd e303 46be 8f76 ce3e 8ef9 d33e
00000010: 0e6a 333e 15f9 1d3e e737 ebbd 0c4c 9e3e
00000020: 384d 64bc b486 2a3f 2430 ac3e b9d4 02be
00000030: f52d a73e 0656 363e 063e 2ebf ae89 9c3e
00000040: c60f 243f f98b a93e 13cc 4c3e 43b5 843e
00000050: 8b71 963e 86ca 07be b53a 153f 464d 7f3e
00000060: 6251 9a3e acac 6a3e 42c2 2abe 53b9 a93e
00000070: 2016 043f 65d0 b13c 71ba 2c3e 069a 783e
00000080: b477 f8be 8bf1 7fbe fe3a 70be e137 3fbe
00000090: afbc dbbe 9f69 26bf 325d c4be 173f 1abf
000000a0: 3b40 41bf b7ac 1a3d 78ec 99be fbd3 97be
000000b0: 6173 d7be e0b0 c1be a40e 63be 8730 3bbf
000000c0: 353a 23bf a5f9 dfbe 1dc7 39bf 56a1 1ebf
000000d0: 2f77 d4be dcb5 81bc 5f94 2fbf 644f 22bd
000000e0: a228 7fbe ab2f 2cbf 4115 fdbe 7b6e 91be
000000f0: be42 abbe a4b9 3abf 5ffd 8abe fdad 29bd
00000100: beaf a73e 88c9 f83d c8b6 1bbe d27a ccbc
00000110: 32ef 953e c5dd 87bc 47a0 8dbe 8eca 1dbd
00000120: 71d1 3e3d b750 22bd 3982 dbbd 6228 803c
00000130: 8083 953e cda1 bebe 6704 0b3e 6501 dc3d
00000140: f9f4 533e 32bb f03d ecbc 783e 52b8 e2be
00000150: fcc5 6a3e eafb 20bd a634 c33d 3d64 c1be
00000160: 57b7 d53e 499f ae3e 3cea c5be f420 74bd
00000170: cf40 733e 7666 e63c 8582 8a3e ed57 003b
-0.11874641 -0.1933742 0.40324828 0.41401333 0.17520925 0.15427049 -0.11485272 0.30917394
-0.013934426 0.6661179 0.33630478 -0.1277646 0.3265225 0.17806253 -0.6806339 0.3057379
0.6408657 0.33114603 0.19999723 0.25919542 0.293835 -0.1326085 0.58292705 0.24931821
0.30140215 0.22917432 -0.16675666 0.33149204 0.5159626 0.021705816 0.16867997 0.24277505
-0.48528826 -0.24994485 -0.23460004 -0.1867366 -0.42917392 -0.65004915 -0.38352352 -0.6025252
-0.7548863 0.03776237 -0.30063224 -0.29653916 -0.42080215 -0.37830257 -0.22173554 -0.7312092
-0.6376069 -0.4374515 -0.7256945 -0.6196493 -0.4149718 -0.015833788 -0.6858577 -0.039626494
-0.24917844 -0.67260236 -0.49430278 -0.28404602 -0.33449358 -0.72939515 -0.27146432 -0.041425694
0.32751268 0.12147814 -0.15206444 -0.024960909 0.29284054 -0.01658524 -0.27661344 -0.03852325
0.046586458 -0.039627757 -0.107181974 0.015644256 0.2920189 -0.3723282 0.13575898 0.107424535
0.20698918 0.11754455 0.24290818 -0.4428125 0.22927088 -0.039302744 0.09531526 -0.37771788
0.4174144 0.341059 -0.3865527 -0.05960174 0.23755191 0.028125029 0.27052703 0.0019583658

decoder.embedding.weight f4 [201, 32]
00000000: 0dda 5bbf 3241 a8bf 8655 70bf a296 8dbe
00000010: afb6 403f 7f0a de3f 33d4 51be 055f b53d
00000020: 4908 9f3f d6d5 893e 6c39 673f 0da9 803e
00000030: 37c7 923c 8b4b 1dbd 9972 bd3f ce7d 523c
00000040: ffc8 04c0 882f 0abe ba28 8cbe 440f 8f3e
00000050: 4245 d6bd c8b5 b7bd 608d b8bf 5100 003f
00000060: 6eb6 073f 0e68 a0bf 0f93 373e fb47 a4bb
00000070: e756 ffbf 5fba a13e 8545 cabe 4e3a cb3e
00000080: dd7e 873e debc 04c0 eea8 79bf 5ae1 033f
00000090: 247a a6bf 609b 1d3f ee6a 1fbe 4751 0140
000000a0: 7fc4 7d3b 49c7 28bf 3deb cdbe 6600 c5be
000000b0: c201 163f 7694 ecbf 46bd 2cbe 4700 303f
000000c0: 78b9 f5bf ca51 ad3f 9ad1 703f 1b37 12c0
000000d0: 7b70 84bf eabb 04bf dfba 713f 96a1 40bf
000000e0: 42ab 89bf 7859 033f cec8 84bf e38f 06bf
000000f0: c9ce 90bf b223 09bf 4b82 a8bf 84f8 33c0
00000100: 8657 afbf 2ff5 803f 7137 c63e 124c de3e
00000110: 9a2e 08c0 2deb 983f 8fd1 25be 9349 993e
00000120: 1ac1 633e 8415 ec3d e6fa ee3f 50af 1d40
00000130: a08a bcbe f089 7f3e 4302 c93e 2562 993f
00000140: 0b4a 3bbd 3b9b f63e 5e20 22bf d4a3 0abf
00000150: 992e d93e 4976 2d3f 2478 d23c e2eb 3f3f
00000160: 0263 6e3d 7115 88bf 15c9 afbe 20b4 a0bf
00000170: e665 213f 6bc6 0240 de60 a23f 84d9 ba3f
00000180: 66ab b43f bb92 983f 5dfa 6cbf f023 3a3f
00000190: 1181 9dbf 40c1 d3bf f36b 0c40 84f0 ab3e
000001a0: f51c d8bf 1eee d7be 03d6 0dbf e8c1 fdbf
000001b0: 60c7 9dbf d451 eebe 78d5 543f 04f8 3340
000001c0: 0131 56be 9ff1 7c3f e159 26bf 3422 9e3f
000001d0: 79a8 8fbf e6c7 423f 784f bcbe 9b8e 1cc0
000001e0: c5e7 9dbd 0f8a 113f 7881 6c3e 7b4b 1d3f
000001f0: fdec 9a3e 5f2c 353f a4f6 74be 5b13 fcbe
00000200: 8e0a 183f 2962 b33e de30 b2bf 1672 d6be
00000210: 81ef cebf 0944 b5bf 5d75 57bf 2b03 1cbf
00000220: d29e 013d c764 dabf e0ad 0ac0 864c d03e
00000230: 8c3f c4bf b18a 8b3d 3e53 2d40 6005 14bf
00000240: 080b c83f e088 803f 476a cb3f 550f f9be
00000250: e673 12c0 cd8c 713f f8b2 acbe 37d0 583f
00000260: e2f5 c2bf fb53 1040 9e41 96bd 5158 113f
00000270: 412d a5bf 679e a23f b42c c23f 7b86 e5bf
00000280: e99b e13f 0e3a ac3e 3c94 49c0 2db7 19bf
00000290: 6a01 403d ccf8 4abf 865a e2bf 0a54 9ebf
000002a0: 339c 9bbf 3e92 04be 0310 25be 7989 e5bd
000002b0: 8685 69bf 2111 babf 6f98 e73f 86c3 3b3d
000002c0: 322f 9b3f 3311 1d3f e64d 6ebf 6b97 0ac0
000002d0: 0286 3dbe c908 1ec0 c44f 4dbe f823 5b3f
000002e0: c1bc d6bf bbc7 713f 5aba d63f 3ae0 c33f
000002f0: 0ea7 d7bf 7080 a63d 6bac 493f d550 20c0
00000300: 23c5 84bd ad1c 34be 7afb 993f deff 9e3f
00000310: e54a c3bd e4b9 fcbe 6a7b b13d 2a42 e93e
00000320: 7808 85be 9f02 d7bf f68f c93c 2346 81bf
00000330: 435a b73f f0cf 7c3f 399d c7bf b49c 6d3f
00000340: 9a99 723f ddf8 323f 9f05 dbbe bc8a 58be
00000350: 284e 10bf 0698 95bf 92d9 ba3f c49f 6dbf
00000360: 97a5 96bf b229 86bf 0708 21bf 3528 aa3e
00000370: 91bd 0440 cb5a 0040 aba2 133f 3c13 f43e
00000380: 66a4 1cbf 34b7 1dbf bdf6 8bbe 4a00 143e
00000390: 7c8b ae3f bd03 743f e83c 7a3f 1aa8 74bf
000003a0: b60f 8f3f 0bfa 9bbe 9ffb b9be cce7 c03e
000003b0: 8517 c4bf 4c99 be3e 9b5a a7bf 790d 6abf
000003c0: 589e fe3e 0384 813f fa6b a2be e56d a1be
000003d0: b399 ccbe ac71 003f d890 2f3f 21fb dabe
000003e0: 3de7 993e edcb 073f d3b8 b8bf 8f18 f0be
000003f0: 4bde c7be 7671 d93f a283 a33f 74b8 b6be
-0.85879594 -1.3144896 -0.938805 -0.27653986 0.75278753 1.7346953 -0.20491104 0.08856014
1.2424403 0.26920956 0.90321994 0.25128976 0.017917259 -0.03840212 1.4800597 0.012847377
-2.0747678 -0.13494694 -0.27374822 0.27941334 -0.10462429 -0.08970219 -1.4418144 0.5000048
0.5301274 -1.2531755 0.17927192 -0.0050134636 -1.9948395 0.31587502 -0.39506164 0.3969292
0.26463977 -2.0740275 -0.9752339 0.51515734 -1.3006024 0.6156521 -0.15568134 2.0205858
0.0038721857 -0.65929085 -0.40218535 -0.38476866 0.5859643 -1.8482807 -0.16869077 0.68750423
-1.9197226 1.3540585 0.94069827 -2.2846134 -1.0346826 -0.51849234 0.9442577 -0.7524656
-1.0755389 0.51308393 -1.0373781 -0.52563304 -1.1313106 -0.5357009 -1.3164762 -2.8120432
-1.3698585 1.0074824 0.38714173 0.43417412 -2.1278443 1.194677 -0.16193222 0.29938945
0.22241631 0.11527541 1.8670318 2.4638252 -0.36824512 0.24954963 0.39259538 1.1983076
-0.04572491 0.48165306 -0.6333064 -0.5415623 0.42418364 0.67758614 0.025692053 0.74969304
0.05819989 -1.0631543 -0.343331 -1.255497 0.6304611 2.0433605 1.2685812 1.459763
1.4114807 1.1919779 -0.92569524 0.72711086 -1.2305013 -1.654335 2.1940887 0.33581936
-1.6883837 -0.42173856 -0.5540468 -1.98248 -1.232647 -0.46546805 0.8313823 2.8120127
-0.20917131 0.98806185 -0.64980894 1.2354188 -1.1223289 0.7608627 -0.3677938 -2.446204
-0.07710222 0.56851286 0.23096263 0.614433 0.30258933 0.7077083 -0.23922211 -0.49233517
0.59391105 0.35035828 -1.3921163 -0.41883916 -1.6166841 -1.4161388 -0.8416346 -0.60942334
0.031645603 -1.7062005 -2.1668625 0.40683383 -1.5331893 0.06813563 2.7082057 -0.578207
1.5628366 1.0041771 1.5891808 -0.4864451 -2.2883239 0.9435547 -0.33730292 0.8469271
-1.5231287 2.2551258 -0.07336734 0.56775385 -1.2904435 1.270459 1.5169892 -1.7931665
1.7625705 0.33638042 -3.1496725 -0.6004513 0.04687635 -0.79285884 -1.7683876 -1.2369397
-1.2157043 -0.12946412 -0.16119389 -0.112078615 -0.91219366 -1.4536477 1.8093394 0.045840763
1.2123778 0.6135437 -0.93087614 -2.1654918 -0.18508151 -2.4692862 -0.2004996 0.8560176
-1.6776353 0.9444539 1.677562 1.5302804 -1.6847856 0.08129966 0.78778714 -2.5049336
-0.06482913 -0.17589064 1.202987 1.2421834 -0.095357694 -0.49360573 0.086661175 0.45558292
-0.25983024 -1.6797675 0.024604779 -1.0099529 1.4324421 0.9875479 -1.5594856 0.92817235
0.9476563 0.69910985 -0.42777726 -0.21146673 -0.56369257 -1.1687019 1.4597647 -0.9282191
-1.1769284 -1.0481474 -0.62902874 0.332338 2.0740702 2.0055416 0.57670087 0.47670925
-0.6118835 -0.6160767 -0.27336684 0.14453235 1.3636317 0.95318204 0.97749186 -0.95569
1.117667 -0.30464205 -0.36324784 0.37676847 -1.5319678 0.3722633 -1.3074526 -0.9142681
0.49730182 1.0118412 -0.31723005 -0.31529155 -0.39961013 0.5017345 0.6858039 -0.4276972
0.30059233 0.5304554 -1.4431404 -0.46893737 -0.39036784 1.698775 1.2774546 -0.35687602
